p1_navigation/checkpoint.pth (torch_old, 173683 bytes, 6 tensors)

hidden_layers.0.weight f4 [256, 37]
0	0xbcb0e222	-0.021592204
1	0x3dd545a8	0.104136765
2	0xbddeaaaa	-0.10872395
3	0xbe574679	-0.21022977
4	0xbc214b9b	-0.009844686
5	0xbdb35bb6	-0.08757727
6	0xbd64226f	-0.0556969
7	0x3e837427	0.25674555
8	0x3e043bf8	0.12913501
9	0xbd4603b0	-0.04834336
10	0xbcb22706	-0.021747123
11	0xbd2efa59	-0.04271922
12	0xbe236539	-0.15956582
13	0xbd279faa	-0.040923752
14	0xbe637672	-0.22213152
15	0xbd7b8f4c	-0.061415955
16	0x3cd4e47b	0.025987854
17	0x3e85bf3e	0.2612247
18	0xbe1f53b5	-0.15559275
19	0xbe44d828	-0.19223082
20	0x3bdb1a4f	0.006686486
21	0x3ec073fe	0.37588495
22	0xbd751f0d	-0.059844065
23	0xbdbadc6c	-0.091240734
24	0xbea1253e	-0.31473726
25	0x3d398c2f	0.045299705
26	0x3e3790d3	0.1792634
27	0xbe308ddc	-0.17241615
28	0xbe59d093	-0.21270971
29	0xbb84a8dc	-0.00404845
30	0xbe943d49	-0.28953007
31	0x3e653e07	0.22386943
32	0x3c46ebe5	0.012141203
33	0xbd2e7f5f	-0.04260194
34	0xbd8d88c0	-0.069108486
35	0xbe115654	-0.14193088
36	0xbc88b1bc	-0.016686313
37	0x3e75a7e7	0.23989831
38	0xbd996dc3	-0.074916385
39	0xbd9ce966	-0.07661705
40	0xbc901ec6	-0.017592799
41	0xbf4e25c6	-0.8052639
42	0xbdb3f15c	-0.0878627
43	0xbe549ab9	-0.20762147
44	0x3c46e882	0.012140395
45	0xbdf0f76e	-0.117659435
46	0xbceb0cc0	-0.028692603
47	0x3e0dda7d	0.13852878
48	0xbe484b75	-0.19560035
49	0xbca94a7a	-0.020665396
50	0x3deb7979	0.114977784
51	0x3cc17126	0.023613524
52	0x3d930d59	0.0718028
53	0xbd1266a8	-0.035742432
54	0x3e1efd5b	0.15526335
55	0xbcfa3f70	-0.030547827
56	0xbee40fcb	-0.445433
57	0xbe55e01d	-0.20886274
58	0xbccfff2a	-0.025390226
59	0xbdab7c69	-0.08373339
60	0x3bb6979a	0.0055722715
61	0x3d360a40	0.04444337
62	0xbe1b1a03	-0.15146641
63	0x3e7fc9dc	0.24979347
64	0xbd5a5469	-0.053303156
65	0xbb9b3eac	-0.0047376957
66	0x3e058e40	0.13042545
67	0x3d95bdb2	0.07311572
68	0xbd46d203	-0.048540127
69	0x3e070f1f	0.13189362
70	0xbe0f1a1e	-0.13974807
71	0xbe5d7d21	-0.21629764
72	0x3e94c085	0.2905313
73	0x3ac9799e	0.0015371328
74	0x3e3980ed	0.18115588
75	0xbd968b53	-0.07350793
76	0x3de9adcc	0.11410102
77	0xbe57dbe5	-0.21079977
78	0xbdef8d8c	-0.1169692
79	0xbec7191c	-0.38886344
80	0xbdf89e43	-0.12139561
81	0x3e39458c	0.18092936
82	0x3deddd6b	0.11614498
83	0xbdc7e284	-0.09760001
84	0x3de38798	0.11109847
85	0xbe264c1a	-0.16239968
86	0xbe1aef2f	-0.15130304
87	0xbdeeb27e	-0.116551384
88	0x3e50017d	0.20313068
89	0xbe3fcbaa	-0.18730035
90	0x3d73149c	0.059345827
91	0x3bcc730f	0.006239302
92	0x3e51e9aa	0.20499292
93	0x3eda90e3	0.42688665
94	0xbe6b16b4	-0.2295788
95	0xbdf4153c	-0.11918113
96	0xbc01fc1b	-0.007933642
97	0x3df705c5	0.12061647
98	0x3e2ac759	0.16677608
99	0xbe414538	-0.18874061
100	0x3e11ae8e	0.14226744
101	0x3d93ca30	0.072162986
102	0xbd43eb08	-0.047831565
103	0x3ca0a9a7	0.019612147
104	0xbea3778e	-0.3192715
105	0xbcb18b88	-0.021672979
106	0xbddea84f	-0.10871946
107	0xbd366e3a	-0.044538714
108	0x3e65d6a2	0.22445157
109	0x3d428246	0.04748752
110	0xbd3992b6	-0.04530593
111	0x3e93afc1	0.28845027
112	0xbe44a344	-0.19202906
113	0x3e108793	0.14114217
114	0x3d7191ff	0.058977123
115	0xbf2688c0	-0.65052414
116	0x3d61da91	0.05514008
117	0xbdc4ebd4	-0.09615293
118	0x3d95fa30	0.0732311
119	0x3e32c07c	0.1745624
120	0x3e8832cc	0.26601255
121	0x3d9f6dac	0.0778459
122	0xbe3e4e7f	-0.18584631
123	0x3e863e9c	0.26219642
124	0xbe88d8d4	-0.26727927
125	0xbe706e50	-0.23479581
126	0x3c18ec9f	0.009333759
127	0xbe08f564	-0.13374859
128	0xbcd347b3	-0.025791025
129	0xbda86441	-0.08222247
130	0xbe75d2b5	-0.2400616
131	0xbd0e4962	-0.034737952
132	0x3e0ddf0d	0.13854618
133	0x3dbde834	0.09272805
134	0x3db28952	0.08717598
135	0x3d421c30	0.047390163
136	0x3e23d576	0.15999398
137	0xbae1490c	-0.0017187907
138	0x3b5f6325	0.0034086194
139	0x3d053c6c	0.032528326
140	0x3da179a6	0.07884531
141	0x3def49db	0.11684009
142	0x3e37c399	0.17945708
143	0x3d9a33ed	0.07529435
144	0x3b44193d	0.002992227
145	0xbed41561	-0.4142256
146	0x3de34f6b	0.11099132
147	0xbba712ac	-0.0050986614
148	0xbd1b627c	-0.03793572
149	0xbd029e5f	-0.031889316
150	0xbe499559	-0.19685878
151	0xbee89ff4	-0.45434535
152	0x3ded21ce	0.11578713
153	0x3e2cc15b	0.16870634
154	0xbe15fd52	-0.14647415
155	0xbd87f637	-0.06638759
156	0xbe410f6e	-0.18853542
157	0xbf9f2ca9	-1.2435504
158	0x3d42eaa0	0.047587037
159	0xba79577a	-0.0009511631
160	0xbda08f08	-0.07839781
161	0xbe2dfed3	-0.16991739
162	0x3baa875b	0.005204124
163	0xbe45e222	-0.19324544
164	0x3e23fdeb	0.16014831
165	0xbe21196a	-0.15732351
166	0xbe01e4e3	-0.1268497
167	0x3e6856ad	0.22689314
168	0xbdb49753	-0.08817925
169	0x3c42445a	0.011857117
170	0x3d8f7a17	0.07005709
171	0x3c4a0d1c	0.012332227
172	0xb9d64cf7	-0.00040874604
173	0x3dd09e2f	0.10186421
174	0x3cb27a25	0.021786759
175	0xbd4700dc	-0.048584804
176	0xbca701f3	-0.020386672
177	0xbe9a1054	-0.30090582
178	0x3d665aca	0.056238927
179	0xbd6de84e	-0.05808287
180	0x3e104494	0.1408866
181	0x3b699110	0.0035639443
182	0x3e23fbaf	0.16013978
183	0x3d8205c4	0.06348756
184	0x3d146e61	0.036238078
185	0x3deda9b9	0.11604638
186	0xbe7085ff	-0.23488615
187	0xbe1a6f32	-0.1508148
188	0xbf0b074f	-0.5430803
189	0x3d73906a	0.059463896
190	0xbbf3207f	-0.0074196453
191	0x3e3a4ae5	0.18192632
192	0x3c5327c5	0.0128879
193	0xbea93d37	-0.33054516
194	0xbf4f16b8	-0.8089404
195	0xbdc62e1a	-0.09676762
196	0xbe88e855	-0.26739755
197	0x3db2e9fa	0.08736034
198	0xbeeef764	-0.4667312
199	0xbe6cbcc9	-0.23118891
200	0xbcabdce5	-0.020979354
201	0x3e115582	0.14192775
202	0xbeb1e25c	-0.3474301
203	0xbf00b559	-0.50276715
204	0xbca14de3	-0.01969046
205	0x3d8a1580	0.06742382
206	0xbe7d78a0	-0.24753046
207	0x3d5c7bf4	0.05382915
208	0x3dc2cf02	0.0951214
209	0xbf6398c6	-0.8890499
210	0xbe4cc38c	-0.1999647
211	0x3df3b4fb	0.11899754
212	0xbdf0da6d	-0.117604114
213	0x3d79e03f	0.061004873
214	0xbe6a49bb	-0.22879688
215	0xbd90e535	-0.07074968
216	0xbe48d4ad	-0.1961238
217	0x3ca5f872	0.02026007
218	0xbdbe8f73	-0.093047045
219	0xbf4f6921	-0.8101979
220	0xbd597d7b	-0.053098183
221	0x3d6f6a7b	0.058451157
222	0x3cace6b1	0.021106096
223	0x3cfd8c0f	0.030950574
224	0xbda03a25	-0.0782359
225	0x3d98ad14	0.07454887
226	0xbe4358fa	-0.1907691
227	0xbdf5c046	-0.11999564
228	0x3cf52ac6	0.029927623
229	0x3e0d2e39	0.13787164
230	0xbcb4f036	-0.022087198
231	0x3e93268d	0.2874035
232	0x3cc1b8cc	0.023647688
233	0x3e78d3cd	0.24299546
234	0x3b170cb8	0.0023048352
235	0xbd6558e9	-0.055992994
236	0x3dd9a87c	0.10627839
237	0x3d08bb38	0.03338167
238	0xbe99dc4d	-0.3005089
239	0x3e16cafa	0.14725867
240	0xbdb272a7	-0.087132744
241	0x3e5909e1	0.21195175
242	0xbd9b096e	-0.07570158
243	0x3d485a24	0.04891409
244	0x3dc7e129	0.09759743
245	0xbdd97da1	-0.10619665
246	0x3e80839f	0.2510042
247	0xbd339fbd	-0.04385351
248	0x3c3319fe	0.01093149
249	0xbe6ce9fb	-0.23136131
250	0xbc5ba131	-0.01340513
251	0x3c60c63a	0.013719136
252	0x3e14f8fa	0.14548102
253	0xbe8d426e	-0.27589744
254	0xbe465b67	-0.19370805
255	0x3ddc5828	0.10759002

hidden_layers.0.bias f4 [256]
0	0x3d21bf96	0.03948935
1	0x3d683917	0.05669507
2	0xbda375c9	-0.0798145
3	0xbc502bf4	-0.012705792
4	0x3d436883	0.047707092
5	0xbd8adbbb	-0.067801915
6	0xbe14b2f2	-0.14521387
7	0xbddd7990	-0.10814202
8	0xbe356d14	-0.17717391
9	0xbe239313	-0.15974073
10	0x3d857248	0.06515938
11	0x3e0bdfc7	0.13659583
12	0xbe246f89	-0.16058172
13	0xbe6ca8c7	-0.23111258
14	0xbde3324a	-0.11093576
15	0x3cc039a8	0.023464993
16	0x3dc71413	0.09720626
17	0xbd31aac0	-0.04337573
18	0xbe13ca58	-0.14432657
19	0xbe24bcef	-0.16087697
20	0xbd9d5d8f	-0.076838605
21	0x3d395d60	0.045255065
22	0xbc779c5c	-0.015112963
23	0xbde5105d	-0.11184762
24	0x3d64a6c5	0.055823106
25	0x3db6f6f9	0.08933825
26	0x3df0cfa3	0.117583536
27	0x3e1d1777	0.15340982
28	0x3d22f38b	0.039783042
29	0x3e1ce2ba	0.15320864
30	0x3dc44ffc	0.09585568
31	0xbdc55959	-0.09636182
32	0xbdd403c0	-0.10352278
33	0x3d98ff4c	0.07470569
34	0xbbbfa819	-0.005848896
35	0x3ddabe8a	0.10680874
36	0x3cda0849	0.026615279
37	0x3db49885	0.08818153
38	0xbd937695	-0.07200352
39	0x3df2ca36	0.11854975
40	0xbd913a94	-0.07091251
41	0xbd4d23e3	-0.050083052
42	0x3d83dd81	0.06438733
43	0xbb5ac43e	-0.003338113
44	0x3c687bbe	0.014189659
45	0xbd5224ef	-0.051304754
46	0xbddd5ed2	-0.10809101
47	0xbda0ba55	-0.0784804
48	0xbd0ea9ed	-0.034830023
49	0xbcff4b92	-0.031163964
50	0xbb9b0d0e	-0.004731781
51	0x3dfd8d2a	0.123804405
52	0xbd910fb7	-0.070830755
53	0xbd87fad6	-0.0663964
54	0x3dbd7224	0.09250286
55	0xbd696967	-0.056985285
56	0x3dc77d7e	0.097407326
57	0x3d42214e	0.047395043
58	0x3dbc5ec9	0.09197766
59	0x3d7b7964	0.061395064
60	0x3e22392f	0.15842126
61	0x3d5eb4df	0.05437171
62	0x3de9badf	0.11412596
63	0xbd00fe98	-0.0314928
64	0x3d41656e	0.04721587
65	0xbdfac5f0	-0.12244785
66	0xbe212db8	-0.15740097
67	0xbe472f5b	-0.19451658
68	0xbe16927f	-0.14704321
69	0xbdd85fa9	-0.10565121
70	0xbe152d0e	-0.14567968
71	0x3df40014	0.119140774
72	0xbe4727ef	-0.19448827
73	0x3ccd15c7	0.025034798
74	0x3d5a1a36	0.053247653
75	0xbdac9224	-0.084263116
76	0x3dfb69c4	0.122760326
77	0x3d54beab	0.051939648
78	0xbd9828f9	-0.0742969
79	0x3d171d55	0.036893208
80	0xbe0997a3	-0.13436751
81	0x3cb054f3	0.021524882
82	0xbd5ca948	-0.053872377
83	0x3d6f329c	0.058397874
84	0x3d93f1c1	0.07223845
85	0xbd8c8494	-0.06861225
86	0x3cd042b6	0.025422435
87	0x3c92ed36	0.017935377
88	0x3e283fac	0.16430539
89	0x3cabef26	0.020988058
90	0x3e0cabdf	0.13737439
91	0xbe05c1d9	-0.13062228
92	0xbd2a0adf	-0.041514274
93	0x3e31546b	0.17317359
94	0xbd3bc478	-0.045841664
95	0x3d36541b	0.044513803
96	0x3d90fbf3	0.070793055
97	0xbe11bf9d	-0.14233251
98	0xbcc4e6e4	-0.024035878
99	0x3d54ecc2	0.051983602
100	0x3c987f23	0.018615311
101	0xbe5375bd	-0.20650382
102	0xbe0494d8	-0.12947404
103	0xbd2686f6	-0.040656053
104	0xbdc7c98f	-0.09755241
105	0xbe4d67ae	-0.20059082
106	0x3dd68621	0.10474802
107	0xbe371df0	-0.17882514
108	0xbe16845e	-0.14698932
109	0x3daf3ffc	0.08557126
110	0x3dbddec5	0.092710055
111	0x3cc56b41	0.024098994
112	0x3e45bcfd	0.19310375
113	0x3cbf942d	0.023386085
114	0x3db87bb6	0.09007971
115	0xbe1262ec	-0.14295548
116	0xbdde1a9d	-0.1084492
117	0x3d11fb6b	0.03564016
118	0xbc8858e3	-0.016643947
119	0xbd07ee29	-0.03318611
120	0x3ce50628	0.027957037
121	0x3cbf7a30	0.023373693
122	0xbe06f046	-0.13177595
123	0xbcc81b45	-0.024427066
124	0xbdc06558	-0.0939433
125	0xbd5700af	-0.052490886
126	0x3cf44ecb	0.029822728
127	0x3e135ed5	0.14391644
128	0x3e4b6745	0.19863613
129	0xbcb35595	-0.021891395
130	0xbdcd6a08	-0.100299895
131	0x3cf8a5f0	0.030352563
132	0x3da61ead	0.0811132
133	0xbcd18233	-0.02557478
134	0xbc0b2514	-0.008492727
135	0xbd8390fd	-0.06424139
136	0xbd986d9b	-0.074427806
137	0xbe3432be	-0.17597482
138	0xbce10645	-0.02746881
139	0xbe17ea4d	-0.14835472
140	0xbdfa60e1	-0.122255094
141	0x3df1ee20	0.11812997
142	0x3c89e9cb	0.016835114
143	0xbe0372b4	-0.12836725
144	0xbd076802	-0.033058174
145	0xbdff0c60	-0.12453532
146	0xbe142abb	-0.14469425
147	0x3dc2f695	0.09519688
148	0xbe14fe08	-0.1455003
149	0x3e03a908	0.12857449
150	0xbdaa4eca	-0.08315809
151	0xbdec9aee	-0.11552988
152	0xbe297e77	-0.16552149
153	0xbe384fc3	-0.17999177
154	0x3dbebbec	0.09313187
155	0x3d1fdca2	0.03902877
156	0x3d90d622	0.070720926
157	0xbe20dca8	-0.15709174
158	0x3cfa8777	0.030582173
159	0x3d90138d	0.07034979
160	0x3d1ea2c8	0.03872946
161	0x3de764e0	0.11298537
162	0x3dd8898e	0.105731115
163	0xbd432d5c	-0.04765068
164	0xbd29611c	-0.041352376
165	0xbde03203	-0.10947039
166	0x3c12e053	0.008964616
167	0xbe0a9f6a	-0.13537374
168	0xbddb40a2	-0.10705687
169	0xbdf5faa5	-0.12010697
170	0x3e0e50b5	0.13897975
171	0xbdf0a934	-0.11751023
172	0x3de95b05	0.11394314
173	0x3e0e92df	0.13923214
174	0x3d0648b2	0.03278417
175	0xbd3e0a96	-0.046396814
176	0x3e869bce	0.26290745
177	0xbe235431	-0.15950085
178	0x3e0138fa	0.12619391
179	0xbe88d482	-0.2672463
180	0x3e269018	0.16265905
181	0x3c4620db	0.012092794
182	0xbe2c64e5	-0.16835363
183	0xbdad310e	-0.08456622
184	0xbe1751d1	-0.14777304
185	0x3d3fc0e1	0.046814803
186	0x3e4d884e	0.20071527
187	0x3da1de2c	0.07903704
188	0x3d33dc1b	0.04391108
189	0x3de00694	0.10938755
190	0xbe27effb	-0.16400139
191	0x3dcbafb4	0.09945622
192	0xbbfba446	-0.007679495
193	0x3dee1fca	0.11627157
194	0xbd427ccd	-0.0474823
195	0xbddb1d65	-0.10698966
196	0x3dd89c6b	0.10576709
197	0xbe01a60c	-0.12660998
198	0xbe01a93d	-0.12662216
199	0xbd9773fc	-0.07395169
200	0x3dc2da53	0.09514298
201	0xbd77ffb8	-0.060546607
202	0xbe594415	-0.21217377
203	0x3cc734e0	0.024317205
204	0x3c2f3f2f	0.0106962165
205	0xbde55717	-0.11198252
206	0x3d91a14a	0.071108416
207	0x3e2df430	0.16987681
208	0x3dc06c5e	0.093956694
209	0xbd79c56b	-0.060979288
210	0xbdb88441	-0.090096004
211	0xbe501208	-0.20319378
212	0x3d6b9837	0.05751821
213	0xbe2c8dc3	-0.16850953
214	0x3c1b87b9	0.009492808
215	0xbe4c48b0	-0.19949603
216	0xbe2fd039	-0.17169274
217	0x3d8719c1	0.06596709
218	0xbca7466f	-0.020419328
219	0xbda6a94e	-0.08137761
220	0xbdd60280	-0.104496956
221	0xbda64c31	-0.08120001
222	0xbcfa8c87	-0.030584587
223	0xbd826307	-0.06366544
224	0xbe27e4fa	-0.16395941
225	0xbd3158e1	-0.043297652
226	0xbcbcda9a	-0.023053456
227	0x3d037493	0.032093596
228	0x3dacedd8	0.084438026
229	0xbe2759ec	-0.16342896
230	0xbd541695	-0.05177935
231	0xbce74540	-0.028231263
232	0x3d7d14d6	0.06178745
233	0xbcbaf911	-0.022823842
234	0x3cea4739	0.028598415
235	0xbe3f5c27	-0.18687497
236	0xbda93605	-0.082622565
237	0xbc266862	-0.010156723
238	0x3c1993e8	0.0093736425
239	0xbe4bc0d5	-0.19897778
240	0x3d50f1de	0.051011913
241	0x3e321501	0.17390825
242	0xbe318981	-0.1733761
243	0x3dcb2ad2	0.09920277
244	0xbe3bea88	-0.18351185
245	0xbd0ac42f	-0.0338785
246	0xbbe1843f	-0.00688222
247	0x3e49d77e	0.1971111
248	0x3e16132e	0.14655754
249	0x3d97cbd1	0.07411922
250	0xbd04b73b	-0.032401305
251	0xbe65e440	-0.22450352
252	0xbd4a6e40	-0.04942155
253	0x3e0dd711	0.13851573
254	0xbce706ee	-0.028201547
255	0x3b7bad50	0.0038402863

hidden_layers.1.weight f4 [128, 256]
0	0xbde4d20d	-0.111728765
1	0xbe7f69b2	-0.24942663
2	0x3cb356e4	0.021892019
3	0xbe3577a8	-0.17721426
4	0x3d800ccf	0.06252443
5	0xbd0a29c2	-0.03373123
6	0xbe13c207	-0.14429484
7	0x3d94f353	0.07272973
8	0xbd534934	-0.051583484
9	0x3e0f957e	0.1402187
10	0x3c04835f	0.008087962
11	0xbd08ca2d	-0.033395935
12	0xbd824e2d	-0.06362567
13	0xbe108dc1	-0.14116575
14	0xbe4e1b4e	-0.20127603
15	0x3dee82ae	0.11646019
16	0xbb84e541	-0.0040556495
17	0xbd50767d	-0.05089425
18	0xbd948675	-0.07252208
19	0xbd3ea3ea	-0.04654304
20	0xbe09cd0b	-0.13457124
21	0xbdc2da1f	-0.095142595
22	0xbd8f91b1	-0.0701021
23	0x3e090ebc	0.13384527
24	0x3cbc281a	0.02296834
25	0xbe96e4ec	-0.2947153
26	0xbc24949f	-0.0100452
27	0x3d450442	0.048099764
28	0x3d20667a	0.03916023
29	0xbe194ec2	-0.1497145
30	0xbe884354	-0.26613867
31	0x3d8bfcc4	0.068353206
32	0xbdae49db	-0.085101806
33	0xbcb5fa0c	-0.022213958
34	0x3e2496b5	0.16073115
35	0xbd8802b2	-0.06641139
36	0xbda8ee51	-0.0824858
37	0xbda6196f	-0.0811032
38	0x3e04c458	0.12965524
39	0x3da7e418	0.08197802
40	0xbdc23a02	-0.0948372
41	0xbde5c563	-0.11219289
42	0xbe2f9121	-0.17145206
43	0xbd89c3db	-0.067268096
44	0x3de234f9	0.1104526
45	0x3dfe27a1	0.12409902
46	0xbc9ac27a	-0.018891562
47	0xbe598bcc	-0.21244735
48	0xbeed2326	-0.4631588
49	0x3e4f1f5f	0.20226811
50	0xbd908c61	-0.07058025
51	0xbcf3026c	-0.02966424
52	0xbe237db9	-0.15965928
53	0xbccae009	-0.024765031
54	0x3d0b2535	0.03397103
55	0xbe1b3bd4	-0.15159541
56	0xbe07c30c	-0.13257998
57	0x3dfaa1e8	0.122379124
58	0xbe11b49e	-0.14229056
59	0x3c1a4ca7	0.009417689
60	0x3c77c163	0.015121791
61	0xbea9dc1a	-0.33175737
62	0xbe8073bb	-0.25088295
63	0xbe15e51a	-0.14638177
64	0x3e15ee4c	0.14641684
65	0x3a9dd96c	0.0012042946
66	0x3d903df9	0.0704307
67	0xbcb4b81b	-0.022060445
68	0x3ddc29e8	0.107501805
69	0xbeaf68d8	-0.34259677
70	0x3df4aeb0	0.119473815
71	0xbe3629da	-0.17789403
72	0xbd8538ce	-0.06504975
73	0x3d566619	0.05234346
74	0xbe733c14	-0.23753387
75	0xbd5706e1	-0.052496795
76	0xbdb7f7a1	-0.08982778
77	0xbde007ba	-0.10938974
78	0xbdb60ed3	-0.08889546
79	0xbde57224	-0.11203411
80	0xbc8bdd83	-0.017073398
81	0xbd9da2f0	-0.076970935
82	0xbd7eedee	-0.062238626
83	0xbe382736	-0.17983708
84	0x3dc4a147	0.09601074
85	0xbda789a3	-0.08180549
86	0xbe8df0f6	-0.277229
87	0x3ddc098e	0.1074401
88	0xbe4c0faa	-0.1992785
89	0xbe91e574	-0.2849537
90	0x3d64856d	0.055791307
91	0xbe8db01c	-0.27673423
92	0xbe0353c0	-0.12824917
93	0x3db7df15	0.089780964
94	0x3dedccd6	0.11611335
95	0xbe8ba1f5	-0.27272
96	0xbde20752	-0.110365525
97	0xbe15cf3e	-0.14629838
98	0x3df9e267	0.12201386
99	0xbeac23ab	-0.33620963
100	0xbd83246d	-0.06403432
101	0xbe92be30	-0.28660727
102	0xbdef4ccd	-0.116845705
103	0xbe0665d0	-0.13124776
104	0x3e0b41c7	0.13599311
105	0xbd49a0a5	-0.04922547
106	0xbe81db4f	-0.25362632
107	0xbdccb6cf	-0.099958055
108	0xbd715f25	-0.058928628
109	0xbc1a440f	-0.0094156405
110	0xbe0c302c	-0.13690251
111	0x3e9a58b5	0.30145803
112	0xbe5e4fb7	-0.21710096
113	0xbcb038bd	-0.02151143
114	0xbe5533f8	-0.20820606
115	0xbe6b3c4d	-0.22972222
116	0x3d9ef996	0.077624485
117	0x3bd23f61	0.0064162468
118	0xbe802390	-0.25027132
119	0xbe3143c2	-0.17311004
120	0xbc15bc1b	-0.009139086
121	0xbdcd2ea0	-0.10018659
122	0xbe599efe	-0.21252057
123	0xbe56f047	-0.20990096
124	0xbeea8582	-0.45804983
125	0xbdf13490	-0.117776036
126	0xbec879c7	-0.3915541
127	0xbeb4da94	-0.35323012
128	0xbd219404	-0.0394478
129	0x3e1ee9ac	0.15518826
130	0xbe9b081b	-0.3027962
131	0xbe46b1e0	-0.19403791
132	0x3cf983e4	0.030458398
133	0xbea3c035	-0.3198258
134	0x3e22cbfb	0.15898125
135	0xbc5614e2	-0.013066502
136	0x3d746700	0.05966854
137	0xbdc74843	-0.0973058
138	0xbd1b5f90	-0.037932932
139	0x3d9fe1b6	0.07806723
140	0xbe61323a	-0.21991816
141	0xbd969592	-0.07352747
142	0x3dcbf0b5	0.099580206
143	0xbeed1b17	-0.4630973
144	0xbdc224b7	-0.09479659
145	0x3e1fb3c1	0.15595914
146	0x3d289550	0.04115802
147	0xbdee2ef1	-0.11630047
148	0x3e4756a2	0.19466642
149	0x3d927827	0.071518235
150	0xbe085355	-0.13313039
151	0xbd9a6f67	-0.075407796
152	0xbc15d876	-0.009145847
153	0xbd9f9c81	-0.077935226
154	0xbd38d056	-0.04512056
155	0x3cee4e66	0.029090118
156	0xbd99ca06	-0.07509236
157	0xbde818ce	-0.11332856
158	0xbdbb4604	-0.09144214
159	0xbe920e20	-0.28526402
160	0xbda95705	-0.08268551
161	0xbdaeba15	-0.08531586
162	0xbec782bd	-0.38966933
163	0xbe0f9513	-0.14021711
164	0xbe11e46c	-0.14247292
165	0xbe968feb	-0.29406676
166	0x3d9d6811	0.07685865
167	0xbcb860d6	-0.022507112
168	0xbd2f3eae	-0.042784385
169	0xbdaeb3fb	-0.08530422
170	0xbdcd48ae	-0.10023628
171	0xbe1d0e9a	-0.15337601
172	0xbeef3046	-0.46716517
173	0xbe3bef2a	-0.18352953
174	0xbd90f47f	-0.07077884
175	0xbe5077b5	-0.20358165
176	0xbcb057f4	-0.021526314
177	0xbd80c8c3	-0.06288292
178	0xbd2c1f33	-0.04202194
179	0xbe7be11a	-0.24597588
180	0x3dfd6d54	0.12374368
181	0x3d95f6e8	0.07322484
182	0xbeaa1db7	-0.33225796
183	0xbe417278	-0.18891323
184	0xbd0edf0a	-0.034880675
185	0xbeafbb1c	-0.3432244
186	0x3c8c780f	0.017147092
187	0xbe9e0744	-0.30864918
188	0xbe2557b4	-0.16146737
189	0xbd737f9e	-0.059447877
190	0xbe57659a	-0.21034852
191	0xbe08d9d8	-0.13364351
192	0xbdf46e1e	-0.11935066
193	0x3aa2d91e	0.0012424325
194	0x3daa9f9a	0.08331223
195	0xbcd36476	-0.02580474
196	0xbe1a7563	-0.15083842
197	0xbe11aee3	-0.1422687
198	0xbe948fa2	-0.29015833
199	0xbb4cb63f	-0.0031236557
200	0x3c78f23f	0.015194475
201	0x3c1a4b9f	0.009417444
202	0xbe95527f	-0.29164502
203	0x3de50eee	0.11184488
204	0xbe27c2ea	-0.16382948
205	0xbe080c09	-0.13285841
206	0xbe1705a9	-0.14748253
207	0xbc5424f2	-0.012948262
208	0x3d810efe	0.06301688
209	0xbe3029f9	-0.17203511
210	0xbd6923dd	-0.056918968
211	0xbe53dcf6	-0.20689759
212	0xbc205366	-0.009785509
213	0xbdfc5086	-0.12320046
214	0x3e5065bc	0.20351309
215	0xbe296986	-0.1654416
216	0x3c9c00f4	0.019043423
217	0xbe2ac5d5	-0.1667703
218	0xbe505e50	-0.20348477
219	0xbd8de13b	-0.06927725
220	0xbe27c5cb	-0.16384046
221	0xbd5ed94d	-0.054406453
222	0xbe241ea7	-0.16027318
223	0xbeab5ae3	-0.3346778
224	0xbe01ec27	-0.12687741
225	0xbd85749c	-0.06516382
226	0xbd7ca507	-0.06168082
227	0xbe99dcfd	-0.30051413
228	0xbe05e9b0	-0.13077426
229	0xbd11d65f	-0.03560483
230	0xbda813bc	-0.08206889
231	0xbddcdc0d	-0.10784159
232	0xbe34f35e	-0.17670962
233	0x3df306eb	0.11866554
234	0xbd945b79	-0.072440095
235	0xbd70ce9f	-0.0587908
236	0x3dcce017	0.10003679
237	0xbde592c5	-0.11209635
238	0x3b542c51	0.0032375047
239	0xbde45566	-0.11149101
240	0xbec35682	-0.38151938
241	0xbe0cd9cb	-0.13754956
242	0x3d5983f4	0.053104356
243	0x3d246d13	0.040143084
244	0xbe5f26c2	-0.21792129
245	0x3df9ad02	0.12191202
246	0xbe1e669d	-0.15468831
247	0x3cfd316a	0.030907352
248	0xbdb2a5fd	-0.08723066
249	0xbc06e091	-0.008232252
250	0xbd84cb20	-0.064840555
251	0xbe4d5f2f	-0.20055841
252	0xbc61a902	-0.013773205
253	0xbe2dd056	-0.16974005
254	0xbe6c0371	-0.23048188
255	0x3ce493ea	0.027902562

hidden_layers.1.bias f4 [128]
0	0x3ba9e273	0.0051844656
1	0x3cdc871b	0.026919892
2	0xbe073964	-0.13205487
3	0x3e124245	0.14283092
4	0xbccae3e4	-0.02476687
5	0xbd376174	-0.044770673
6	0x3d0c09c5	0.034189004
7	0xbd65227c	-0.05594109
8	0x3ca2527c	0.019814722
9	0xbd045574	-0.032308057
10	0xbd8a26ef	-0.06745707
11	0xbd40f67c	-0.047110066
12	0xbd9e4572	-0.077280894
13	0x3ce24b49	0.02762379
14	0xbd4f5c8f	-0.05062538
15	0xbd62bfae	-0.05535858
16	0xbd813c98	-0.063103855
17	0xbd4a2d67	-0.049359705
18	0xbd2f1125	-0.04274096
19	0xbd869c25	-0.06572751
20	0x3d18bc57	0.03728899
21	0x3da29ed3	0.079404496
22	0xbd50dbc2	-0.050990827
23	0xbcd22e7e	-0.025656935
24	0xb9ace506	-0.00032977032
25	0xbcf71fd7	-0.03016655
26	0xbdb55e86	-0.088559195
27	0x3a9e6356	0.0012084048
28	0xbd5a6616	-0.053320013
29	0x3d959a08	0.0730477
30	0xbc103700	-0.0088021755
31	0xbc81162f	-0.015757648
32	0x3d0aaffc	0.033859238
33	0xbccf2516	-0.025286239
34	0x3d2fbf48	0.04290703
35	0xbd90efb7	-0.07076972
36	0xbcc9012c	-0.024536692
37	0xbd6b2346	-0.057406686
38	0xbb64c0e1	-0.0034905004
39	0x3d699047	0.05702236
40	0xbcf02761	-0.029315652
41	0x3c276f32	0.010219382
42	0xbcfa28f8	-0.030537114
43	0xbd632a8f	-0.05546051
44	0xbd700669	-0.058599863
45	0xbd80312d	-0.062593795
46	0x3d085918	0.03328809
47	0xbdb3cb2b	-0.087789856
48	0xbcbe75e1	-0.023249568
49	0x3d3dcd0f	0.046338137
50	0xbc8cbbe2	-0.017179433
51	0xbbda0278	-0.0066531263
52	0x3dc30602	0.0952263
53	0x3d0b8c58	0.03406939
54	0x3d604362	0.05475176
55	0x3b993a37	0.004676129
56	0x3d986195	0.07440487
57	0xbbe57c7c	-0.007003365
58	0x3d97a077	0.07403653
59	0x3d87218c	0.065981954
60	0xbc195dc3	-0.009360733
61	0xbd793413	-0.060840677
62	0x3d711dda	0.05886636
63	0x3c496f68	0.012294628
64	0xbcb645c1	-0.022250058
65	0x3e65752a	0.22407976
66	0x3c440294	0.011963505
67	0xbd80368c	-0.06260404
68	0xbd1a898c	-0.03772883
69	0xbc0ea14e	-0.00870545
70	0x3aa3aba9	0.0012487072
71	0xbd68f14e	-0.05687075
72	0x3dd2a60b	0.102855764
73	0x3c8c027b	0.017091027
74	0xbd2526de	-0.04032027
75	0xbd1c5cbc	-0.038174376
76	0x3ccd0bed	0.0250301
77	0xbc883c7e	-0.016630407
78	0xbda7f774	-0.08201495
79	0xbcd2932e	-0.025704946
80	0xbd4e1e00	-0.05032158
81	0xbd3c27fe	-0.045936577
82	0xbd14a627	-0.036291268
83	0xbdba44ae	-0.09095131
84	0x3dc0d03c	0.094147176
85	0x3e473ab0	0.19455981
86	0x3a41601a	0.0007376686
87	0xbdf71423	-0.12064388
88	0x3b468260	0.0030290112
89	0xbd561f5f	-0.05227601
90	0x3de6b544	0.112650424
91	0x3d93e3e3	0.072212
92	0x3d83464f	0.06409895
93	0xbc1c0c9a	-0.009524489
94	0xbd7c1e37	-0.061552253
95	0x3dea25fd	0.11433027
96	0x3d6756b4	0.05647917
97	0xbd35bb01	-0.044367794
98	0x3cebe6c6	0.028796565
99	0xbda41e01	-0.08013535
100	0xbd32eb44	-0.043681398
101	0x3c991604	0.018687256
102	0xbcbf5c2d	-0.023359383
103	0x3da93a9b	0.08263131
104	0x3ef25d1e	0.47336668
105	0xbc438795	-0.011934181
106	0x3d06e00f	0.032928523
107	0x3d980653	0.07423081
108	0x3d0160f7	0.031586614
109	0xbc89d467	-0.016824914
110	0x3d73364c	0.059377953
111	0x3da93e67	0.082638554
112	0x3cf6464b	0.030062815
113	0xbdaa580c	-0.08317575
114	0x3c82ad9c	0.015951924
115	0xbd81a6cf	-0.06330644
116	0xbd46d4d9	-0.04854283
117	0xbd868fc8	-0.06570393
118	0x3cb047d1	0.02151862
119	0xbdde3e24	-0.10851696
120	0xbca2af5e	-0.019859012
121	0x3ac5005c	0.0015030014
122	0xbc1989f8	-0.009371273
123	0xbc044edb	-0.008075441
124	0x3da2638f	0.079291455
125	0x3daf820b	0.085697256
126	0xbd97c721	-0.07411028
127	0x3cfa8fdf	0.030586181

output.weight f4 [4, 128]
0	0xbe79bc68	-0.24388278
1	0xbc28c022	-0.010299714
2	0xbe005924	-0.12534004
3	0x3d5c2b3f	0.05375218
4	0xbe9daa3d	-0.30793944
5	0xbbe106a2	-0.006867246
6	0x3d83aa0f	0.064289205
7	0x3c7077e1	0.014677019
8	0x3b267954	0.0025401907
9	0x3e38d479	0.18049802
10	0xbe8fe04a	-0.28100806
11	0x3e6bd52d	0.23030539
12	0x3dbadb0c	0.09123811
13	0xbc9377a1	-0.01800138
14	0x3e45e375	0.19325049
15	0x3e0629b2	0.13101843
16	0x3b187414	0.0023262547
17	0xbe24017d	-0.16016193
18	0x3d6ee579	0.05832431
19	0x3cec1efe	0.028823372
20	0xbea4c4f5	-0.32181516
21	0x3dc41760	0.09574771
22	0x3c996797	0.018726153
23	0xbeafd7ed	-0.34344426
24	0x3e1caeab	0.15301006
25	0x3cc1d4d6	0.023661058
26	0xbcc1b01e	-0.02364355
27	0xbe5216f7	-0.20516573
28	0x3d34134c	0.043963715
29	0x3d92bdc4	0.07165101
30	0xbd72c890	-0.059273303
31	0xbeadfa0b	-0.3397983
32	0x3ab7688e	0.0013992952
33	0xbe9af2c6	-0.30263346
34	0x3c1a0661	0.009400935
35	0x3d9f5f98	0.07781905
36	0xbcc3505a	-0.023842026
37	0x3baf0e4e	0.0053422814
38	0xbd2251f0	-0.039628923
39	0x3c8c5614	0.017130889
40	0xbc88d25b	-0.016701868
41	0x3a6a74ae	0.0008943778
42	0x3dab4f93	0.08364787
43	0xbdcb5bff	-0.09929656
44	0x3d217ae4	0.03942384
45	0x3dbf2ffa	0.09335323
46	0x3dbc2e2c	0.09188494
47	0xbd498446	-0.04919841
48	0x3de6809d	0.11255
49	0xbd2174ea	-0.03941814
50	0xbdd8f988	-0.10594469
51	0xbea02695	-0.31279436
52	0xbd8fe13d	-0.07025383
53	0x3cf203fb	0.029542914
54	0xbee48519	-0.44632795
55	0xbe962bf0	-0.29330397
56	0x3c6d3e29	0.014480152
57	0xbd07b23b	-0.03312896
58	0x3d80504a	0.06265314
59	0x3e2923c4	0.1651755
60	0x3e2f25c4	0.1710425
61	0xbd1510e8	-0.036393076
62	0x3daf6902	0.085649505
63	0x3cbc5d34	0.022993661
64	0xbea56af2	-0.32308155
65	0x3e240a7e	0.16019627
66	0xbd9f09c8	-0.077655375
67	0x3e97699a	0.29572755
68	0xbd77b6b1	-0.060476962
69	0x3e860ae1	0.26180175
70	0x3e81d48f	0.25357482
71	0xbea71e20	-0.3264017
72	0x3c4ae407	0.0123834675
73	0x3e0f32a1	0.13984157
74	0x3e8dcad0	0.27693796
75	0xbe4a4e46	-0.19756421
76	0xbd0e863e	-0.034795992
77	0x3cd2e4a8	0.025743797
78	0xbd9a915d	-0.07547257
79	0xbb220135	-0.0024719958
80	0x3d2c2c2f	0.042034324
81	0x3cb53305	0.022119055
82	0x3d9d3eb7	0.076779775
83	0xbe48d0d5	-0.19610913
84	0x3e4c2e63	0.1993957
85	0x3e62011d	0.22070737
86	0x3d760e2a	0.0600721
87	0xbdd5d042	-0.10440113
88	0x3d754798	0.05988273
89	0xbda20cc5	-0.07912592
90	0x3da56a75	0.08076946
91	0x3d00ae74	0.03141637
92	0x3e71d562	0.23616555
93	0xbe8c15f6	-0.27360505
94	0xbbecc9df	-0.0072262133
95	0x3e9e5710	0.30925798
96	0x3e3ba254	0.18323642
97	0xbd10add7	-0.035322037
98	0x3c2c0176	0.010498395
99	0xbe2e1637	-0.17000662
100	0x3ca44160	0.020050704
101	0x3d1dd1ee	0.038530283
102	0x3caa9c68	0.020826533
103	0x3d0230b0	0.031784713
104	0x3e1ef88a	0.15524498
105	0x3d500e0b	0.050794642
106	0x3de3132e	0.110876426
107	0xbeaf6937	-0.3425996
108	0x3e93075f	0.2871656
109	0x3c5ace19	0.013354802
110	0xbed8a88f	-0.423161
111	0xbe439a5e	-0.19101855
112	0x3e1a3c5b	0.15062086
113	0xbd278359	-0.040896747
114	0x3e812f26	0.25231284
115	0x3db671ed	0.08908448
116	0x3e46e84e	0.19424555
117	0x3d4a8439	0.049442504
118	0xbd269513	-0.040669512
119	0xbe2d0b6e	-0.16898891
120	0x3c5e6cd5	0.013575752
121	0xbd72a062	-0.059234984
122	0xbdef40ce	-0.116822824
123	0x3dd97f6f	0.10620009
124	0x3de49802	0.11161806
125	0x3ca7bf24	0.020476885
126	0xbd83a5f1	-0.06428135
127	0xbd9c5072	-0.07632531
128	0x3df12d14	0.11776176
129	0x3e8e726d	0.27821675
130	0xbd8ef7f8	-0.0698089
131	0x3d55a429	0.05215851
132	0xbef33690	-0.47502565
133	0x3d9df487	0.077126555
134	0x3dcada1d	0.09904883
135	0x3d1910a3	0.03736938
136	0x3e92628a	0.28590804
137	0x3e012a6a	0.12613836
138	0xbd180902	-0.037117966
139	0xbe7f0b8e	-0.24906752
140	0x3e23a2ca	0.15980068
141	0x3d84e5b8	0.06489128
142	0x3dcbf3d3	0.09958615
143	0x3e8da9ac	0.27668512
144	0xbc780429	-0.015137711
145	0xbc8e924f	-0.01740375
146	0xbd5aa52b	-0.053380173
147	0xbcec68bd	-0.028858537
148	0xbe826ded	-0.25474492
149	0x3dce9eb6	0.100888655
150	0x3d00efde	0.031478755
151	0x3db5d1b2	0.08877887
152	0x3e928557	0.28617355
153	0x3ddcc12f	0.10779034
154	0x3d46cf3f	0.04853749
155	0x3c21f0fa	0.009884113
156	0x3cd462af	0.025925962
157	0x3de4eafa	0.11177631
158	0x3d5a3459	0.05327258
159	0x3d27bc8e	0.040951304
160	0x3e741c51	0.23838927
161	0x3dda3b88	0.10655886
162	0xbe59dbc3	-0.21275239
163	0xbc238a54	-0.00998171
164	0xbdca98ae	-0.098924026
165	0xbc95162d	-0.01819905
166	0x3d6c04de	0.05762183
167	0xbeadeb56	-0.3396861
168	0x3d66318c	0.056199595
169	0x3c7d1985	0.015447979
170	0x3ce3df47	0.027816428
171	0x3e8be9a5	0.27326694
172	0xbe03879f	-0.12844704
173	0x3d6bac95	0.057537634
174	0xbd599e2e	-0.053129368
175	0x3d010e04	0.031507507
176	0xbc627e21	-0.013824017
177	0x3e74aace	0.23893282
178	0x3e17bc54	0.14817935
179	0xbe45d743	-0.19320397
180	0xbe6e985a	-0.23300305
181	0x3dd85489	0.10562999
182	0x3cc73002	0.024314884
183	0x3e89763d	0.2684802
184	0xbcc271b5	-0.02373586
185	0x3e2f8faa	0.17144647
186	0x3d335d14	0.043789938
187	0x3bbd5484	0.0057778973
188	0xbbcf950b	-0.006334906
189	0x3dcecc22	0.10097529
190	0xbeb6323b	-0.35585198
191	0x3e1d8703	0.15383534
192	0xbd7b079c	-0.061286554
193	0x3dee6d94	0.11641994
194	0x3ba5d172	0.005060368
195	0x3e8328b3	0.2561699
196	0xbd16b8ff	-0.03679752
197	0x3e633aab	0.22190349
198	0x3e687444	0.22700602
199	0xbc9dc550	-0.019259125
200	0x3d3671cb	0.044542115
201	0x3d051133	0.032487106
202	0x3e988453	0.29788455
203	0xbce59623	-0.028025692
204	0x3d8ac8a3	0.0677655
205	0xbd8cc212	-0.068729535
206	0xbd17b12a	-0.03703419
207	0xbdf847b1	-0.12123049
208	0x3d8185ae	0.063243255
209	0xbb86f2c0	-0.0041182935
210	0xbe0edb6b	-0.13950889
211	0xbb0a5371	-0.0021106864
212	0x3e3798f4	0.1792944
213	0x3e273f37	0.16332708
214	0xbd82ad55	-0.06380717
215	0xbd565e0a	-0.052335776
216	0xbd8b1794	-0.067916065
217	0xbc053e75	-0.008132567
218	0x3dc48a78	0.09596723
219	0xbdf267ab	-0.11836179
220	0x3e4ec120	0.20190859
221	0xbe9f00bf	-0.31055257
222	0x3da5458f	0.08069908
223	0x3e34e937	0.1766709
224	0x3e70c654	0.23513156
225	0x3e6a5d3e	0.22887132
226	0x3d8dd5ac	0.0692552
227	0xbe417d5b	-0.18895476
228	0xbdec5043	-0.11538746
229	0xbe96a2bc	-0.2942103
230	0x3a703870	0.0009163683
231	0xbd464b71	-0.04841179
232	0x3e1dcb68	0.15409625
233	0x3cdb942b	0.02680405
234	0x3ddb483c	0.10707137
235	0x3d14c8bd	0.03632425
236	0x3e82ce94	0.25548232
237	0x3e9bdf34	0.30443728
238	0x3d29bbc7	0.041438844
239	0xbcec3061	-0.028831663
240	0x3ebaece7	0.36508867
241	0xbb849bc4	-0.004046889
242	0x3ea95a5c	0.3307675
243	0x3d097bb4	0.033565238
244	0x3e048a30	0.1294334
245	0xbcc33997	-0.023831172
246	0xbe01d97f	-0.12680624
247	0xbe83cbdd	-0.25741473
248	0x3d50139c	0.05079995
249	0xbdedea59	-0.11616964
250	0x3e561a30	0.20908427
251	0x3e1c9572	0.15291384
252	0x3de3845f	0.11109232
253	0x3c0f3a25	0.00874189
254	0xbd1e1c17	-0.038601007
255	0xbea0469a	-0.31303865

output.bias f4 [4]
0	0x3eb638ce	0.35590214
1	0x3ea987be	0.33111376
2	0x3ea28d26	0.31748313
3	0x3e9e15ca	0.30876
