p1_navigation/checkpoint.pth (torch_old, 306495 bytes, 9 tensors)

feature_layer.0.weight f4 [256, 37]
000000 b6 28 98 bd d2 07 30 3e 96 22 92 be d7 6c c5 bc
       -0.0742964 0.17190483 -0.28542012 -0.02409975
000010 c7 b4 55 3e fd 53 3c 3e 9e 13 27 be 18 43 07 3d
       0.20869742 0.18391414 -0.16316077 0.03302297
000020 cf 90 9d 3d b5 e9 20 bd 54 31 77 bd 5d 55 64 bb
       0.07693636 -0.03928538 -0.060349777 -0.003484092
000030 43 36 7f be 94 91 35 be 93 8e 6a be b4 83 04 3d
       -0.24923043 -0.17731315 -0.2290595 0.032352164
000040 f8 0b 06 be f8 b4 82 3e e3 fc 7d be c8 a0 3d be
       -0.13090503 0.25528693 -0.248035 -0.18518364
000050 d1 60 1f 3e 1d f5 18 3d f4 4c 43 bd 9f f9 f8 3d
       0.15564276 0.037343133 -0.04768081 0.121569864
000060 d6 17 ab be 58 ce 8b 3d 50 ce e3 3d f5 c7 2d be
       -0.33416623 0.06826466 0.11123335 -0.16970809
000070 73 c1 82 bd 0e 92 19 bc 74 45 07 be c2 30 49 3e
       -0.06384554 -0.009373201 -0.13210088 0.19647506
000080 76 34 a1 be 80 bf 1f 3e 6c 1b 41 be 39 e1 42 be
       -0.31485337 0.15600395 -0.18858117 -0.19031228
000090 9a 4f 05 bd 47 c2 97 3d fc 2d 27 3e e5 6c ec 3c
       -0.032546617 0.07410102 0.16326135 0.028860519
0000a0 b3 a2 19 3b 9d a1 76 be c6 01 64 3d 30 32 0c be
       0.0023442924 -0.24085088 0.055665754 -0.1369102
0000b0 46 36 ce bd 73 02 aa be 0c d6 4e bd 63 de a7 3d
       -0.100689456 -0.33204994 -0.0504971 0.08196714
0000c0 df e9 a1 3d c5 36 1f be 7d 93 fb 3c ac 38 fa 3d
       0.079059355 -0.15548237 0.030709976 0.122178406
0000d0 93 7d 36 3e a7 30 e3 bd 2a f7 b4 bd ad 9f b2 be
       0.1782134 -0.11093264 -0.08836205 -0.34887448
0000e0 a4 78 5d bf 44 6d 31 be b4 70 03 be f2 e2 dd bd
       -0.8651221 -0.17326838 -0.12835962 -0.10834302
0000f0 3b 56 8b 3d 8e 95 62 3d d2 76 95 be e8 da af 3c
       0.068035565 0.055318408 -0.29192215 0.021466687
000100 5f 4e 5e 3e ba 69 11 3e aa 7b b8 3e 37 55 c6 3c
       0.21709584 0.14200488 0.36031848 0.024210555
000110 6b 97 1e 3b a3 e0 bc 3d 8f 48 24 bd 3c 2e 8f be
       0.002419914 0.092225336 -0.04010826 -0.27964962
000120 92 69 a7 3d fc 43 bc 3c 83 28 fe bc cd 51 91 3e
       0.08174433 0.022981636 -0.031025177 0.28382722
000130 10 7d bb 3d b5 14 9d 3b b1 3a ff bd 64 cd 1b bf
       0.09154713 0.0047937282 -0.12462366 -0.60860276
000140 c2 04 46 bd e6 b3 c0 3e df 5c db bd d3 45 66 bf
       -0.04834438 0.37637252 -0.10711073 -0.89950293
000150 40 23 13 bd d0 3f 36 3d c8 ec 97 bd 4b c8 a6 3d
       -0.03592229 0.04449445 -0.07418209 0.081436716
000160 b9 0e 08 3e 97 24 f9 bd d9 62 0d 3e f5 b8 3d 3e
       0.13286866 -0.12165182 0.13807239 0.18527587
000170 94 e2 dd bc 80 a8 1b be 2f 70 a7 be ce 01 eb 3d
       -0.02708558 -0.15200996 -0.32702777 0.114749536
000180 1d 0a b4 3d 35 68 d5 3b 8e 5c 26 be f1 7b 66 be
       0.087909915 0.0065126666 -0.16246244 -0.22508217
000190 b1 da 65 3e 0d 8f 6c 3e 83 6a 87 bc 88 e9 d1 be
       0.22446705 0.23101445 -0.016530281 -0.40998483
0001a0 67 b4 d1 be ed 90 93 bd 4e a4 00 3e ea f9 2b be
       -0.4095795 -0.07205377 0.12562677 -0.16794553
0001b0 66 c9 64 be 7b b1 a9 bc b5 e8 8c bb ac 66 28 3c
       -0.22342452 -0.020714512 -0.004300202 0.010278385
0001c0 43 4b d9 bd 8a 4f 85 3d 4a 3e a8 3e d3 f0 a8 be
       -0.10610058 0.065093115 0.32860023 -0.32996234
0001d0 72 f6 7d bd 20 40 33 bd e2 36 02 be 6d e0 97 3e
       -0.062002607 -0.043762326 -0.12716249 0.2966341
0001e0 86 a3 11 3e 17 c4 0d 3e 65 c3 c8 bd ae 6c 0c 3d
       0.14222535 0.13844334 -0.098028935 0.034283333
0001f0 d0 71 a9 be 42 c5 d2 be db 7f 6f bc 9d 9a 72 3d
       -0.33094645 -0.4116612 -0.014617885 0.059229482
000200 ec c0 74 be f9 5d ae bd c3 d6 71 be 13 d5 f2 bb
       -0.23901719 -0.085140176 -0.23617081 -0.0074106543
000210 67 d1 ee bd 63 4a ce bd 92 9f 72 3e f9 01 13 be
       -0.11661034 -0.10072782 0.23693684 -0.14356221
000220 40 8b 89 bd 8f 4f 87 3d c9 6f e0 bc 55 89 d0 3d
       -0.06716013 0.066069715 -0.027397053 0.10182444
000230 29 c3 ad 3e 32 10 99 3d a1 13 95 3d 56 c9 8a 3d
       0.33937958 0.07473792 0.072791345 0.06776683
000240 7d 11 d7 bd 5f 62 3e be 6b f8 35 3e 7b ac c3 bc
       -0.105013825 -0.18592213 0.17770545 -0.023885956
000250 39 4c 60 bd e4 9e 05 bd aa ba 5d be 86 c8 f5 bd
       -0.05476019 -0.032622233 -0.21653238 -0.120011374
000260 35 5a 9f 3d aa 94 89 3d d1 a1 80 3e aa 69 d8 bd
       0.077808775 0.067178085 0.25123456 -0.10567029
000270 44 8b 80 bd c2 15 e9 be ca a6 84 bd ec bb 0a be
       -0.06276563 -0.45524412 -0.06477125 -0.13548249
000280 49 10 8e 3d 4e 0a 25 3d f4 e2 8a be 65 ba 26 be
       0.069367 0.04029303 -0.27126276 -0.16282041
000290 81 68 8b 3c 9e 32 5a 3c 13 ac 29 bd e9 8d a3 3d
       0.017017605 0.013317732 -0.04142387 0.079860516
0002a0 f9 b8 52 be 77 1d 8b bd 9a 04 5f 3e 1a a1 d7 3d
       -0.20578374 -0.06792729 0.21779099 0.105287746
0002b0 55 2b dc 3e 79 63 d5 3d 8c 1d 6b be ac e0 e6 3d
       0.4300181 0.104193635 -0.2296049 0.112733215
0002c0 57 fd 9a bc 16 c5 a6 be b2 8e 0e 3e 3b 56 30 be
       -0.01891963 -0.3257224 0.13921621 -0.17220394
0002d0 52 18 f3 3d a6 95 a9 be 79 b7 18 be 63 37 9a bd
       0.11869873 -0.33121985 -0.1491374 -0.075300954
0002e0 34 29 05 bc e8 c2 75 bd 53 0d e5 ba e2 ff 8e be
       -0.008127499 -0.06000033 -0.0017475284 -0.27929598
0002f0 b5 a5 af 3d 7c db ce 3d cf b4 9f 3d 61 68 db 3d
       0.08576528 0.10100457 0.077981584 0.10713268
000300 c5 e8 83 bd eb ec 48 be 66 37 8d bf 60 07 9e be
       -0.06440882 -0.19621627 -1.1032531 -0.30865002
000310 b0 9d 55 be 7e 23 63 3e e8 2d f8 bd a6 c2 07 be
       -0.20860934 0.22181508 -0.12118131 -0.13257846
000320 0d b7 62 bd 46 a9 fb 3d 2a b8 88 be 75 3f 82 bd
       -0.055350352 0.12288146 -0.26703006 -0.0635976
000330 b8 96 1d bc ac b2 0f bd 7f ff 3d be 14 9a 26 3e
       -0.009618454 -0.035082504 -0.18554495 0.16269714
000340 62 40 38 3e e3 ac 0f be be 97 14 be 4d 2a dc 3c
       0.1799331 -0.14030795 -0.1451101 0.02687564
000350 ec cd e9 3c c6 3f 57 3d 0a 2c 13 be 89 1d 6b 3d
       0.028540574 0.052551053 -0.14372268 0.057401214
000360 a2 86 c2 be 15 20 fa bd 6f 27 72 bd 30 42 77 bf
       -0.37993342 -0.122131504 -0.059119638 -0.9658537
000370 f9 b7 91 3d 05 cd 2e 3c ad e2 f4 3c 77 78 c3 3d
       0.07115168 0.010668998 0.029893244 0.09544461
000380 17 5c c8 be 49 7b b1 3d 26 6b cb 3c 8d 40 40 be
       -0.3913276 0.08666093 0.024831366 -0.18774624
000390 f2 32 8b 3d 57 42 45 bd 29 11 ff bd d8 27 8f 3e
       0.067968264 -0.04815897 -0.12454445 0.27960086
0003a0 e4 d0 ca 3d b1 c3 9c 3d 95 13 01 3d 80 4b a0 be
       0.09903124 0.07654513 0.031512816 -0.31307602
0003b0 3a 09 03 be c4 66 fe bd 4b 09 04 be 92 19 0d 3d
       -0.12796488 -0.12421945 -0.1289417 0.034448214
0003c0 a0 75 15 3e c4 e1 be 3e 42 9f 8c be 16 72 5c 3d
       0.14595652 0.3728162 -0.27465254 0.05381974
0003d0 2a 38 47 3e ae da e8 be 08 85 8a 3e 04 89 95 be
       0.19455019 -0.4547934 0.2705462 -0.29206097
0003e0 ed 6b 6a bd 36 d8 a6 3b d2 d8 10 bb b2 4b 82 3c
       -0.057231832 0.0050916923 -0.0022101891 0.015905235
0003f0 17 33 56 3e 95 ec 43 be b8 df a5 bd ef 3b a9 bd
       0.20917927 -0.19133218 -0.080993116 -0.082633846

feature_layer.0.bias f4 [256]
000000 24 bb 69 3c 5a 1c 41 3d c5 99 70 3d a1 55 35 bd
       0.014265809 0.04714618 0.058740396 -0.044271115
000010 e4 3e 62 3d 22 8a d5 bc c5 4a 15 be e7 eb db bd
       0.05523576 -0.026066843 -0.14579304 -0.10738354
000020 4f 53 7d be 7a 99 3c be e1 78 93 3d 2c 08 0a 3e
       -0.24738811 -0.18417922 0.0720079 0.1347968
000030 bd 97 37 be 65 1f 6c be 9b 6b 1f be 24 f3 9a bc
       -0.17928977 -0.23058851 -0.15568392 -0.018914767
000040 f1 e3 c7 3d 27 5b 83 bd d1 98 a8 bd 50 bd 41 be
       0.09760273 -0.0641387 -0.082322724 -0.18919873
000050 f4 42 67 bd 66 8d 42 3d 18 b9 13 3d 38 70 36 be
       -0.056460336 0.04749813 0.03606519 -0.17816246
000060 19 83 91 3c df 84 ed 3c ae 8c ab 3c 18 6d 1e 3e
       0.017762708 0.028994022 0.020941105 0.15471303
000070 45 96 3b bd ec a5 fd 3d c6 d4 fd 3d 1e 30 c2 bd
       -0.045797605 0.12385163 0.12394099 -0.09481834
000080 ab 88 4d bd f1 2e 9d 3c 2e 23 36 bd c2 1e d4 3d
       -0.050179165 0.019187422 -0.044467144 0.10357429
000090 e3 e6 d3 bc 19 76 5b 3a 38 2c 1a be 04 42 6d 3c
       -0.025866931 0.0008371785 -0.1505593 0.014481071
0000a0 da 8f d1 bc ab c4 38 bd f3 59 4a 3d a0 7e e7 3c
       -0.02558129 -0.045109432 0.04940219 0.028258622
0000b0 b0 65 b3 bd 27 1a a4 bd 71 13 6f be 88 56 0f be
       -0.0875963 -0.08012801 -0.2334726 -0.13997853
0000c0 dc a5 43 bd 74 b2 78 bd 57 39 b6 bd e8 05 89 3c
       -0.047765598 -0.06071706 -0.088976555 0.01672645
0000d0 77 a4 a6 bd 04 2b 40 bd 8f 0b d5 3c e7 cf 22 be
       -0.08136838 -0.046916023 0.026006488 -0.15899621
0000e0 77 1b 85 3d dc db ed bd e9 84 e2 3d 92 b4 11 3e
       0.06499379 -0.116142005 0.11060507 0.14229038
0000f0 ea 86 38 3e 99 7b 2f 3d 10 ef 95 3d 7f 0c b0 bb
       0.18020216 0.04284248 0.07320988 -0.0053725834
000100 a7 00 c6 3d d4 2c 78 bd 74 85 3b be 3c 4f cd bd
       0.09668093 -0.060589626 -0.18312627 -0.100248784
000110 73 81 46 be 58 a6 b0 bd 3d 71 17 be ac b5 6c 3d
       -0.19385318 -0.086254776 -0.1478929 0.057790443
000120 38 08 40 be 04 b1 60 3d cb 06 7f bc dc 8b b5 bd
       -0.18753135 0.054856315 -0.015565584 -0.08864567
000130 a4 2b 28 3e 14 dc 96 bc 4b 46 9b bd d9 73 68 3d
       0.16422898 -0.018415488 -0.07581767 0.056751106
000140 b6 d3 3d be 11 e7 17 3d 6b ef 8c bd 85 46 6c bd
       -0.18537793 0.037085596 -0.06881603 -0.05768444
000150 02 f9 49 3d eb 2a 8b bd 85 68 1f bc 72 85 bc 3d
       0.049309738 -0.06795295 -0.009729509 0.0920514
000160 c4 19 19 3e 93 80 16 bb 0a 86 5b 3e 07 dd 16 be
       0.14951235 -0.002296482 0.2143785 -0.14732753
000170 50 f3 43 bd 48 2b d9 3d 17 f2 24 bd 06 87 ac 3d
       -0.047839463 0.10603958 -0.040269937 0.08424191
000180 82 bf 90 3d e4 48 54 be 1b b7 52 bc 35 ab 4e 3d
       0.07067777 -0.2073093 -0.012861039 0.050456244
000190 be 93 b9 bd b4 31 3a be e1 92 30 be 07 0e a7 bd
       -0.09061383 -0.18183023 -0.1724353 -0.081569724
0001a0 0c 98 b2 bd 20 8e 29 be 77 fc 4d 3d f9 9f 01 be
       -0.08720407 -0.16558123 0.050289597 -0.12658681
0001b0 e1 8c 24 be 6d fb 8d 3d 1a aa ab 3c bf e3 06 3e
       -0.16069366 0.06932721 0.020955134 0.13172816
0001c0 03 7f 25 3e d1 c4 b2 3c 98 33 dd 3d 80 55 2b be
       0.16161732 0.021822365 0.10800856 -0.16731834
0001d0 60 13 8d bd e5 48 b2 3c c7 5c 29 be fd ce 16 bd
       -0.06888461 0.021763274 -0.16539298 -0.036818493
0001e0 04 bf b5 bd 4b 36 0c bd 19 c7 ea bd a3 bf 4b bd
       -0.08874324 -0.034231465 -0.11463756 -0.049743306
0001f0 0c d2 dd bd 7f 93 09 be d9 bf 1d 3d 3f 6f 47 3e
       -0.10831079 -0.13435172 0.03851304 0.19476031
000200 50 87 d7 3d 3b 50 1a bd c2 80 97 bd 62 08 0f 3d
       0.10523856 -0.03767417 -0.073976055 0.034920104
000210 53 03 87 bb c5 90 53 bd 81 f2 21 3d 2e 65 0d be
       -0.0041202693 -0.051651735 0.03953791 -0.13808128
000220 64 30 65 bd a6 ad 60 be 82 c0 3d bd 5b dc 4e be
       -0.055954352 -0.21941242 -0.046326168 -0.20201246
000230 12 fb 82 bd 8f 91 e0 3d dc c8 55 3c 1f 2d 9e bd
       -0.06395544 0.10965263 0.013048377 -0.0772345
000240 6d 71 8c bd c1 fc 0b be e8 d4 3e be a0 ec 47 3e
       -0.06857572 -0.13670637 -0.18635905 0.19523859
000250 22 20 31 be b7 63 47 3d 78 86 3d bd 7d 97 24 be
       -0.17297414 0.04867908 -0.046270818 -0.16073413
000260 64 2a 4b be cb 4b ff bd a1 9a bb bd 60 07 fd 3c
       -0.1984039 -0.12465628 -0.091603525 0.030887306
000270 31 f6 32 3d 40 01 12 be 98 07 c9 3c 39 4a 08 3e
       0.043691818 -0.1425829 0.024539754 0.13309564
000280 7b b9 40 bb 09 b6 dd 3d 65 1e ed 3d 36 15 72 bd
       -0.002940743 0.10825736 0.11578063 -0.05910226
000290 ec 83 23 3a 32 7a 34 be 8e 13 57 bd 6a 63 e6 bd
       0.00062376144 -0.17624739 -0.052508883 -0.112494305
0002a0 11 51 40 bc 4d df 4d be 5e 40 d6 3d 59 ad 06 be
       -0.011738078 -0.20104714 0.10461496 -0.13152064
0002b0 af 4c b3 3d 6a 69 db 3d 4c 9d 37 3d 82 55 4c bc
       0.087548606 0.107134655 0.044827744 -0.0124715585
0002c0 4a a3 e6 3d 58 79 3e be d1 fc a4 3d dd 95 39 be
       0.11261614 -0.18600976 0.080560334 -0.18123575
0002d0 2f 24 cc 3d a8 6c 9d bd 42 3f b0 bd e7 7a 9a bd
       0.09967839 -0.0768674 -0.086058155 -0.07542973
0002e0 c2 d1 17 be 10 56 02 3d f2 31 3b 3e fa c2 ca 3d
       -0.1482611 0.031820357 0.18280771 0.0990047
0002f0 78 87 80 3c 22 39 ff 3d 96 fc 2d be d4 db 66 3d
       0.015689597 0.12462069 -0.16990885 0.05636199
000300 8b 7a b0 bb 7e 98 ca 3d f6 f3 b6 bc 91 5f 4d bd
       -0.005385702 0.09892367 -0.022333127 -0.050139967
000310 fb 6c de 3c 65 b5 1b be 5a 64 42 be 48 90 40 bd
       0.027151575 -0.15205915 -0.18983594 -0.047012597
000320 62 a0 5a 3c 6e 6b f7 3c d8 3e fa bd b1 a0 99 bc
       0.013343902 0.030202594 -0.12219018 -0.018753381
000330 30 23 3c bd 25 c1 f1 bd e3 35 c2 3d ea c9 a3 3d
       -0.045931995 -0.118044175 0.09482934 0.079974964
000340 80 e3 0c 3e 15 a5 2c 3b dd d1 4b be a5 a5 2b be
       0.1375866 0.0026343514 -0.19904275 -0.16762407
000350 7e c4 b0 bc f1 5c 12 be 95 f8 1f 3d 0e 9f 22 be
       -0.02157807 -0.14293267 0.039055426 -0.15880987
000360 9b 67 ef bd 95 77 74 3c fc 9a f9 3c b7 6f 99 bd
       -0.11689683 0.014921089 0.03046941 -0.07492011
000370 d4 2d 18 bd 92 71 df bd aa 4d a8 bd dc ed a1 bc
       -0.03715308 -0.10910334 -0.08217938 -0.01976674
000380 e8 92 42 be d2 ee af bc e4 79 30 3d 3a 7d eb bd
       -0.19001353 -0.021476183 0.043084994 -0.114984944
000390 08 06 e1 3d 53 07 18 be 11 15 83 bd 2e 3c 6c 3c
       0.109874785 -0.14846544 -0.064005025 0.014418645
0003a0 a9 02 fb 3b 5d 89 a1 bd c7 ca 5d 3d 69 6f 56 be
       0.007660229 -0.07887528 0.05414846 -0.20940937
0003b0 30 3a 90 bd f5 e0 b7 bc f1 1d 1c bd 68 0b 52 be
       -0.070423484 -0.022446135 -0.03811449 -0.20512164
0003c0 33 0f 3e 3d 1c d1 24 3e c4 fe 1f be 60 9a d5 bd
       0.046401214 0.16095394 -0.15624529 -0.10429835
0003d0 58 7b ed bd df 99 7f bc 0d 9c c9 bc 14 81 20 3e
       -0.115957916 -0.015600651 -0.024610544 0.1567424
0003e0 15 41 0c 3d d0 05 2c 3d 71 77 d8 bd 36 25 59 be
       0.034241755 0.04199773 -0.10569657 -0.21205601
0003f0 95 f5 a5 bd e5 ff de 3d 00 e6 8f bc be 31 74 bd
       -0.08103482 0.10888652 -0.017565727 -0.05961775

value_layer.0.weight f4 [128, 256]
000000 24 e4 65 bd 9d dd 09 3d 5d 64 9b 3d 58 8f 6f bd
       -0.056125775 0.033658613 0.07587502 -0.058486313
000010 13 34 32 3d 67 d8 52 3d e7 43 ec 3c fd f1 27 3c
       0.043506693 0.05147591 0.028840972 0.010250566
000020 52 6c 21 3d a4 70 a4 3b d8 3e a9 bb d8 8c 6e bd
       0.039409943 0.0050183106 -0.0051649623 -0.058239788
000030 0e 02 d1 bb fc 61 be bd 67 45 82 bc d7 5d 8a 3b
       -0.0063784188 -0.09296033 -0.015902234 0.0042226124
000040 cc 2b 09 be 4a 04 20 3d 10 11 85 bc 01 34 41 bd
       -0.13395613 0.03906659 -0.016243488 -0.047168735
000050 4b c9 f7 bc f9 fb 7e bc 41 68 e4 bd 97 3c c4 bd
       -0.030247351 -0.015563005 -0.11152697 -0.09581869
000060 d8 06 00 3d 37 03 5a bd d0 03 84 3c 53 56 8d bd
       0.031256527 -0.053225722 0.0161151 -0.06901231
000070 9b fc 07 bd a7 8e 4c bd a1 a2 aa bd 74 d1 18 bb
       -0.033199888 -0.04994073 -0.083318 -0.0023318203
000080 17 23 4a 3d c0 38 5c bc 88 d7 83 3d 68 5a f3 3c
       0.04934987 -0.013441265 0.06437594 0.029706195
000090 8d 13 90 bd 19 d9 06 3c 28 44 29 3d d8 1a 23 3d
       -0.07034979 0.008230471 0.041324764 0.039820522
0000a0 8a 65 03 bd 76 2f e6 bb 4f 1d 5c bd 93 8c 93 bd
       -0.032079257 -0.0070247008 -0.05373889 -0.07204547
0000b0 1d 07 27 bd 8c 40 59 3b aa c2 0b bb 50 e9 21 3d
       -0.040778268 0.0033150045 -0.0021325746 0.039529145
0000c0 ed c0 2a bd ad 23 65 bd ea 3b 89 bd d5 64 3e bc
       -0.041687895 -0.055942226 -0.06700881 -0.01162072
0000d0 ce e3 5f 3d 04 11 ab 3d 91 2f f5 bd 65 e6 98 bd
       0.05466061 0.08352855 -0.11971963 -0.07465819
0000e0 d2 ac 73 bc 63 c7 c3 bd bb fb 8e bd 6f 02 fe 3c
       -0.014872747 -0.095595144 -0.069816075 0.03100702
0000f0 ef 12 ea bc d0 67 f4 3b 46 be 18 3d f9 6e a5 bd
       -0.028573481 0.0074586645 0.037290834 -0.08077807
000100 f0 61 26 bd 31 e9 12 3d fb c5 2e 3d 1e 9a 0b 3d
       -0.040620744 0.03586692 0.042669278 0.034082524
000110 eb 6f 3b bd 7d 53 8a bd da 0f 29 3d 9b ac 9f bd
       -0.04576103 -0.067542054 0.041274883 -0.07796594
000120 41 45 0a bd ea 3c 71 3d db 09 6e bd d7 ec 10 bc
       -0.033757452 0.058895983 -0.058114868 -0.0088455295
000130 90 ca fc bd 73 26 4d 3c 20 29 12 bd 54 21 73 bc
       -0.12343323 0.012521374 -0.03568375 -0.014839489
000140 c3 38 19 3d 8a 55 1f be 9f 2c 6a 3b 18 8f ec bc
       0.037407648 -0.15559974 0.0035732163 -0.028876826
000150 ac 94 15 be 7f 9e c8 3b d1 79 9f bd da 66 ae 3c
       -0.14607495 0.00612241 -0.077869065 0.021289278
000160 ce 57 48 3d 59 06 85 bd 3a 70 94 bd e7 f6 97 3b
       0.048911862 -0.06495351 -0.07247968 0.0046375873
000170 5e c7 ad bd a8 80 f9 3c 30 0b 1c 3d 1b db 51 bd
       -0.08485292 0.030456856 0.038096607 -0.051234346
000180 fa 0e ac 3b 02 4e 50 bd e9 ff da 3b f1 8c b8 bc
       0.005250809 -0.050855644 0.006683339 -0.022528144
000190 fa 8a 0c 3d e4 06 8b bd c6 27 a5 bd 80 14 28 bd
       0.034312226 -0.06788424 -0.08064227 -0.041035175
0001a0 d5 7a b7 bc 53 e8 2d bd 52 17 d7 bd 96 56 1a 3c
       -0.022397438 -0.04245789 -0.10502495 0.009420058
0001b0 3f 1b 10 bd c9 77 21 3d 8e a6 64 3b fa 9b 50 3d
       -0.035182234 0.039420877 0.0034889313 0.05093
0001c0 65 c9 7c bb 97 6d b1 3b 2a b3 b6 bd b1 52 52 bd
       -0.003857219 0.0054146755 -0.089208916 -0.051348392
0001d0 d9 e0 8d bc ff ec e0 bd 46 84 3f 3d e8 01 ba 3c
       -0.01731913 -0.109827034 0.046757005 0.022705987
0001e0 b1 23 18 bd ea c9 5d bd 0c b9 86 bd 96 cc 98 bd
       -0.037143413 -0.05414764 -0.06578264 -0.07460897
0001f0 51 35 32 bb b8 8b c5 3c ef 54 a3 3b 65 4b f2 bc
       -0.0027192424 0.024114475 0.00498449 -0.029576967
000200 0a 74 86 bc 3b 4d be bd ca 1e 75 bd a3 5e da bc
       -0.016412754 -0.09292074 -0.059843816 -0.026656454
000210 c6 40 91 bc 3d 5b c3 bc 02 71 8f bb dd 21 74 bd
       -0.017731082 -0.023847217 -0.0043774853 -0.059602607
000220 3d d8 15 3d 53 4e 5c bc ec 03 30 ba 95 b0 c4 3c
       0.036583174 -0.013446408 -0.00067144516 0.024009982
000230 07 b8 a6 bd 1a 80 8a 3c cc 12 59 3d a3 4a 7f 3d
       -0.08140569 0.016906787 0.05299644 0.06232704
000240 09 52 03 bd 9b c1 3e 3d 19 13 cd 3d cd 46 0f 3d
       -0.032060657 0.046571355 0.10013408 0.03497963
000250 ed 5a ed bd 2d d4 84 3c c2 1f 91 bd 0d 47 c6 bd
       -0.11589608 0.016214455 -0.070861354 -0.096815206
000260 70 29 8f 3c df aa 36 bd ae 19 30 bd a4 97 9c 3c
       0.017475814 -0.04459655 -0.04299324 0.019115277
000270 24 e5 31 bb d1 df 8a bd 71 5a 7b bd 91 ea 34 3d
       -0.0027144635 -0.06780971 -0.06136555 0.044169012
000280 d2 b9 1c bc a2 14 0d 3d f6 07 dc 3c 4b 0b 0a bd
       -0.009565787 0.034443505 0.026859265 -0.033702176
000290 e5 09 bb bd 95 da 47 bd 34 ed c6 bb a9 51 5a bc
       -0.091327466 -0.04879244 -0.0060707573 -0.013325133
0002a0 43 ac 91 bd 7b 40 a8 bd a0 07 4e bd cd da 62 ba
       -0.071129344 -0.08215424 -0.05030024 -0.00086538197
0002b0 b9 c3 ad ba 90 0c c8 bd 3b ea cd bc 9d 0f fd bc
       -0.0013257182 -0.09768021 -0.025136104 -0.030891234
0002c0 d9 75 1f bc 9e 7f 62 3d 10 09 ef 3c 6f 6f ab bc
       -0.009732687 0.055297486 0.029179126 -0.02092716
0002d0 3e 69 50 3d 5a 05 f2 bc 77 fb b5 bc 06 b6 45 bc
       0.050881617 -0.029543567 -0.022214634 -0.012067324
0002e0 2c aa 9d 3c b1 66 a2 bd cc 75 74 3c 31 db 0c 3d
       0.019246183 -0.07929743 0.014920663 0.034388725
0002f0 75 72 b1 bd cc dd 62 bc ea 75 49 3c de 2c 9d 3c
       -0.08664409 -0.013846826 0.012296179 0.019186433
000300 d2 09 27 bd 38 b6 f7 3c 7c 45 1d bd ee e4 21 bc
       -0.04078085 0.030238256 -0.038396344 -0.009881241
000310 55 16 8f bd 2f 4b fc 3b cc f0 3c be 11 90 26 bd
       -0.06986681 0.0076993923 -0.18451232 -0.040664736
000320 7c d6 14 bd 80 80 8f 3c da a8 f6 3d 24 6a 3a bd
       -0.03633736 0.017517328 0.12043925 -0.04551138
000330 23 00 48 bd 0d ba 27 bd f1 c3 7a bd 63 c0 e6 3b
       -0.048828255 -0.040948916 -0.06122202 0.0070419773
000340 8b d2 bb bc f5 a4 2f bd 9a de 93 3c ef 6f 72 bd
       -0.022927543 -0.042881925 0.01805048 -0.05918878
000350 a2 a0 36 bc d2 1c 7c bc 05 26 2b bc f8 81 89 bc
       -0.011146696 -0.015387731 -0.010446076 -0.016785607
000360 62 39 9e 3c bb 6d 46 bd 30 33 71 bd da 54 46 bd
       0.019314472 -0.04844449 -0.058886707 -0.048420765
000370 f8 14 76 3d ef 94 8d bd 86 7b c3 3c e3 26 96 bd
       0.06007859 -0.069131725 0.023862612 -0.07331636
000380 24 dd 30 bd 92 da a4 3b a2 7e 7a bd ae 9e 2f bd
       -0.043179646 0.0050309384 -0.061155923 -0.042875938
000390 c0 59 5e bc 2c 46 ee 3c 9b 52 14 3d dc a3 1e 3d
       -0.013571203 0.029086195 0.03621159 0.038730487
0003a0 52 0b 1a 3c 71 91 3e bd 7d f2 f2 bc 1e 5e d4 3c
       0.009402113 -0.046525422 -0.029656643 0.025923785
0003b0 2e 6c 86 bd ee 58 cd 3c eb d0 15 3c 38 42 54 3c
       -0.065636024 0.025066819 0.009144048 0.012955241
0003c0 9e 2c 8f 3c 8a c7 85 bd 7b 07 57 3c 44 b2 20 bd
       0.01747733 -0.065322 0.013124342 -0.039232507
0003d0 66 89 d1 bb 97 b5 40 bd c1 dd 26 3d 3a e5 0f bd
       -0.006394553 -0.047048178 0.040738825 -0.035130717
0003e0 3f c0 3c bd ba 0c a7 bd 2a c2 0e 3d 9f b7 f5 bd
       -0.046081778 -0.08156724 0.034853138 -0.119979136
0003f0 42 3f 40 bd 3e 1b 9d 3c 09 a2 00 3d 13 4b a7 bd
       -0.046935327 0.01917803 0.03140453 -0.08168616

value_layer.0.bias f4 [128]
000000 6d a8 af bd 60 7d d3 3c 61 d4 a9 bd b8 77 99 3d
       -0.085770465 0.02581662 -0.08292461 0.07493538
000010 0d 91 13 bd 19 5d d3 bd 72 58 8d 3d 4a 68 0c bd
       -0.036027003 -0.10320491 0.06901635 -0.034279145
000020 7a 54 86 bc f8 2e 6f bd de 75 d3 bd 57 42 99 3c
       -0.016397703 -0.058394402 -0.10325216 0.018708391
000030 65 59 8a bd 5f 2e 84 bb cb a3 3f bc 41 7c 87 3c
       -0.06755332 -0.004033848 -0.011696766 0.016538741
000040 06 ce 8a bd 3b 32 ea bd 57 dc 84 bd 02 a5 81 bd
       -0.06777577 -0.11435362 -0.06487339 -0.06330301
000050 27 c2 24 3d 7b eb 92 bc 91 e0 a3 bd b1 c3 84 bd
       0.04022422 -0.017934551 -0.08001817 -0.06482638
000060 06 1c 35 bd 04 05 12 3d bc 89 28 bd b7 bb 91 bd
       -0.04421618 0.035649315 -0.04114698 -0.07115882
000070 af 04 ef bb 8e 17 5c bd 95 ca 77 bd b8 d8 7f bd
       -0.0072942595 -0.0537334 -0.06049593 -0.06246254
000080 5a 0a 92 bc d0 6b 23 bd e5 3f 10 bd 8e a4 7c bd
       -0.017827202 -0.03989774 -0.035217185 -0.06168037
000090 60 c9 bb 3b ef 13 8b 3b 9f b4 b6 bc 86 3c af 3d
       0.005730793 0.0042443196 -0.022302924 0.08556466
0000a0 ea 13 18 bd b7 ce d2 3b 33 89 b2 bc 2f bf ac bd
       -0.037128367 0.0064333337 -0.021793937 -0.08434903
0000b0 3b 4b 8a bd 6a f2 ca bc a5 f3 ee 3c ea 92 ac bd
       -0.0675263 -0.024773795 0.029168913 -0.08426459
0000c0 64 83 13 3e 05 e1 25 bc ac cc ce bd db 11 93 bb
       0.1440559 -0.01012445 -0.10097632 -0.0044882125
0000d0 c7 34 1b 3e b1 17 5f 3d 8a 15 ad bc 7c 87 23 bd
       0.15156852 0.054465953 -0.021128435 -0.03992413
0000e0 44 90 5d 3d ab 30 2f bd 5b f5 16 bb a8 0e 61 3c
       0.05409266 -0.042771023 -0.0023034427 0.0137364045
0000f0 33 8b db bc 9d fe 26 bd c7 f0 f9 3b 41 82 91 3d
       -0.026799774 -0.040770162 0.00762758 0.07104922
000100 7c 29 bc bd ba b1 19 3e b8 9b ac bc d0 42 29 3a
       -0.091876 0.15009204 -0.021070346 0.0006456794
000110 08 40 b5 3d 61 2d ef bc 04 a9 d5 3d 45 32 84 bd
       0.088501036 -0.029196443 0.10432628 -0.06454901
000120 43 03 f2 3c 5f f8 17 3d 72 a9 9f bd 27 47 2b bd
       0.029542571 0.0371021 -0.07795991 -0.041815903
000130 f7 88 69 3d 7d a0 e4 bd ac e0 67 bd ab ac 6c bd
       0.057015385 -0.11163423 -0.05661075 -0.057781857
000140 03 02 19 bd 5f 04 28 bc b5 58 b9 3e 52 0c 09 be
       -0.037355434 -0.010254948 0.3620049 -0.13383606
000150 56 fc 23 3e 24 bc 65 3d f9 d4 5c 3b 4b 64 8e 3c
       0.16014227 0.056087628 0.0033696278 0.017381808
000160 ab dd 65 3d 9c 0a 88 bd 90 78 13 3e 4a 73 e0 3c
       0.056119602 -0.066426486 0.1440146 0.027398724
000170 37 1c 92 bc f1 7e 21 bd 51 f2 89 bd e7 ce a4 3d
       -0.01783572 -0.0394277 -0.06735671 0.08047276
000180 1c 02 e0 3c 36 d5 ae 3b d9 11 c7 3b 7b 94 d4 bd
       0.027344756 0.0053354753 0.0060751257 -0.10379883
000190 20 26 19 3d 16 33 8c 3d af 5c 63 bd a4 6f bc 3d
       0.037389874 0.06845681 -0.05550831 0.09200981
0001a0 16 ec 49 3d 09 b7 46 ba 98 5c d4 3d 79 f1 2b bc
       0.049297415 -0.0007580375 0.10369223 -0.010494583
0001b0 5e 59 e0 bc 89 b3 31 bb a6 28 25 bd 6c 8b 94 3c
       -0.027386364 -0.0027115068 -0.04032197 0.018132888
0001c0 b8 2c 65 3c d3 15 ab bd a1 99 19 bc da b4 b1 bd
       0.013987713 -0.08353772 -0.009375007 -0.08677073
0001d0 dd f8 c5 bd 6d d5 33 bd 78 2c 0b 3c fc 58 ef bd
       -0.096666075 -0.04390471 0.008494489 -0.11686894
0001e0 36 aa d7 3e 97 1f 61 3d dd c0 d5 3c 21 02 78 bd
       0.42122048 0.054961767 0.026092941 -0.060548905
0001f0 1b 8b ea 3d 9c bd eb 3d 93 6d af bd 0c f5 d1 bc
       0.114523135 0.115107745 -0.085658215 -0.025629543

value_layer.2.weight f4 [1, 128]
000000 9c ed af 3c 5b 90 9b bd 6d ce b7 bd 6e bc 27 3d
       0.021475606 -0.07595893 -0.089749195 0.040951185
000010 5f 1a 45 be bb 64 2c be 02 00 0c 3e 20 28 bc 3e
       -0.19248341 -0.168353 0.13671878 0.36749363
000020 c9 3b b3 be ea 6c 1f be d3 43 6b be a3 8c 93 3d
       -0.3500655 -0.15568891 -0.22975092 0.07204559
000030 58 2d c5 3d 74 ef 98 3e 55 11 8a 3e 6e f2 5f 3e
       0.09627789 0.29870188 0.26966348 0.21869823
000040 08 d0 b7 3e 1d 36 ef bd fa 46 2e 3e 68 d4 3f be
       0.35900903 -0.11680243 0.17019263 -0.1873337
000050 44 88 79 be 9f 51 1b 3e f9 a3 87 3e 33 c5 54 be
       -0.24368387 0.15167855 0.2649229 -0.2077835
000060 7a 52 61 be 62 42 9e 3e d4 d2 35 3e c7 e6 08 be
       -0.22004119 0.3091002 0.17756206 -0.13369285
000070 0a be a8 3d b3 9a 38 be 6b 91 76 38 69 71 de be
       0.08239372 -0.18027763 5.87864e-05 -0.434459
000080 1a f4 98 bc 52 5b dc be 62 cd 9c 3e 4d 06 a9 3d
       -0.018671084 -0.43038422 0.30625445 0.08253155
000090 a0 4a 23 3e 0e e0 ad be ae 11 24 bd e3 39 25 3e
       0.15946436 -0.33960003 -0.040055923 0.16135363
0000a0 64 01 92 be 36 bd 54 3c ca aa cc 3e d7 1e 3c be
       -0.28516686 0.0129845645 0.39974052 -0.1837114
0000b0 13 e7 2d be e6 bf d7 3e e7 c6 1a 3e a3 ec 26 bd
       -0.16982679 0.42138594 0.15114938 -0.040753018
0000c0 ed a9 bf 3d 1b 58 0f be 68 90 61 bd 55 56 c4 be
       0.09358583 -0.13998453 -0.055069357 -0.38347116
0000d0 f7 8d 89 3d 40 55 95 3e e0 8e 45 be fa 67 e0 bd
       0.06716531 0.29166603 -0.19292784 -0.10957332
0000e0 54 cb 73 be b3 53 79 3e 27 32 bf 3d 2e b8 52 3e
       -0.23808032 0.24348335 0.09335738 0.20578071
0000f0 ae c5 34 be e9 6c 68 be e4 37 3e be 04 46 b0 3d
       -0.17653534 -0.22697796 -0.18576008 0.086071044
000100 ea be 36 be 06 fd fc 3d 7f 02 92 be a0 01 25 3e
       -0.17846265 0.12352948 -0.2851753 0.16113901
000110 e6 9c 81 3d 87 5b 59 be 9e 8f c7 3d 47 8a 80 be
       0.06328754 -0.21226321 0.0974419 -0.25105497
000120 aa db 12 3e 81 ba 91 3e bf 30 c9 bc b2 04 36 3b
       0.14341608 0.28462604 -0.024559377 0.0027773795
000130 10 bb 07 3f b8 09 9b be de 05 e8 bd 58 c7 63 be
       0.5301981 -0.30280852 -0.11329244 -0.22244012
000140 0b 0f d3 bd f8 be 37 3e 2a 76 00 3e 1d f1 1c be
       -0.103056036 0.17943943 0.12545076 -0.15326352
000150 41 36 bb 3d d7 70 b2 3d 5f ca b4 3d ff dd 49 3e
       0.091412075 0.08712929 0.08827662 0.19713591
000160 f2 96 dd 3d 73 8d 7b be 30 a6 a9 3d 14 fd 3c 3e
       0.10819806 -0.24565677 0.08283651 0.18455917
000170 09 de e9 3b fb 9f e0 bc d8 de 63 be 50 a8 f8 3d
       0.0071370644 -0.027420035 -0.22252977 0.12141478
000180 e1 e6 9d bd f3 54 32 3e 72 e3 c8 3d 7c 58 5f be
       -0.07710052 0.17415218 0.09809007 -0.21811098
000190 0d 0e 48 3e 27 25 3d 3e 92 44 ae be c7 a6 b2 be
       0.1953661 0.18471204 -0.3403669 -0.34892866
0001a0 a9 16 42 3e ca c8 20 3e d8 4d 45 3d 96 cd 81 be
       0.18953957 0.15701595 0.04816994 -0.25352162
0001b0 02 92 8d 3e 4f 7f 0f be 39 4f e6 bd 68 b9 d6 bc
       0.27650458 -0.14013408 -0.11245579 -0.026211455
0001c0 d2 c8 40 be 1e e3 5e be 01 c1 9c 3e af 34 98 bd
       -0.18826607 -0.21766326 0.30616 -0.074319236
0001d0 a2 fa 1a 3e 9a 04 9e 3e f4 25 17 be 16 54 64 be
       0.15134671 0.30862886 -0.14760572 -0.22297701
0001e0 76 1a f8 3d 53 e2 c8 3d 29 1c a7 be 98 97 82 be
       0.12114422 0.09808793 -0.32638672 -0.25506282
0001f0 d9 8e 64 3d cf 64 15 3e 3c 3b 6a be 06 40 2c be
       0.055800293 0.14589237 -0.22874159 -0.16821298

advantage_layer.0.weight f4 [128, 256]
000000 dd e2 41 3b 62 04 50 bd 55 8d b6 bd c0 25 8d be
       0.0029584684 -0.05078543 -0.08913676 -0.27567863
000010 31 f6 f7 bb 8b aa e5 bc fb c1 fe 3d 4e 25 69 bd
       -0.00756719 -0.028035423 0.124393426 -0.056920342
000020 86 4b 47 3e b2 93 30 bd be 04 af 3d 5b 5d 17 be
       0.19462404 -0.043109603 0.085458264 -0.14781706
000030 4f 15 d0 3d bd b0 1b 3e 55 fb 48 be 66 2b 91 bc
       0.10160314 0.15204139 -0.19627126 -0.01772089
000040 89 f6 96 bc 10 33 86 3d 32 0f 56 3c dc 87 99 bd
       -0.018428104 0.06552708 0.013065146 -0.07496616
000050 a2 99 e0 3c 38 1e 14 3d 0a 73 1c 3c b5 aa 2b bd
       0.027417008 0.03616163 0.009548912 -0.041910846
000060 ac 83 ef bd c4 8d e3 3c 40 a9 c6 bd de 60 58 3d
       -0.11695036 0.02777756 -0.097002506 0.052826755
000070 c4 39 ed 3c ed 16 bc 3c 9f 59 cc bc b0 39 76 3d
       0.028958209 0.02296015 -0.024945078 0.06011361
000080 e3 6a 6c 3c bb a9 ab bd aa de bc bd 90 48 29 be
       0.014429781 -0.08381983 -0.09222157 -0.16531587
000090 f3 db f3 3c 35 f6 7c be fa ec c3 bd 9c 4d d2 bd
       0.029767966 -0.24703296 -0.09566684 -0.10268709
0000a0 03 94 4e be d1 0c 38 3e c2 17 12 3e 04 3f be bd
       -0.2017365 0.17973639 0.14266875 -0.09289363
0000b0 f0 a3 29 bd d7 94 a9 bc 2a d4 c0 3d 5b c9 60 3e
       -0.04141611 -0.020700855 0.09415467 0.21951811
0000c0 78 c0 93 bd 0c d9 35 bc 87 2f 56 bd ff 8c 05 be
       -0.07214445 -0.011099111 -0.05229142 -0.13042067
0000d0 f2 64 8e bd 95 75 52 3d eb 8a 37 3d 06 af d0 3d
       -0.069528475 0.051381666 0.044810217 0.10189633
0000e0 86 43 0c bd e7 b5 78 3c cc d2 30 be 8a ba 28 3d
       -0.034244083 0.015180088 -0.17267913 0.041193523
0000f0 ee 5e af bd 0a 39 2b be 81 31 06 be f4 8d ee bc
       -0.08563028 -0.16720977 -0.13104822 -0.029120423
000100 b9 75 66 bc 94 c9 ab 3d b2 7d f2 3d 24 b4 75 3d
       -0.014066153 0.08388057 0.11840381 0.05998625
000110 93 4e 42 be f8 05 cd bd ab b6 20 3d 9d ed 0c 3e
       -0.18975286 -0.10010904 0.039236706 0.13762517
000120 02 74 59 bc 61 ff 1f 3e a3 3b 2e bd ef 32 0a 3e
       -0.013272287 0.15624763 -0.042537343 0.13495992
000130 a2 e7 9a 3d 0c a3 79 bd ee 59 bf ba 43 f0 ae bd
       0.07563712 -0.06094651 -0.0014598945 -0.0854192
000140 c6 4f 77 be 1d 4e 64 be 56 1d 0d 3e 97 44 4c 3e
       -0.24151525 -0.22295423 0.13780722 0.1994804
000150 50 03 bf 3d f3 88 08 be b2 b1 99 bd 95 11 10 be
       0.09326804 -0.13333492 -0.07504596 -0.14069207
000160 c4 58 e2 3d 3e bd 16 be be 9f 8b bd ab d2 61 3d
       0.11052087 -0.14720628 -0.06817578 0.05513255
000170 07 f6 aa bd a4 95 69 3d c9 ff e5 3d 3f 85 0d bc
       -0.08347707 0.057027474 0.11230428 -0.008637725
000180 d4 b8 9a bd ce a6 cf bc a4 cf 01 3d 4b d9 a3 bd
       -0.075547844 -0.025348093 0.031692162 -0.0800043
000190 60 74 3f be 9b 45 e9 bd a1 38 9e bd e6 ec 98 3d
       -0.18696737 -0.11390229 -0.07725645 0.0746706
0001a0 c0 b3 6f 3e 0d f1 c9 bd 2f 99 60 be 11 05 a7 3d
       0.23408413 -0.0986043 -0.21933435 0.08155263
0001b0 c1 b6 79 3d ce ba b4 3d 2f 67 28 bd b0 b0 05 3c
       0.060965303 0.08824693 -0.04111403 0.008159801
0001c0 3b de 6b bd c4 cc 8b bd 87 60 0a 3d df d6 00 3d
       -0.057584982 -0.06826165 0.033783462 0.031454917
0001d0 ec ad e4 3c e0 3d e5 3d 95 70 9f 3b 4a c5 06 bd
       0.027914964 0.11193442 0.0048657157 -0.032902993
0001e0 2e 95 36 3c ae 28 68 bd 48 3d dc bd e3 23 a0 bd
       0.011143966 -0.05667942 -0.10753876 -0.07819345
0001f0 22 d9 02 3d 9a bd 0f be 57 38 2b be 14 cd 83 bd
       0.031945355 -0.14037171 -0.1672071 -0.064356
000200 1d f7 09 3c 92 07 4a 3b 1a 08 36 3d 89 45 22 bd
       0.008420733 0.0030827266 0.04444132 -0.039617095
000210 f1 e5 06 3d 17 1b 84 3d 28 3f bd 3d 51 f2 4f bd
       0.032934133 0.064504795 0.09240562 -0.0507682
000220 8c 49 4a bd 9d 6c 61 bd 40 81 0e bd 41 bd 85 3c
       -0.049386546 -0.055035222 -0.03479123 0.016325595
000230 a1 f9 ef bd 5d 28 78 be 96 e8 ca bc d5 34 98 bd
       -0.11717535 -0.24234147 -0.024769109 -0.07431952
000240 1f 53 ae bc e9 59 3b 3d d1 65 7d 3c b2 4b 30 be
       -0.02127987 0.045740042 0.015466169 -0.17216375
000250 91 8e a5 bd a8 ed 31 bd 85 8d 0c 3d de 45 b3 bd
       -0.08083833 -0.043439537 0.03431465 -0.087535605
000260 02 d6 3f bc d7 2e 29 bd a4 ff 59 3d 39 93 fe 3d
       -0.011708738 -0.041304436 0.053222314 0.12430424
000270 d0 b8 98 3d 2e 8e 6a 3d 78 ff 89 bc 20 61 06 3d
       0.07457125 0.0572645 -0.01684545 0.03280747
000280 d6 d7 bd 3d f0 1a b2 3d d5 a7 02 3e 55 75 f1 ba
       0.09269683 0.08696544 0.12759335 -0.0018421808
000290 8f 92 9e 3d 57 9a cf 3c fa f7 33 be 7d 12 70 3e
       0.077427976 0.02534215 -0.17575064 0.23444553
0002a0 7f e4 f7 3b a8 7e e5 bd 3c a9 52 bb 23 5a 26 bd
       0.0075650807 -0.112057984 -0.0032144329 -0.040613305
0002b0 60 cc 04 bd 84 16 07 bd ec 70 95 3a 22 00 a0 bd
       -0.03242147 -0.032980457 0.0011401451 -0.07812525
0002c0 23 35 68 bd 9d b5 99 3d 70 b0 34 be 7c fe ff bd
       -0.0566913 0.07505343 -0.1764543 -0.12499711
0002d0 9f 56 0f 3e d9 fd 88 3c 48 30 81 3d 66 91 3f bc
       0.13997887 0.016722606 0.06308037 -0.0116923805
0002e0 fe 10 26 be 7c f7 02 3d 13 78 31 bd 1c b3 5b bd
       -0.1621742 0.0319743 -0.043327402 -0.05363761
0002f0 ac 92 29 bc af ea f4 3b 6c 00 8f bd b0 8f 2d be
       -0.010349911 0.0074742655 -0.06982502 -0.16949344
000300 a1 8e e2 bc a2 17 f0 bd e9 c9 91 3d c5 6d ae bc
       -0.027655901 -0.117232576 0.071185894 -0.021292577
000310 e4 da 84 3e e1 10 30 be 5f fd fb 3c 1d c7 74 bd
       0.2594825 -0.17193939 0.030760465 -0.0597602
000320 b6 9b 3a be 47 0c fd bd 41 62 01 be 4f ed 80 bd
       -0.18223462 -0.12355857 -0.12635137 -0.06295263
000330 ec 80 24 bd e4 89 a9 bd 47 79 e4 bc da 0f 3a bd
       -0.040162012 -0.08278254 -0.02788986 -0.045425273
000340 ef db 44 3d 79 86 93 bd 33 cd af 3d 3f 3a 05 be
       0.048061308 -0.07203383 0.085840605 -0.130105
000350 4f 17 0d bd 1b 4d b3 bd ae 02 26 3e 34 2d 7a 3d
       -0.034446057 -0.08754941 0.1621196 0.061078265
000360 b3 26 24 3d 44 20 02 3e 4e 19 e7 3d 0c a9 43 3e
       0.04007597 0.12707621 0.11284123 0.19107455
000370 3a 63 7a 3c 42 ce 5b 3d 08 2f b0 3c d0 2d b1 3d
       0.0152824465 0.0536635 0.021506801 0.08651316
000380 bd d5 6a bd 63 cd 62 bb 91 9b d7 3c 37 60 91 3c
       -0.057332743 -0.0034607283 0.026319297 0.017746074
000390 a1 9c 61 bb d3 6b aa 3d 52 88 36 bd 2e 1e 91 3d
       -0.0034425633 0.08321347 -0.0445636 0.070858344
0003a0 71 7a 51 3e 03 da 70 bd 16 66 63 bc b2 63 99 3c
       0.20456864 -0.058801662 -0.01387932 0.018724296
0003b0 ee 3d 44 bd 4a 29 69 be 36 08 5f 3d 6d d3 e0 3d
       -0.047910623 -0.22769657 0.05445119 0.10977826
0003c0 6b 2a ae 3d 43 11 27 bd 00 a0 64 be 7c d4 02 3e
       0.08504184 -0.040787946 -0.2232666 0.12776369
0003d0 89 4d 5d be e4 2d a6 bd 0b c0 d7 bd 77 6e 27 bd
       -0.21611609 -0.08114222 -0.10534676 -0.04087683
0003e0 e0 3c e2 3d 5e 5f 4a 3c 28 25 eb 3c 15 75 85 bc
       0.11046767 0.012351839 0.02870424 -0.01629118
0003f0 f8 74 1d be 50 24 8d bd 2a 47 85 bd 6e da 22 be
       -0.15376651 -0.06891692 -0.06507714 -0.15903637

advantage_layer.0.bias f4 [128]
000000 5a d3 a8 bd b2 75 de 3b d7 42 1a 3c ac 51 5a bc
       -0.08243437 0.0067889327 0.00941535 -0.013325136
000010 2c 3c 8f bc e4 2e f0 bc 61 27 5d bd e1 39 31 bc
       -0.017484747 -0.029319234 -0.053992633 -0.010817022
000020 fa b2 8e bd f5 f9 00 be eb 1d 46 bc cd 69 4b 3d
       -0.06967731 -0.12595351 -0.012092094 0.049661446
000030 2f 5c b6 3d 0c e9 71 bd 9d d9 e9 3c 93 bd 8c bc
       0.089043014 -0.05906014 0.028546149 -0.01718024
000040 5e 14 09 3d a3 14 6a bd a5 7b ee bd 8c 4f 80 3d
       0.03346669 -0.057148587 -0.11644677 0.06265172
000050 8a 8f 0a bd 16 9b 7d ba e0 54 f5 3c 21 1c 2b bd
       -0.033828296 -0.00096742937 0.029947698 -0.041774873
000060 c6 0c 5e 3c 16 53 c1 bc 2d 8b bd bd 66 c9 e6 3a
       0.01355285 -0.023599189 -0.09255061 0.0017607629
000070 77 c5 51 bd c1 07 2a bd fb 0d 3c 3d 35 8a 1f bc
       -0.051213708 -0.0415113 0.04591177 -0.009737541
000080 20 1d 28 bb c3 e1 cc bd c1 24 84 3b 29 c9 c7 bd
       -0.0025652125 -0.10003998 0.0040327017 -0.09755165
000090 d2 cf cd 3d 06 90 56 bc 3c 2c d1 bd 5a 3d 6d 3d
       0.10049404 -0.013095861 -0.10213515 0.057919838
0000a0 b1 f2 71 bd 12 6d 92 3c 88 b5 9d bb ff 84 1f bd
       -0.05906934 0.017874274 -0.0048129 -0.038945194
0000b0 87 c0 77 bd cc f0 92 bd 59 45 b4 bd 08 e2 8d 3d
       -0.060486343 -0.071748346 -0.088022895 0.06927878
0000c0 b3 9e c2 3b 65 4e 02 3d d0 fb 78 bd 27 b3 fb bd
       0.0059393286 0.031813044 -0.060787022 -0.1229003
0000d0 db ef f8 3c 61 4d ba 3d 69 15 d1 3b 6d 8f f9 3c
       0.03038781 0.0909679 0.006380726 0.030463899
0000e0 42 dc 04 3e c6 97 c1 bd 12 69 92 bc 62 28 0f bc
       0.12974647 -0.094527766 -0.017872367 -0.008737655
0000f0 30 d0 30 bd fc 1d 4f bc 1d 0c de 3b 8b ae 16 bc
       -0.043167293 -0.012641426 0.0067763464 -0.009196888
000100 e4 9f b3 bd ff 82 8a bd eb 06 62 bd 30 49 dd bd
       -0.08770731 -0.06763267 -0.05518238 -0.10804975
000110 e2 95 ea 3c 4b e9 1b bd 8b c3 8e 3d 66 98 55 bd
       0.028635923 -0.038064282 0.069708906 -0.05214729
000120 f8 62 d2 bc 85 c3 58 3d 79 88 ab bd 2f 15 8c bd
       -0.025681958 0.052920837 -0.083756395 -0.06839978
000130 74 56 6d 3c aa 19 e1 bd f6 94 88 bc ac 3f b7 bb
       0.014485944 -0.10991223 -0.016672593 -0.005592307
000140 b6 b5 8f 3b c5 07 69 bc 21 6c 1e bd 7e a2 5a bb
       0.0043856753 -0.014223044 -0.03867734 -0.0033361013
000150 34 da 97 3c 82 b9 bd 3b 57 f7 0f bc 7a ed 1f bd
       0.018536665 0.0057899365 -0.008786998 -0.039044835
000160 32 94 b9 bc e7 41 8b 3c 4b ac dc bc e1 f8 5b bd
       -0.022653673 0.016999198 -0.026937624 -0.053704146
000170 ea ce a4 bd 75 4e b5 bd b0 8b b6 bd 2f d5 e3 bc
       -0.08047278 -0.08852855 -0.08913362 -0.027811615
000180 65 50 cb 3b 5d 9b b4 3c 11 c3 87 bd 0d be 3b bd
       0.006204652 0.02204674 -0.06629003 -0.045835543
000190 0e 2b ee bd 4e 2a 8e bb a0 8e 29 3c 00 52 c4 bd
       -0.11629306 -0.004338539 0.010348946 -0.09585953
0001a0 b0 d1 ac 3d aa 45 31 be b5 81 3e 3c f7 08 ab bc
       0.08438432 -0.17311731 0.011627604 -0.020878298
0001b0 60 8d 7c 3a 2f be 1a bd f4 da 0b 3c 17 71 06 3d
       0.00096341036 -0.03777903 0.008536089 0.032822695
0001c0 26 ba 04 bd 64 30 e0 bd 9a 64 0c be c1 84 83 bd
       -0.032404087 -0.1094673 -0.13710251 -0.06421805
0001d0 27 42 d2 3c a5 78 47 3c 1c 9e 38 bd 03 28 1b 3d
       0.02566631 0.01217476 -0.04507266 0.037879955
0001e0 97 e0 c1 3d 0a 0d 8e 3c 40 c7 10 be 0e 74 8b bd
       0.09466665 0.017340202 -0.14138508 -0.06809245
0001f0 a5 86 65 3d dd 4d e1 3b 7a a3 21 3c 1f e9 86 ba
       0.05603661 0.006875737 0.009865636 -0.0010292864

advantage_layer.2.weight f4 [4, 128]
000000 d8 e4 b6 bb 70 71 a9 bc 1e 5e 31 3e 21 91 44 be
       -0.0055814795 -0.020683974 0.17321059 -0.19195987
000010 6d d3 a0 3d aa d9 5f 3d c3 7a 04 be 4b 7c e0 3d
       0.07852826 0.05465094 -0.12937455 0.10961207
000020 e0 34 9f bd b9 b7 fe 3c 7c e2 53 3d 25 fd 86 be
       -0.07773757 0.031093465 0.051729664 -0.2636501
000030 18 d5 b2 be ba 70 ec bc 95 83 36 3e 8b b2 e2 bd
       -0.34928203 -0.028862346 0.17823632 -0.110692106
000040 e6 67 34 be 3a b2 1f bc 81 14 ae bd b8 ea 78 be
       -0.17617759 -0.009747082 -0.085000046 -0.24308288
000050 13 13 67 3e 60 ca 02 bd ca c7 b8 3d f8 40 4b bd
       0.2256587 -0.03193128 0.09022482 -0.049622506
000060 92 b1 3b 3e c0 ca 52 3e 75 79 77 3e 14 f6 29 be
       0.18329456 0.20585155 0.24167426 -0.16597778
000070 61 76 33 3e bd 5e ab 3c b0 41 22 3d 20 e3 11 3d
       0.17525627 0.020919198 0.039613426 0.035616994
000080 e2 55 26 bd 51 27 a9 3d 96 fd d1 3c 01 04 c8 bd
       -0.040609248 0.08259452 0.025633615 -0.09766389
000090 2f d5 1b 3e 55 c2 54 3e 02 06 9c 3c 92 d8 48 be
       0.15218042 0.20777257 0.019045833 -0.19613865
0000a0 90 dc ab 3c 59 5b a0 bc 51 1a 1b 3d 94 a6 cc 3d
       0.020979196 -0.019574808 0.037866894 0.0999271
0000b0 c6 cb ea bd 60 61 5c 3d dd f5 28 be 12 39 9c 3c
       -0.11464648 0.0538038 -0.1650004 0.019070182
0000c0 32 68 77 3d de c3 ba bd f3 f8 4c 3d 44 99 90 bd
       0.060402103 -0.0911939 0.050042104 -0.07060483
0000d0 29 da e5 3d ef 85 0c 3d 77 cc d7 bd 92 f5 6a 3d
       0.112232514 0.034307417 -0.105370454 0.0573631
0000e0 be 4a b9 3d e8 6e a7 bd 8c 90 61 3c be fd 1d 3c
       0.09047459 -0.081754506 0.013767373 0.009643016
0000f0 03 38 a7 bd bd c9 0e 3e 26 51 3b 3c 3e 04 7c bc
       -0.0816498 0.13944145 0.0114329215 -0.015381871
000100 87 21 18 bd d4 fb 86 3e d2 a3 a7 bd cb 15 1e be
       -0.03714135 0.26364005 -0.08185543 -0.15438001
000110 0e e5 15 3d 70 24 df 3d 03 6f 30 3d 68 78 f0 bd
       0.036595397 0.10895622 0.04307462 -0.11741716
000120 e4 33 d3 bd 1b 5b 0b bd 70 34 21 be 33 33 3b bc
       -0.10312632 -0.03402243 -0.1574266 -0.011425781
000130 a4 04 ef be 7d 81 26 3e 7e 89 81 bd be 5d d1 3d
       -0.46683228 0.16260333 -0.06325053 0.10222958
000140 e8 0c 83 3e f9 0a aa 3c 5d 12 29 ba 8a 14 d7 3d
       0.25595784 0.020757185 -0.0006449575 0.105019644
000150 c9 51 0d 3d e5 13 a5 3c 5f 6e 9b 3d 84 fd 40 be
       0.034501825 0.020151088 0.07589411 -0.18846709
000160 7f 85 24 3e ea ae 03 bd 93 c3 bd 3d 71 d7 a5 3c
       0.1606655 -0.032149233 0.092658184 0.020244332
000170 d4 ca 01 3e 14 c5 c1 3a 13 72 8b 3d 1e b0 50 3a
       0.12675029 0.0014783465 0.06808867 0.0007960814
000180 6e 6c b4 3c b0 60 a6 3d 3b 15 e0 3d 1d 39 d0 bd
       0.02202436 0.081239104 0.109415494 -0.101671435
000190 0f 99 d7 bd 8c 46 78 3e 0d 07 b9 bd e0 10 9a bd
       -0.105272405 0.24245661 -0.09034548 -0.0752275
0001a0 a1 eb da 3d 53 fe ff bc ee 4f cd bc fc 21 d1 3b
       0.10689474 -0.0312492 -0.025062528 0.006382225
0001b0 ad 2a 90 3d 79 3e 31 3d 36 09 26 3c b7 e7 80 3c
       0.0703939 0.04327247 0.010134032 0.01573549
0001c0 e4 ab 0f be a0 18 bd bc b6 bf a1 3e 65 9a 5b 3d
       -0.14030415 -0.023083031 0.31591576 0.05361404
0001d0 2f 4b 3f 3e be cb 61 3e 7c ae 75 3d 90 c5 aa 3d
       0.18681024 0.22050378 0.059980854 0.08338463
0001e0 ff e3 f2 3d 3e 25 3d bd 84 e9 34 be d5 fa 3e 3d
       0.11859893 -0.046178095 -0.17667204 0.04662593
0001f0 e8 2f 2c be 78 80 87 be af 40 6a 3c 97 d7 9f 3d
       -0.1681515 -0.264652 0.014297648 0.078047924
000200 c2 1f f3 3c 41 09 9c bd 2b c4 89 bd 34 1b 6c 3d
       0.02967823 -0.076189525 -0.06726869 0.05764313
000210 ae bd c9 3c 7f 58 a3 be a4 90 b5 bd 3a 7a 1f bd
       0.02462658 -0.31903455 -0.08865479 -0.038934924
000220 76 76 26 3d de cd 43 3d 8b f0 6d bb 0d e1 89 3e
       0.040640317 0.047803752 -0.0036306705 0.26929513
000230 67 18 44 3e ae fb 9d bc c4 85 89 3e 4d ea 3f 3e
       0.19149934 -0.01928505 0.26859868 0.18741722
000240 c2 69 85 bd 0e 2b 1c be 4b fc 68 3d 8b 52 a2 3d
       -0.06514312 -0.15250799 0.05688123 0.079259
000250 32 27 83 3e 9d ad 98 3c 72 bd d3 bd 22 1e f4 bc
       0.2561584 0.018637473 -0.10338868 -0.029799525
000260 fa 25 a8 3e e8 bd 52 bc c5 08 32 3e 72 2d 0c bc
       0.32841474 -0.01286266 0.17386158 -0.008555757
000270 06 41 6c 3e 3c 43 81 bb ff ef 81 bc a9 0f 6b bd
       0.2307168 -0.0039447825 -0.01586151 -0.05738798
000280 58 8e 5d 3e 7e 5c 87 bc de 71 0f be c1 8f 06 be
       0.21636331 -0.016523596 -0.1400828 -0.13140775
000290 92 76 da 3d e7 eb 52 3d 19 fe 0b 3d 9c a9 91 bd
       0.10667147 0.051494505 0.034177873 -0.071124285
0002a0 8f b2 17 3e c8 06 2c 3e ec 5b 53 3e 78 55 94 bd
       0.14814208 0.16799462 0.20640534 -0.07242864
0002b0 71 bc 0b be d9 a6 80 3d 70 f5 08 3e a5 36 59 be
       -0.13646103 0.06281824 0.13374877 -0.21212251
0002c0 7d 86 22 be 7c a1 45 3a 93 0f 9c 3d fe dc 9d bd
       -0.15871616 0.00075390167 0.07620158 -0.077081665
0002d0 37 0b 3d be 9b 45 34 bd 0d b9 b3 bd 53 1f 9c 3c
       -0.1846131 -0.044011693 -0.0877553 0.019057905
0002e0 1d 33 ee 3d 79 13 8e 3d 21 fa 91 bc d6 f6 82 bd
       0.11630843 0.06937308 -0.017819466 -0.063947365
0002f0 ae 79 93 3e e3 b2 e8 ba be 72 5c be 7c 81 92 3d
       0.28803772 -0.0017753508 -0.21528146 0.071536034
000300 1a d3 4e 3d bf 2f 60 3e f5 1c fe 3d 4a 3c 52 be
       0.05049429 0.21893214 0.12407867 -0.20530811
000310 48 50 f4 3c c5 13 ea 3c 54 34 a8 3d 7e 71 82 bb
       0.029823437 0.02857388 0.08213106 -0.0039808145
000320 3a aa f5 3b 88 24 ea bc 18 3d 19 3e aa db 92 3d
       0.007497099 -0.028581873 0.14964712 0.07170804
000330 f5 88 de 3a 18 ba bf 3e b3 7f c2 3a 7b e4 bd bd
       0.0016978072 0.37446666 0.0014839083 -0.09272095
000340 b0 40 09 3e 62 b1 83 3e b8 54 1d 3d 7b ee af be
       0.13403583 0.2572127 0.038410872 -0.34361634
000350 21 c6 01 be 13 9a 3c bb b0 92 63 be f1 28 5b bc
       -0.12673236 -0.0028778359 -0.22223926 -0.01337646
000360 7b 90 f5 bc ed 39 8e 3e 56 99 8f 3d b4 45 59 bc
       -0.02997612 0.2777857 0.070116684 -0.013261247
000370 05 bb 80 bd a0 7f 12 bd 83 3e 19 bd 5a b0 d1 3d
       -0.06285671 -0.035766244 -0.03741313 0.102387145
000380 67 2b 88 3d 62 76 90 bc 6e 90 e7 bd 7e f0 21 bd
       0.06648903 -0.017634574 -0.11306845 -0.03953599
000390 ba cf 1c bd f9 51 73 3e 49 05 87 be 5d b6 7a bd
       -0.03828404 0.23761739 -0.2637122 -0.06120907
0003a0 33 f2 f3 3d 57 99 0e be f0 3d 8b 3d da b5 eb 3c
       0.1191143 -0.13925682 0.06798923 0.028773237
0003b0 8d bb 65 be 39 a0 54 3c 5d b3 44 3d 43 f4 04 3e
       -0.22434826 0.012977653 0.048022617 0.12983803
0003c0 c8 1b af bd cb 85 28 bc 96 3a ad 3d eb 81 3e 3e
       -0.08550221 -0.010285805 0.0845844 0.18604247
0003d0 1e 42 4e 3e 6d 31 48 3e f0 6e 8b 3d 5a 69 36 3b
       0.20142409 0.19550104 0.06808269 0.002783379
0003e0 a3 50 b9 3d 4a f9 e2 3c 8e 23 db bd c9 7b 79 3d
       0.09048583 0.02770676 -0.10700141 0.060909066
0003f0 b9 23 03 3c 11 8f 59 3d 61 05 3d 3c 07 24 43 3d
       0.008004122 0.053114954 0.011536927 0.04764178

advantage_layer.2.bias f4 [4]
000000 0d a8 dc 3d 3d 90 40 bc 7b 4f 77 3d 76 8c 95 3c
       0.10774241 -0.011753139 0.060378533 0.018255454
