p1_navigation/checkpoint.pth (torch_old, 173683 bytes, 6 tensors)

hidden_layers.0.weight f4 [256, 37]
00000000: c737 a13d be01 463e 5b0f ebbe e5fe 50be
00000010: 5c93 30be 7d04 983d fdde e4bd 6b2d a33e
00000020: 0a6d ddbe ac09 3b3d 59c7 8ebd bd81 1dbe
00000030: 6ac5 783c 60c4 81bd 8263 6cbd 5da0 c9bd
00000040: cee1 c63d 5461 5d3e 434a adbd ef38 fbbc
00000050: 542c 493e 9561 eb3d 1df8 25be 32cb 103e
00000060: 34aa 8ebd b9a6 953c b1a3 483e 19cf 0ebe
00000070: 4323 c6bd d916 9dbe 2d30 15be 9f0c a03e
00000080: d2b4 23bd 94c7 60be e949 b03b 8aa8 f8bd
00000090: 6fe9 3bbc 42b8 8e3e 2099 81bd a6bb f3bc
000000a0: daf1 27bd 6314 1cbf 48a3 4e3e 1640 25bd
000000b0: 141f edbd a1c7 d6be fa98 a43e e527 b1bd
000000c0: ff24 b1bc af8f ad3d 2d29 413e a280 8c3e
000000d0: 56e9 273e 2bdd 3bbe 9d00 3a3d c601 813d
000000e0: 0793 8abf 9ba1 04be 35da 9abd 0873 7139
000000f0: bb34 c3bd 0184 4a3d 1557 b9bd 2501 583e
00000100: d9bd 8cbd a2ed 98bd 6bb1 323e e287 1f3d
00000110: e102 683e 25d1 ed3d 3ace 16be ed79 26bc
00000120: edf3 1f3d 29bb 613c e03e 2fbe ef65 ce3c
00000130: d501 873e 3285 dfbd d1c1 c4bd 47b8 9e3c
00000140: 7be8 9ebe 20ae c53d d7c8 0a3e 59d7 d0be
00000150: 73d3 6c3e d170 22bd 3db5 2abe ae4c 5bbe
00000160: d826 32be c588 65be 341f d43d e4bb a13d
00000170: 8ec8 a63d d390 053e 676c 66be bc11 e2bd
00000180: 12cb 80bb 9d71 033e 3cf5 a0be e16f 6dbd
00000190: 9af6 923c b406 323e 5e16 0ebb dda8 eabc
000001a0: fc82 98be 3aeb 273d 5215 c3bd 2a27 79bd
000001b0: aac3 15bd 0069 683e 7901 fe3b f273 c63e
000001c0: e715 3dbf 42e1 0cbd dffb 0dbd e831 b5bf
000001d0: b3da 95bd 9e07 073e c493 c63d 3d40 013e
000001e0: fff3 ef3d bf4e 5dbd b37e f13d fa57 b03d
000001f0: 5c82 5bbe 9f47 c2bd 9966 fe3b be60 793c
00000200: 5560 9cbd df22 83be 10b6 25be d91a 96bd
00000210: a69d e2bd 1018 433d f419 013e 9fec 4a3e
00000220: 5db9 083d c057 843e c74d 823d 9716 6c3d
00000230: 9b09 293e 4914 66bc d5dd 323e 1d4f 893d
00000240: bc57 8bbd 79c7 3dbe 301d bd3c 17f7 d3ba
00000250: 68f6 8bbc 9987 0abe b887 4abe 8087 b8bd
00000260: 92e4 6a3d 0770 123e e936 093f 70a1 1ebf
00000270: 7961 c73d b343 64bf 9aee c6bb 5f10 87bc
00000280: 3b31 a4bd 23a7 edbc 0ba0 b0bc bbe1 74be
00000290: d90a 053c 0f24 8b3d b899 eb3c e2fa f03d
000002a0: b808 58be c869 b6bc a35f 0f3e 3926 163e
000002b0: 0ba9 513e 344b 413e 7d83 09bf 93a0 eb3d
000002c0: 8ad8 22bc 9d36 2bbf ad89 113e 0fe0 213d
000002d0: 463a 703b d8e6 d23d 221f e2bc 40e1 7b3d
000002e0: b8e2 263c cbff d83d e122 02be 7a51 9dbb
000002f0: 19fd c8bc 3a12 1d3d cd12 a33e 23e1 edbe
00000300: 21a2 44be 6f00 3ebe e7bf dbbf 257d ecbc
00000310: c24d e3bd 4b1d be3d be0d 06be 3515 b9bc
00000320: d5ab f7bc 68ad 253e 6fc9 d4bd 92d6 0ebd
00000330: 4782 e3bc 6439 143e 061e a73c 2a82 133e
00000340: 46c6 b8bc 78fa ea3d a4fa 8a3c 5532 b83d
00000350: 3f98 623d 5a4a 29bd 5d15 343e af07 2e3e
00000360: 1984 20be a506 e9bd 9cab df3d 3511 87be
00000370: 89f1 233c 174c e53c 933f b0bb 7500 183d
00000380: a1cf 66bd cbac c13d 6851 bfbd 85de 9bbc
00000390: d055 843a 630e b03d 77b8 fd3d dd7f 103e
000003a0: 09c9 963d 8d6d da3d 1016 9f3d 54b8 ed3d
000003b0: 4189 1e3d d99b 3abd 7c8a 33bd 26a5 8f3d
000003c0: 4417 b03d f2bc 143e 21ad 83bd d795 133d
000003d0: 7a2d 013e a731 f03d f3bc 913e 63d8 cebd
000003e0: caee 44bb 6a85 a83d e900 c73d 1bc8 3e3e
000003f0: a64f cf3e 3375 d4be 53ec 0cbf 3d0f e5be
0.07871967 0.19336602 -0.45910153 -0.20409735 -0.17243713 0.07422731 -0.11175344 0.3187059
-0.43247253 0.04566352 -0.06971616 -0.15381522 0.015183786 -0.06336284 -0.057712086 -0.0984504
0.097110376 0.21619159 -0.0846143 -0.030666796 0.19645816 0.11493222 -0.16207929 0.14140013
-0.069660574 0.018267976 0.19593693 -0.13946189 -0.096746944 -0.30681494 -0.14569159 0.3125963
-0.039967366 -0.21951133 0.0053799045 -0.12141521 -0.011469229 0.27874953 -0.063280344 -0.029752564
-0.041002132 -0.6096861 0.20179474 -0.04034432 -0.11578193 -0.4194918 0.32147962 -0.086501874
-0.021624086 0.08474671 0.18863364 0.2744189 0.16397604 -0.18346088 0.04541074 0.062991664
-1.0826119 -0.12952273 -0.07561151 0.00023026404 -0.09531542 0.049442295 -0.09049813 0.21094187
-0.06872148 -0.074672 0.17450492 0.038947947 0.22657348 0.11612157 -0.14727107 -0.010160905
0.039050985 0.013777533 -0.17113829 0.02519509 0.26368585 -0.10914077 -0.0960728 0.01937498
-0.31036744 0.09652352 0.13553177 -0.40789297 0.23127536 -0.03965837 -0.166707 -0.2141597
-0.1739763 -0.22415455 0.10357514 0.078971654 0.081437215 0.13043527 -0.2250229 -0.11038539
-0.003930458 0.12836309 -0.314371 -0.057968024 0.017939854 0.1738537 -0.0021680812 -0.028644973
-0.29787433 0.040995814 -0.09525551 -0.060828365 -0.036563553 0.22696304 0.0077516404 0.38760334
-0.73861545 -0.03439451 -0.03466403 -1.4155855 -0.07317104 0.131865 0.09696153 0.12622161
0.117164604 -0.054030176 0.11791744 0.0861053 -0.21436447 -0.09486317 0.0077636954 0.015220819
-0.076355614 -0.25612542 -0.16182733 -0.073293395 -0.11065225 0.04763037 0.12607557 0.19816826
0.0333799 0.25848198 0.06362491 0.05763873 0.1650757 -0.014042922 0.17467435 0.06704543
-0.068038434 -0.18533124 0.023085207 -0.0016171661 -0.01708527 -0.13528289 -0.19778335 -0.090102196
0.057346888 0.14300548 0.5359941 -0.61965084 0.09735388 -0.891658 -0.006070924 -0.016487299
-0.080172025 -0.029010361 -0.02156069 -0.23914234 0.008120262 0.06793987 0.028759822 0.11766602
-0.21097076 -0.022267237 0.14001326 0.14663018 0.20474641 0.18876344 -0.5371626 0.115052365
-0.009939322 -0.6688021 0.14212675 0.03952032 0.0036655827 0.10297936 -0.027602736 0.061494112
0.01018589 0.10595664 -0.12708618 -0.0048009725 -0.024534749 0.03834746 0.3185028 -0.46460828
-0.19202472 -0.18554853 -1.7167939 -0.028868267 -0.110988155 0.09282931 -0.1309118 -0.02259312
-0.030233303 0.1617943 -0.10389983 -0.0348726 -0.027772082 0.14475018 0.020400058 0.14405122
-0.022555482 0.114735544 0.016965218 0.08993975 0.055320974 -0.041330673 0.17586274 0.16995119
-0.15675391 -0.113782205 0.10921404 -0.26380315 0.010006317 0.027990384 -0.0053786724 0.03710981
-0.056350354 0.09456786 -0.09341699 -0.019027004 0.0010096375 0.08596494 0.123886995 0.14111276
0.07362563 0.106654264 0.0776788 0.116074234 0.038705114 -0.045558784 -0.04383324 0.070139214
0.085981876 0.14525202 -0.06429506 0.03603157 0.12615004 0.117282204 0.2846447 -0.10099866
-0.0030049556 0.08228572 0.097169705 0.18631022 0.40490454 -0.41495666 -0.550481 -0.44738188

hidden_layers.0.bias f4 [256]
00000000: aefc 693d f299 a73d e068 22bd c9fd 25bc
00000010: ec25 9b3d 4dc8 a93d 62a9 a6bd 26fe 09be
00000020: 558f 32be 35e7 15be 8fe0 ed3d 16b4 1c3e
00000030: 55df e9bd 9ca4 57be dbea 4fbd fd45 433d
00000040: f9f5 8f3d db8a 8cbc 1f78 f2bd 9f6f 50be
00000050: fe91 1ebd 0796 a33d ccf1 263d 78d6 c5bd
00000060: e7b2 dabd 8aed ff3d 7772 933d c352 443e
00000070: 13e1 963c 49be bd3d 45f8 3e3e 50ac 9abd
00000080: bf3f a0bd 1b3f 8d3d 1186 45bd 69b0 e13d
00000090: 205e 23bd cb58 c43c 1249 c5bd 5d4b 013e
000000a0: e7eb f7bd 4c07 fabc 0de2 2f3e 424b 983d
000000b0: 6467 5fbd b1fb 8fbd 829d 02be ce21 d1bd
000000c0: d662 8bbd 5949 b5bd 9e53 f23c 5bfd 073e
000000d0: c323 bfbd 736a f5bd db6b fd3b 4467 09bd
000000e0: bc4a db3d a296 5a3c 0e7b 333e 011d 663d
000000f0: 4155 213e 918b a0bd 1def 103e 9b15 a03d
00000100: a7ac e93c f68a b4bd 34b6 77be cc21 05be
00000110: 8caa 6dbe 74ff c9bd c081 33be e78e 413e
00000120: d69c 37be 10e1 c73d 6dd6 3fbd 3678 b3bd
00000130: bba5 093e 5bf6 163c cf17 e7bd 799b bd3d
00000140: 4c61 13be 5e7b 093d ef5e 35bc 8ce0 14bd
00000150: 77a5 db3d fcb8 55bd 2568 2dbc 729a 193e
00000160: c3b9 663d c8ad 8c3d cf21 1c3e 1810 26be
00000170: 18e7 9fbd 5b9a 293e 0b45 51bd a193 47bc
00000180: bb71 80bc 5a68 45be 1f00 88bd bd21 b03d
00000190: 30be d9bd da70 37be 539a 2abe e6cb 123c
000001a0: d4ce d6bd 453c 4dbe 54c7 d03d 8675 0bbe
000001b0: e480 24be 60f3 f13d 4f61 263c b4a2 173d
000001c0: dda9 ec3d 52b3 053d 7d9f 263e b018 31be
000001d0: 96f3 02be 3958 9b3d 5b4d 07bc fda3 d9bc
000001e0: 74a9 a43c 88be 77bc 093b aabd f051 f3bc
000001f0: c5f6 5abe d5ac d4bc 05c0 973d 42e0 ea3d
00000200: 1cc1 043e a279 afbc fdcf ebbc a15a aa3d
00000210: 4ea1 7e3d 9249 42bc 8db4 5d3d c4ea 24be
00000220: bc2b 84bd ef5d 26be 8ed9 14bc cabf fdbd
00000230: 57b7 4ebd 39ea 773c 6a31 bfbc 9704 acbd
00000240: 4f57 ca3c b3d0 15be 551d 48bd 88a3 493e
00000250: 60d1 65be db7e 0c3e 2ea3 18bd d70f 27be
00000260: 3579 6abe 2995 35be c374 42bd 4239 623d
00000270: 46bd ac3c 4c56 a6bd ccfe 933e f4df e33d
00000280: 1451 673d a82b 683e 222d c13d eef9 52bd
00000290: 87e6 9cbc 7cfa 3abe 6a7f c7bd 9ccb 8cbd
000002a0: b35e cb3c e384 0fbe 3bd8 e93d 2725 12be
000002b0: 4c7e 8f3d c6d8 113e c810 8f3d 8ec1 723c
000002c0: 3b4d cb3d 3b58 1fbe 09e7 033e ddd4 b9bd
000002d0: 51f2 ef3d 6367 a8bd 855e a7bd ffef 68bd
000002e0: ee95 e6bd 3986 e33c 5902 2e3e 5a06 f73d
000002f0: 0e11 193e 4272 a43d 3c25 3ebe 0851 8a3d
00000300: 4c3c cebb 5b7e 1a3e 128c be3d 39da 9bbd
00000310: 8dcd cc3c 4933 abbd ac0a 10be 10c9 0dbb
00000320: ccdb 883d 5cf6 3e3c 120b 4ebe bd69 ccbb
00000330: 3b39 28bd 3cbc f6bd b118 213e 4736 ba3d
00000340: 4912 1c3e a172 f4bc 6bf5 4cbe dc15 12be
00000350: c060 e0bc 088f 07be 8371 1a3d e2fd 45be
00000360: d4a5 c3bd c6c2 89bc 7097 67bb 085d 39bd
00000370: 289b 97bd 6811 f8bd 78d2 eabd fd26 f43c
00000380: a83c 3abe 8776 c0bc c7e7 ae3b 85f6 963b
00000390: 5891 253e 39c4 f9bd 2388 e43d 671c 4dbc
000003a0: 54db 213d 7dc6 25bd d1e8 593c a668 36be
000003b0: 980a c6bd a14f 26bd 830e d9bd ade5 2ebd
000003c0: 10cf 443d 3d32 293e b323 f9bd 7f89 60bd
000003d0: 6bb1 efbd 06ac 523c e6b7 933d 80e3 563e
000003e0: 5b12 093e 7704 c73c c04f bdbc 492d 28be
000003f0: 86c6 b1bd 4ef6 503e 8407 c4bd e47e 5ebd
0.05712574 0.081836596 -0.039650798 -0.010131308 0.075755924 0.082901575 -0.08137776 -0.13475856
-0.1743749 -0.1463898 0.11615097 0.15303072 -0.1141955 -0.21058887 -0.050761085 0.047674168
0.070293374 -0.017156055 -0.118393175 -0.2035508 -0.038713448 0.079876 0.04075794 -0.09660047
-0.10678654 0.12496479 0.07199567 0.19172196 0.01841787 0.0926481 0.18649395 -0.07552397
-0.078246586 0.06896802 -0.04822356 0.11019976 -0.039884686 0.023968121 -0.09633078 0.12626405
-0.12105542 -0.030521058 0.17176075 0.07436229 -0.05454196 -0.07030428 -0.12755397 -0.10211526
-0.06805961 -0.088518806 0.029580887 0.13280241 -0.09332993 -0.11983194 0.0077338046 -0.033545747
0.10707614 0.013341578 0.1752741 0.056180004 0.15755178 -0.0783912 0.14153714 0.07816621
0.02852471 -0.08815567 -0.24190599 -0.13001174 -0.2320959 -0.09863177 -0.17529964 0.18902169
-0.17930922 0.09759724 -0.04683535 -0.08763163 0.13442127 0.009214009 -0.11283838 0.0925817
-0.14392585 0.033564918 -0.011069997 -0.036346957 0.10724919 -0.052178368 -0.010583912 0.15000322
0.0563295 0.06869084 0.15247272 -0.16217077 -0.078077495 0.16562788 -0.051091235 -0.012181194
-0.01567923 -0.19278088 -0.06640648 0.08600185 -0.106319785 -0.17914143 -0.16660433 0.008959746
-0.10488668 -0.20042522 0.10194269 -0.1361905 -0.16064793 0.11813998 0.010155036 0.0370204
0.11555836 0.032641716 0.16271777 -0.17294574 -0.12788233 0.075851865 -0.008258189 -0.026567454
0.020100333 -0.01512111 -0.08312041 -0.029702157 -0.21383198 -0.025961319 0.07409672 0.11468555
0.1296429 -0.021420304 -0.0287857 0.08318067 0.06216555 -0.011858361 0.054127265 -0.16105181
-0.06453654 -0.1624677 -0.009085072 -0.123900965 -0.050467815 0.015131527 -0.023338992 -0.08399313
0.024699835 -0.14630394 -0.0488561 0.19691288 -0.22443151 0.13720267 -0.037264995 -0.16314636
-0.228978 -0.17732681 -0.047474634 0.055230387 0.021086346 -0.081219286 0.28905332 0.111267
0.056473807 0.22672904 0.094324365 -0.051507883 -0.019152893 -0.18259615 -0.09741099 -0.06874773
0.02482543 -0.14015536 0.11418196 -0.14271985 0.07006511 0.14242849 0.06985623 0.014816655
0.0992684 -0.15561001 0.12881102 -0.090738036 0.1171614 -0.082228445 -0.08172325 -0.056869503
-0.112590656 0.027773963 0.16993083 0.12061758 0.14947912 0.080296054 -0.18568891 0.06753737
-0.006293809 0.15087263 0.0930406 -0.07609982 0.025000358 -0.08359391 -0.14066571 -0.0021634735
0.06682548 0.011655416 -0.2012141 -0.006238191 -0.041070204 -0.120476216 0.15732075 0.09092384
0.1524135 -0.029839816 -0.20015495 -0.14266151 -0.027389884 -0.13238156 0.03770591 -0.1933513
-0.095531136 -0.016816508 -0.0035338067 -0.045254737 -0.074026406 -0.12112695 -0.11465925 0.029803747
-0.18187201 -0.023494018 0.0053376886 0.004607024 0.16168725 -0.121956296 0.111587785 -0.012518979
0.03951581 -0.040472496 0.013300137 -0.17813358 -0.09669989 -0.040603284 -0.10598471 -0.042699505
0.048049033 0.1652307 -0.12165012 -0.054818626 -0.11703762 0.012858396 0.0721281 0.20985222
0.13385908 0.024294121 -0.023109317 -0.16423525 -0.086804435 0.20406458 -0.09571746 -0.05432023

hidden_layers.1.weight f4 [128, 256]
00000000: b2e7 813d 6d5f 79be 08dd 2f3e 4246 d9bd
00000010: c2c7 823d c94b 16bd 6c23 af3e 645a 6d3d
00000020: b14e f9bc b563 7a3d 942a 1ebc 1e0b f6bd
00000030: b0aa 28be 8384 723c 8d79 e9bd 730c 263e
00000040: 912f efbd ea70 9dbd 3d6a 0d3e 9522 e2bc
00000050: d579 d9bd cca1 e2bd ce0e 01be bd08 0cbe
00000060: d3e1 70bd aec3 133d 568a 38bd 648c cebd
00000070: 2ccf b23c 6e16 023d 265b 903d 8e0f 053e
00000080: 8ac7 8c3d efad 70be 0ecb 10be dfc9 173d
00000090: b066 e63c 0db8 d9bc b388 96bc b4d7 14bc
000000a0: 2801 b7bd d86d 8cbe d36c 1bbe d2bf 93be
000000b0: 536c 043d 94e2 edbc 707b 38bd 263c 3f3d
000000c0: 112f 19be 0e46 b33d 746a 813d 9991 bbbd
000000d0: 0fff 933d b3c6 703c 451d c7bd 0234 e6bb
000000e0: 04ce 4dbe 5ea5 a43c 19d5 adbd 700c e1bd
000000f0: 97d9 21bd eaa1 0c3b 086c d13d b9df fbbd
00000100: 31cb 5fbd 2344 9bbc 814d 68bd 6c8f 1b3c
00000110: 1d51 30bd f0ba ffbd 94ae 2ebe 85ce 803d
00000120: 667a 0dbe c141 ddbb 6fb5 50be 448b c33c
00000130: de0b c73c de2c 933d ae66 63be 32ff a63d
00000140: 22b2 453d 9fa7 66be 6d91 d43d 3310 11bc
00000150: 7073 783b 4a11 09be 5427 e8bd a9d4 973b
00000160: 4fe1 513e c53b 8a3d a7d8 92be f364 4f3e
00000170: 093c cebd 770d 263e 3083 1dbe 15ce 74be
00000180: 58ec 90bd 101b f4bd a222 d2bd 3629 a8bd
00000190: 0c3a 70be 2c4b 993d b7e0 733d 4692 79bd
000001a0: d97c ce3c ca4f 0ebe ca0c 86be 5464 c2bd
000001b0: d750 59bd be91 8a3c e61e 043c 079e e5bd
000001c0: d4e6 b4bd d700 aebc 2f3c a63d 9b93 ef3d
000001d0: 177f 843a edf8 a33e 9875 58bd 71cb d13c
000001e0: 9394 5ebd 3ea7 22bd 95c5 14be 5745 87bd
000001f0: 4815 3d3e c657 693d 1420 bd3d 7ca2 843c
00000200: aec3 e63b 2ff6 803b f119 8abe 929e f6bb
00000210: 4059 84bd f2eb 633d c1cf 3c3d 973e e3be
00000220: a478 dcbb 93b2 d0bc b83c 30be 7c3e f13d
00000230: f957 3a3e 372b a93d c7c4 813e 617a b13b
00000240: 32fb 2d3e 9005 e53d 01d6 e53d 23fc 953d
00000250: 34cf b1bd e23a f83d 6d8e d1bd 30e5 88bc
00000260: e2d2 01bd ca2b 133d a5e8 91bd 87b7 a3bd
00000270: 9142 6dbd b36b 4ebd 9ed1 eb3c e7d7 43bd
00000280: 956c 1c3c fc15 fe3d 89a9 783e 21c8 0dbd
00000290: de67 bfbd db9a dcbc 4447 413e e85f 4cbe
000002a0: d37f fcbd 7ad0 8f3d e16d a2bc a2d0 2ebe
000002b0: 0e3b 763e bd64 18be 453a 68bd b1d3 713d
000002c0: 44b3 e53d 280e 793e 7a79 9e3c ff6b 6139
000002d0: 4335 ee3d d5ca 4cbe 1eb8 35bd d348 13be
000002e0: b4fc 803d c98a 303e 08e0 50bd 5027 2abe
000002f0: 9d45 cabd 84dd 353e bdf8 07bd ce67 5a3e
00000300: 74e5 fc3c a5bb 2b3e 087a 203d 5cb6 79bd
00000310: 9708 643b 3ee3 093e 5388 1b3e 6458 36bd
00000320: 5c4d 4ebd 22f1 efbd 2b50 103e 0d7c 69be
00000330: 879a 26be 00a3 4e3d 1b26 bcbd 7904 20be
00000340: 4005 e93c 0365 95bd bb4f 0dbd 88b8 2abd
00000350: 5c3a 8fbb d587 5d3e c650 d23d 1487 c23d
00000360: acaf 203d 1347 fabc 194d b4be 1a3d 8b3e
00000370: 3cd3 2ebe 0330 56bc 2c2e ec3d 7453 66be
00000380: 632f 00be 0f70 d53d 6bbb 21be 7a01 02be
00000390: 059e 3e3d 83ec 003d b47c 0f3b 3307 91bd
000003a0: 27d0 01bd e8ee b9bd 676f b3bc 9974 8a3b
000003b0: 4118 213d 120d e73d 5e1c 0abe 473b 033e
000003c0: 2fae b33c 4261 1dbe 3334 aebd 0e55 34be
000003d0: 7008 fe3c ac45 b0bd a851 1a3d dc17 aebd
000003e0: f0f5 3bbd 81dc afbd 6878 e2bd 8e29 d1bd
000003f0: eaa6 e33c 5e20 e13b 4346 94bc f770 403d
0.063430205 -0.24352808 0.1717416 -0.10609104 0.06385757 -0.036693368 0.34206712 0.05794753
-0.03043303 0.061130244 -0.009653706 -0.12013839 -0.16471362 0.014802101 -0.11400137 0.16215687
-0.116789944 -0.07687552 0.13810058 -0.02760438 -0.10618941 -0.110660166 -0.12603304 -0.13675208
-0.058809113 0.036075287 -0.045053802 -0.10085371 0.021827303 0.031759672 0.07048635 0.12994215
0.068739966 -0.2350385 -0.14139959 0.037057754 0.028125137 -0.02657702 -0.01837573 -0.009084631
-0.089357674 -0.27427554 -0.15178232 -0.28857285 0.03232987 -0.029038705 -0.045039594 0.04668822
-0.1495936 0.08753596 0.063191324 -0.0915863 0.07226383 0.014695811 -0.097223796 -0.007025243
-0.2009812 0.020098384 -0.08487911 -0.109887004 -0.03951415 0.0021458813 0.102256835 -0.12298531
-0.054637138 -0.018953389 -0.05671454 0.009494644 -0.043046106 -0.124868274 -0.17058784 0.062893905
-0.13816223 -0.0067522232 -0.20381711 0.023870118 0.02429765 0.07186292 -0.22207138 0.081541434
0.048265584 -0.2252488 0.103793 -0.00885396 0.0037910603 -0.13385502 -0.11335626 0.0046335054
0.20496105 0.067496814 -0.28680918 0.20253353 -0.100700445 0.16216074 -0.15382075 -0.23906739
-0.07076329 -0.11919224 -0.10260512 -0.08210985 -0.23459643 0.07485041 0.059540477 -0.060930513
0.025206016 -0.13897625 -0.26181632 -0.09491792 -0.05305561 0.016915198 0.008064007 -0.11211782
-0.088330895 -0.021240635 0.08116948 0.116980754 0.0010108677 0.32025853 -0.05284652 0.025609704
-0.05434091 -0.039710276 -0.14528497 -0.066050224 0.1846515 0.056968473 0.09234634 0.01619076
0.00704237 0.0039355974 -0.26972917 -0.0075262273 -0.064623356 0.055644937 0.046096567 -0.4438369
-0.0067282487 -0.025475776 -0.17210662 0.11779496 0.18197621 0.08260196 0.25345442 0.0054162
0.16990355 0.111827016 0.11222459 0.07323482 -0.08682099 0.12120606 -0.10232244 -0.016710848
-0.031695254 0.035930432 -0.071244515 -0.079939894 -0.05792481 -0.05039568 0.028786477 -0.047813322
0.009547372 0.12406537 0.24283423 -0.034614686 -0.09345983 -0.02692931 0.18874842 -0.1995846
-0.12329068 0.070221856 -0.019827785 -0.17071775 0.24045965 -0.14882179 -0.056696195 0.059039775
0.11215833 0.24321806 0.019345034 0.00021497904 0.116312526 -0.1999925 -0.04436504 -0.14383249
0.06298199 0.17240442 -0.050994903 -0.16616559 -0.09876559 0.17760283 -0.0331962 0.21328661
0.03087113 0.167708 0.039178878 -0.060964927 0.003479516 0.13465592 0.15188722 -0.04451789
-0.050366744 -0.11715914 0.14093082 -0.22801228 -0.16269885 0.050448418 -0.091869555 -0.15626706
0.028444886 -0.07294657 -0.034499865 -0.04167989 -0.0043709707 0.21633847 0.102693126 0.0949842
0.039230034 -0.030551469 -0.3521507 0.27195054 -0.17072767 -0.01307297 0.11532244 -0.22492772
-0.12518077 0.10421764 -0.1579415 -0.12695876 0.046537418 0.031475555 0.0021894397 -0.07081451
-0.03169265 -0.09078771 -0.021903707 0.0042253253 0.03932977 0.1128179 -0.13487384 0.12815581
0.021933643 -0.15369132 -0.0850605 -0.17610571 0.031009883 -0.08607039 0.03767553 -0.085006446
-0.04588884 -0.0858698 -0.11058122 -0.10213004 0.027789552 0.0068703135 -0.01809991 0.04698273

hidden_layers.1.bias f4 [128]
00000000: 7233 c63c 25a5 6cba 9cbb cdbd 86db 243e
00000010: 9f2c c6bd 4612 65bd 686b eeb8 f24b 5fbd
00000020: 31c6 1c3b 3294 0abe a38c 40be d630 c8bd
00000030: e125 4abe d421 d73c 4de6 3ebd 0719 03bd
00000040: 071f 4fbd 5fc2 3cbd cc8f 7cbd 5f70 a1bd
00000050: 0f57 953c ade8 ae3b 97da a93c fb7a f3bd
00000060: 0a1c 82bc a8c4 06bd 2b9f ec3d 854e c1bd
00000070: b7b0 2bbd 522c 5b3d 7414 e2bd 7f31 d5bd
00000080: c1be 9ebb d275 a8bd 3385 50bd 33fd cebd
00000090: 0eb8 f8bc aa18 7bbd ebe2 3fbd ec73 143d
000000a0: 3ac6 9dbd 2a7a 55bd 2a3a 42bc 2150 d239
000000b0: 0886 34bd 95ba 9abd d4fa ecbc 1474 07bd
000000c0: bc87 553c 4af0 c53b 9b20 d8bd bc84 babd
000000d0: 4b7c 07bc 1bbe efbc 4d61 903c 706d edbc
000000e0: 0711 843b 938e 17be 40be 67bd a286 033e
000000f0: 0cc6 253c a20a f2bd baf6 e0bc 7eb9 b6bc
00000100: 5230 b8bd ceb1 173e 98ad 1abd fa46 943d
00000110: 0a42 f53b 3a54 c5bb c121 39bd 3262 25be
00000120: 43e5 27bd 6bdd 21bc 5cfc bebd cc47 89bc
00000130: b21c 8bbd 87ce 11be b72d 21be a2fd 233b
00000140: 2fed 8abd 84a0 c6bd 1049 35bc 8f83 8cbd
00000150: 3c93 6c3e 5c7f 20bd 6576 86bc a657 2cbd
00000160: a8ca 92bd 86f0 913d 9f8e 643e 80f3 223e
00000170: aee7 ec3a 1dd1 793c 66d4 9bbb 5dc6 86bd
00000180: 0469 cbbb 29ce 83bd 09cb 8ebc dc5f 01be
00000190: 190b 1cbe 79cd 0ebb 9b6e 8bbd bac8 c73c
000001a0: 618f 2ebc 4b41 fb3c de5d 85bd 294d 213d
000001b0: b827 d7bc 72a1 013e dde4 183c c9ff 49bc
000001c0: 39f0 103f 85fc 21bd 0623 8bbc 4d63 06be
000001d0: 896f e4b8 6271 0dbe 173a 5e3c 0ef8 e0bd
000001e0: e662 50bd 5955 993c 31df 9abd 3283 0ebe
000001f0: 3c01 c33d dc97 5abd ebaa 6bbd 2cf2 88bb
0.024194453 -0.0009027294 -0.10045549 0.16099367 -0.096764795 -0.05592563 -0.0001136873 -0.054515786
0.0023921842 -0.13533095 -0.18803649 -0.0977494 -0.19741012 0.026261248 -0.04660635 -0.03200629
-0.0505667 -0.046083804 -0.061660573 -0.07882761 0.01822999 0.0053377957 0.020734115 -0.11888691
-0.01588251 -0.03290239 0.115537964 -0.094388045 -0.041916575 0.053509064 -0.110390574 -0.10409831
-0.004844517 -0.082255974 -0.05090828 -0.10106888 -0.030361202 -0.06130282 -0.046847265 0.036243364
-0.07703824 -0.052118458 -0.011854688 0.00040114022 -0.044073135 -0.07555119 -0.028928198 -0.033069685
0.01303285 0.0060406076 -0.10553094 -0.09107348 -0.00826938 -0.029265454 0.017624522 -0.028982848
0.00403035 -0.14800481 -0.05657792 0.12844327 0.010118019 -0.11818434 -0.027461398 -0.022305246
-0.08993591 0.14813921 -0.03776321 0.072401 0.007484679 -0.0060220035 -0.045198206 -0.1615074
-0.040990125 -0.00987945 -0.093254775 -0.016757868 -0.067925826 -0.1423894 -0.15740095 0.0025023003
-0.067835204 -0.09698585 -0.011064783 -0.0686103 0.2310304 -0.03918396 -0.016413877 -0.042075776
-0.0716756 0.07125954 0.2232003 0.159132 0.0018074417 0.01524761 -0.0047555445 -0.065808035
-0.006207587 -0.06435806 -0.0174308 -0.12634224 -0.15238608 -0.0021789952 -0.06808206 0.024387706
-0.010654301 0.030670783 -0.06512044 0.039380226 -0.026264057 0.12659243 0.009331909 -0.01232905
0.5661655 -0.039547462 -0.016984474 -0.13123818 -0.00010892662 -0.13812783 0.013563654 -0.10984813
-0.050875567 0.018717455 -0.07562102 -0.13917235 0.0952172 -0.05336748 -0.057536047 -0.0041792598

output.weight f4 [4, 128]
00000000: fe01 063e 90cd 0ebd 7684 dd39 be56 263e
00000010: 6e18 763b 574b 81bb b5f6 4d3e b66d 3fbc
00000020: 133a 3ebe 078c 4dbe 0781 1abf 7c66 80bd
00000030: be0e c4bd 02f2 40bc 260f edbd e809 c63e
00000040: ffbe ab3c 3507 0abe 1ac4 df3c ae1c ae3d
00000050: 526b 78be ad2f 923c 750b 573e e969 2dbe
00000060: b356 5f3d a9eb bb3c fdff 993d b79b 21bc
00000070: beb2 4b3d d835 95bc 40bc 84bd a3db 34bf
00000080: 4e4f 253d 45fd 24bf bc8c 9f3e 2904 563f
00000090: c2a0 873d 448b 29bd 57b4 ccbe 8060 ba3e
000000a0: ced5 d7bc a6fb 813d 94ae d63d 3769 7abd
000000b0: 2945 1e3d dc43 073d 85cf c2be b744 713d
000000c0: 48f3 0a3e 6ca7 0fbf 86de 623d 7d96 e9be
000000d0: 81a2 d43e cc21 a43d bfdc 21be d0dd 04bc
000000e0: 9f74 34bf b692 733c 4245 61bd 9ea0 223e
000000f0: 0461 6e3e 144f 26be ce9f 9abd 2230 f53d
00000100: ef00 acbd 9751 eaba d4eb c3be f73a 833c
00000110: dd3d bd3e 1eb1 613e cacc acbd 70ad edbd
00000120: 8fb3 393c dc5b d73b 226e e0be 88cc 183e
00000130: cdd2 323d 7412 13be 2c26 67bf bbd9 54bf
00000140: ad91 213e 4e0e f8bc 34a2 253d bc0b f9b7
00000150: b8e3 293e 0315 923d af7f 1c3d fbbb ddbe
00000160: 266a 873d e6b6 af3c 506d d93d c75b 2d3e
00000170: 954a ae3c fc01 8abe 554a e23c 8cf8 c63b
00000180: a37b 93be b42f dfbc dac0 373c 4ce1 b2be
00000190: 07ea 0dbe 66ba 393e adf8 5a3c be4a c23d
000001a0: 2c4c b6ba ce61 703d 2668 763e cd7a 18bf
000001b0: 8e09 a93e afdd 2d3d e0ec c2be 8d44 23bf
000001c0: 23ee 2e3e 53b8 66be 3515 383e 1bed 6d3d
000001d0: db24 743d 9b14 ca3e 50bd af3e e141 c33b
000001e0: 7cef 4e3d 9503 37bc 6d11 1d3d 961b bebc
000001f0: 7fb7 da3d a029 35be 13d0 d63d d62f 47be
00000200: dcf7 c83d 0677 423f 5ead a4be 214a c93d
00000210: cb7b 62be 4e9d 313b 26f5 a9bd 7e3b eb3e
00000220: 3ef9 ff3d 28ec 00bf 11c2 d4be 99df 943c
00000230: 3d94 fdbd f689 7d3d 49e0 bc3e ec16 b63e
00000240: 318a 093d 639e 0ebd e183 22bf b075 adbd
00000250: b58a 0ebf c9ab 333e d663 263e 8a75 2bbe
00000260: 92b7 c33d a8a3 c23d d2db 913d 8263 84bf
00000270: 1495 e23c 4bea 1d3d 26e4 f63e 574a 85bd
00000280: 888f 0e3d 5947 c23d 4295 53bf 346e 2bbe
00000290: b6cc 97bd c8e2 4bbd 2c4e ee3e 04b2 863e
000002a0: 8012 34bd db4a 373e 7fa9 403e 59ad 603e
000002b0: c001 2e3e e866 b0bc 9555 07bd da51 cd3c
000002c0: 9f20 493e 8e97 37bc 5ef6 89be dfab f3bd
000002d0: 0cf8 833e 8acd a83d 86f0 acbd 725c 2b3e
000002e0: 90ca e63e d4d8 00be ac2a 4bbd 00e1 083e
000002f0: c0c7 283e be91 65bd 2186 d6bd 9cd6 6d3e
00000300: 7816 bfbe 566a 8c3d 3f43 273e 4201 843d
00000310: e790 a53e d5a8 c83e cd80 dd3d 8eac 95bd
00000320: e5e1 ec3e c5c6 d4be bf3f 51bf 1fc6 e23d
00000330: 00c4 5d3e c415 1ebe 4f55 01bd 560b 2bbe
00000340: 74c0 113d 0483 be3e 89bd bf3c 092a 9c3d
00000350: 7320 623d 5942 103f 2fd4 f9be 5af2 cabd
00000360: 1708 8dbe ac70 943d ecda 773d 5e40 093e
00000370: f546 c93d 4979 01bf aed9 31be 7456 083f
00000380: 5f8c c33d 0a00 333f 8fd1 953e ed4d 773e
00000390: a27c 77be 3352 b73d be82 853e d4f3 e3be
000003a0: aed7 19bf 1275 003e 2d73 e43e 051e 543d
000003b0: 2d96 d63e 4d9b d53d bca1 abbd 938c 303d
000003c0: a98c 2a3e b1d7 7ebc 5fad 573e c1d5 8d3e
000003d0: 68ef be3d c5c1 473e 825c ca3e 155b 21be
000003e0: 47b9 a6be 0388 e03c 9543 4abe 464c 28be
000003f0: ed86 fc3d 8908 433e cf42 1c3e cbe4 35be
0.13086697 -0.03486401 0.00042251096 0.16244027 0.0037551182 -0.003945749 0.20113643 -0.011683872
-0.18576841 -0.20072947 -0.6035313 -0.06269547 -0.09573124 -0.011776449 -0.11575155 0.38679433
0.020965097 -0.13479312 0.027315188 0.08501564 -0.2425969 0.017845 0.21000464 -0.16934933
0.054526042 0.02293952 0.07519529 -0.0098637855 0.04973101 -0.018214151 -0.06481218 -0.7064764
0.040358834 -0.6444896 0.3116206 0.836001 0.06622459 -0.04139258 -0.39981338 0.3640175
-0.026347067 0.06346826 0.10482517 -0.061135497 0.038640175 0.0330237 -0.3804895 0.058903422
0.13569367 -0.5611484 0.055387996 -0.45622626 0.4153023 0.08014259 -0.15806864 -0.008109525
-0.7049045 0.014866522 -0.05499769 0.15881583 0.23279196 -0.16241103 -0.075500116 0.11972071
-0.083986156 -0.0017877099 -0.3826586 0.016019328 0.3696126 0.22040221 -0.08437498 -0.11605346
0.011334314 0.00657223 -0.43834025 0.14921772 0.043658067 -0.14362508 -0.9029262 -0.8314473
0.15778227 -0.030280259 0.040437892 -2.9688577e-05 0.16590774 0.07132914 0.038207706 -0.4330748
0.06612043 0.021449517 0.10616553 0.16929542 0.021275798 -0.2695464 0.027623335 0.0060721096
-0.28805265 -0.027244426 0.011215413 -0.34937513 -0.13858806 0.18137512 0.013364953 0.09486912
-0.0013908199 0.058687024 0.24063167 -0.5956238 0.33015102 0.042447742 -0.38071346 -0.63776475
0.1708303 -0.22531252 0.1797684 0.05808745 0.05960546 0.39468846 0.3432412 0.005958781
0.05052136 -0.011170288 0.038346697 -0.023206513 0.1067953 -0.1769166 0.10488906 -0.19451842
0.098129004 0.75962865 -0.3216352 0.09828592 -0.22117536 0.0027101818 -0.082987115 0.45943826
0.12498711 -0.50360346 -0.4155431 0.018173026 -0.1238179 0.061899148 0.36889866 0.35564363
0.033579055 -0.034819018 -0.6348248 -0.08469713 -0.556804 0.17546 0.16249022 -0.16744056
0.09556498 0.09503871 0.071220055 -1.0342867 0.027658977 0.038553517 0.48220938 -0.0650832
0.03480485 0.09486265 -0.82649624 -0.16741258 -0.074120924 -0.049776822 0.46544015 0.2630769
-0.043962955 0.17899649 0.18814658 0.21941127 0.16992855 -0.021533445 -0.0330406 0.025063444
0.1964135 -0.011205567 -0.26945776 -0.11898016 0.25775182 0.082423285 -0.08444314 0.16734484
0.45076418 -0.12582713 -0.049601242 0.1336708 0.16482449 -0.056047194 -0.10474802 0.23226398
-0.3732183 0.068562195 0.16334246 0.064455524 0.32337114 0.3919131 0.108155824 -0.07308303
0.46266094 -0.415579 -0.81737894 0.11072945 0.216568 -0.1543799 -0.031575497 -0.16703543
0.03558393 0.37209332 0.023405807 0.07625205 0.055206727 0.5635124 -0.48794696 -0.09909506
-0.27545235 0.07248053 0.060511515 0.1340346 0.09827987 -0.5057569 -0.17368194 0.53256917
0.09548258 0.69921935 0.29261443 0.2415082 -0.24168637 0.08951225 0.2607631 -0.44521964
-0.60094726 0.12544659 0.44619122 0.05178644 0.4191145 0.10430012 -0.08380458 0.043102812
0.1665522 -0.0155543545 0.2106223 0.27702144 0.09323007 0.19507511 0.39523703 -0.15757401
-0.3256323 0.027408605 -0.19752343 -0.16435346 0.123304226 0.19046225 0.1525986 -0.17763059

output.bias f4 [4]
00000000: 61f3 b73e 420d a43e 7cdd ab3e e404 8f3e
0.3592787 0.32041365 0.33567417 0.2793342
