p1_navigation/ddqn.pth (torch_old, 28526 bytes, 6 tensors)

hidden_layers.0.weight f4 [64, 37]
00000000: 9276 973c 10b2 68bc ebc3 8abd 8a09 86bd
00000010: adcd 81bc a586 2f3d deff fcbd 42f3 e33d
00000020: 4296 8d3d 42ce 773c 68a9 0c3e 8d35 3cbe
00000030: da69 a9be 847a f3be 4f8d 67bf 91a2 3bbe
00000040: 9b7d 603d 0fd8 f33d 9efc 8b3c b135 eb3a
00000050: 72a3 063e d44f a93d 2ed1 bdbd f440 923d
00000060: cdb2 c0be 4fb8 efbd 3010 213e 1896 55be
00000070: a955 033d bbdc 1b3e 46f2 85bd d13b d3bb
00000080: 97b1 42bd 0db3 82bd d6cf 23bd e841 19be
00000090: 0b2b c4bd 0948 f53d 37ba 3f3e 0b21 633d
000000a0: 4536 c33d 2f53 a13c a274 2c3e 641b 2abe
000000b0: 62e7 6abe cfb4 94be 335f 5fbf 1479 b13c
000000c0: fbc3 1c3d c8b1 f03a c8b3 233e 3a35 613e
000000d0: 9d2a a83d 9893 aa3d ddd9 693c 87c6 103d
000000e0: 4dd7 783e 33f0 7dbd 27f2 3ebd 6908 1dbe
000000f0: add5 a43d 9ccf 353e edec 5e3d 3d9a 2b3d
00000100: 5f8c c3bd 3ef5 9c3d 4556 78be d58b 02bc
00000110: 5a34 1c3e 8e64 263e d584 4f3d 0ca4 bc3d
00000120: da6c 243d 8885 833c 97fa 243e 214f 613d
00000130: effb 2d3d 3275 cc3c fa89 15bd 89a3 afbe
00000140: 4acb 3cbe 2b0b b13e 0527 193c f7ab 19bf
00000150: a6e2 aa3c 9577 44bd ab4f aa3d 85ff 4fbe
00000160: 102c 14be eaee a0bc 4eff f03d b70b e0bd
00000170: 91cd bb3d 9f57 fa3c fe45 8abe c728 41bd
00000180: 8bec 363e 972f 3ebe 075e 9abe 1526 723d
00000190: 207f 5f3e 936d 973d e3b4 b1be 9fbe e8bd
000001a0: 9f9a acbe b8e3 d33d cb7c abbd 355b 58be
000001b0: 478c 1ebe 9281 4e3d b8d2 32bd 0610 0abc
000001c0: 7f57 4f3d de07 563a 364a 5d3e be7e f63c
000001d0: 0143 12be fa5d 783d f45f 493d b0da ef3d
000001e0: 42e7 643e 4a59 0abe 6362 edbc 5500 923d
000001f0: a56d 013e dedc 193e bee3 09be 5a4b f5bc
00000200: 7480 d23c 0966 c8bd fe14 443d 7399 d1bc
00000210: 5c12 b43c 4d82 4e3c bff6 803d d32e abbd
00000220: b091 16bd 67aa 71bd 8175 933c e786 5b3e
00000230: bae5 f83d 6eb2 aa3e 7601 36bb eeb3 69be
00000240: a57e bdbe 79dc 7cbf 6c41 533d 7717 57bb
00000250: f9b5 bbbc 6062 7cbe bdd7 b2bd 4176 8abd
00000260: 1912 c5bd 98eb 693e dc17 6f3e 9ce6 f7be
00000270: 8ccf 673d ed3c 0cbf 8d5d aebc ce20 babc
00000280: d1a1 84bd 3155 073d 7b17 21be b365 eebd
00000290: 819c 29be 393f 4a3d 2aae b3bc b538 893d
000002a0: 0f7a bebd d5fa 30be 3c7a df3d 93dc 163e
000002b0: 6cd2 a53e 736f 063e c61d 1bbe bae9 643d
000002c0: 3e8c 1b3d 4245 5b3e c4bd 943d 8e9d a7bc
000002d0: e7d1 b3bb d2f8 763d 5e92 943e 026d 813c
000002e0: 862e 8a3c 6806 fc3c 4083 a2bc 0460 c83b
000002f0: ce27 873c 8261 2fbc d86a a23e 8036 09bf
00000300: aa70 d5be 6643 66be a5c6 b5bf c20e 9bbd
00000310: c103 84bc c3b7 8b3d 1da3 0dbe 49e7 cd3d
00000320: afc2 4e3b c0ec 6e3d e1d0 24bd bd91 dcbd
00000330: 10e4 c7bd a13a ba3d 14bc 053d 8379 323e
00000340: 4f9e ec3d afd3 c83c a1fb c03d 2633 4cbc
00000350: 6eb0 40bd 559c d9bd e8b9 b23b 94c8 0b3c
00000360: 97b9 5fbd dc24 013c ac94 a53d 7c27 70be
00000370: d9e1 4b3b 38fc 2e3d db55 1c3e 047f 9cbe
00000380: 4349 02be 09f9 0abe 1b68 95bf 2a82 55be
00000390: 853a de3b 1a18 743d 5eef abbc 908d da3b
000003a0: f61a 053e 204e 343e 0d7e ed3d 06ff f6be
000003b0: f36c 9f3e 9b34 b0bd b390 b73c 2c09 75be
000003c0: c5d8 093e 7ae4 953d 680f 16be 7822 5bbd
000003d0: cf89 913c 801c 8a3d 4df9 813e 92b8 04be
000003e0: 18e9 093d 1313 37bd 8b92 39bd b1f0 273e
000003f0: 9fbf 123d fde0 8e3c 1d0a 80bb 90d9 6fbe
0.018489156 -0.01420261 -0.0677565 -0.06544788 -0.015845144 0.042853016 -0.1235349 0.11130382
0.06913425 0.015124859 0.13736498 -0.18379803 -0.3308857 -0.4755441 -0.90449995 -0.18323733
0.054807287 0.11906444 0.01708823 0.0017945078 0.13148287 0.08267179 -0.092684135 0.07141295
-0.37636414 -0.11705076 0.15728831 -0.20858037 0.032064114 0.1522092 -0.065403506 -0.0064463397
-0.047532644 -0.063818075 -0.03999313 -0.14966547 -0.09578522 0.1197663 0.18723379 0.055451434
0.095318355 0.019692985 0.16841367 -0.16612011 -0.22939828 -0.29044196 -0.8725464 0.02166418
0.03827284 0.001836353 0.1598655 0.2199296 0.08211253 0.083289325 0.014273134 0.03534558
0.2430088 -0.06199665 -0.046617653 -0.1533524 0.08048568 0.17754978 0.05442517 0.04189514
-0.09548258 0.07663964 -0.24251659 -0.007967909 0.15254346 0.16249296 0.050663788 0.09210977
0.04014287 0.016054884 0.16111217 0.055007104 0.04247659 0.024958227 -0.036508538 -0.34304455
-0.18436924 0.34578833 0.009347682 -0.6002802 0.020860028 -0.047965605 0.08315977 -0.20312317
-0.14469934 -0.019645173 0.117674455 -0.109397344 0.09170068 0.03055936 -0.27006525 -0.04715803
0.17863671 -0.18572842 -0.30149862 0.05911835 0.21825838 0.073939465 -0.34708318 -0.11364483
-0.33711717 0.10346168 -0.08373412 -0.21128543 -0.15483199 0.050416537 -0.04365799 -0.008426672
0.050620552 0.00081646245 0.2161034 0.030089732 -0.14283372 0.060636498 0.049163774 0.11711633
0.22353843 -0.13510624 -0.028977579 0.071289696 0.12639482 0.1502566 -0.13465783 -0.029943157
0.025696017 -0.09785087 0.047871582 -0.025585866 0.02198141 0.012604308 0.06297063 -0.083585404
-0.036760032 -0.0590004 0.018000366 0.2143818 0.12153192 0.33339256 -0.0027771867 -0.22822544
-0.37010685 -0.98773915 0.051576063 -0.0032820383 -0.02291392 -0.24646902 -0.08732555 -0.067608364
-0.096225925 0.22843778 0.23348945 -0.48418128 0.056594416 -0.54780465 -0.021284843 -0.02272072
-0.064761765 0.03304023 -0.15731613 -0.11640491 -0.16563608 0.0493767 -0.021933634 0.06700269
-0.093006246 -0.17283185 0.10911986 0.1473258 0.32387102 0.13128452 -0.15148076 0.05588696
0.037975542 0.21413139 0.072627574 -0.02046087 -0.005487669 0.060295887 0.2901792 0.01579905
0.016867887 0.030764773 -0.019837976 0.0061149616 0.016498473 -0.0107044 0.3172214 -0.53598785
-0.41687518 -0.22486648 -1.4201247 -0.07571174 -0.016115071 0.06822159 -0.13831754 0.1005388
0.0031549146 0.05833125 -0.040238265 -0.10769985 -0.09760296 0.09093214 0.03265007 0.17429166
0.115536325 0.024515001 0.094229944 -0.012463367 -0.047043256 -0.10625521 0.0054542907 0.008531708
-0.05462035 0.007882323 0.080849975 -0.23452562 0.0031109957 0.042721003 0.15267126 -0.30565655
-0.1272326 -0.13571562 -1.1672395 -0.20850435 0.0067818784 0.059593298 -0.020988163 0.0066697076
0.12998566 0.17607927 0.11596308 -0.48241442 0.3113781 -0.08603784 0.022407865 -0.2392928
0.13461597 0.07318969 -0.14654315 -0.05349967 0.017765908 0.06743717 0.25385514 -0.12961033
0.03366956 -0.044695925 -0.04530577 0.1640041 0.035827275 0.017441267 -0.0039074556 -0.23422837

hidden_layers.0.bias f4 [64]
00000000: e61b 093e 6ca0 e7bb 0777 17be b72d bbbd
00000010: fbe0 143e be62 0abb f617 67bd a058 ab3d
00000020: 87c0 353b 3d9b 55be 3c0c 263e 7e3e 0c3e
00000030: 8f6f 183e a26f 1a3d d83b 5dbd fd73 70bd
00000040: 4055 c03d 4b2b 983c 0803 c13b 3b9f 79be
00000050: c7f5 d2bd 24c1 083d cfec 383d 1e08 b5bd
00000060: 88a5 24be 79d3 4e3e 6d3f be3b c3db 4bbe
00000070: 7e26 ed3d 3097 de3d f616 52bd 0b67 54be
00000080: 188c 083e 71b4 9a3c ce14 15be eb1d cc3d
00000090: a158 c4bd f8c0 373d ca46 5dbd d5ea cfbd
000000a0: 0c73 70bc a033 09bd dacf 07bd f787 1e3e
000000b0: dbae 83bb 5dcd 93bd 8853 a4bb 3517 92bd
000000c0: a0a7 05be 4b19 5b3b b9ac e7bd 01d1 053d
000000d0: 36af 7dbd 7349 44be 8043 39be 9ce4 503d
000000e0: b574 d1bc aa1f ffbc 7cc8 32be 1736 bebd
000000f0: e7f0 163c a6bb 963d 028e 373c 23d0 9bbd
0.13389549 -0.0070686843 -0.14791499 -0.09139579 0.14538948 -0.0021115984 -0.056419335 0.08366513
0.0027733163 -0.2086 0.16215605 0.13695714 0.14886306 0.037704118 -0.05401215 -0.058704365
0.0939126 0.018575331 0.005890254 -0.24377148 -0.103007846 0.03338732 0.045147713 -0.08839439
-0.1607877 0.20197858 0.005805901 -0.19908051 0.115796074 0.108686805 -0.05129143 -0.20742433
0.13334692 0.01888487 -0.14558718 0.09966644 -0.09587217 0.044861764 -0.054022588 -0.101522125
-0.014675867 -0.0334965 -0.033157207 0.15481554 -0.004018647 -0.07216904 -0.0050148405 -0.07133333
-0.13052225 0.0033431824 -0.11312241 0.032670025 -0.061934672 -0.19168644 -0.18092155 0.05099927
-0.025568346 -0.031143028 -0.17459291 -0.092876606 0.009212709 0.0736001 0.011203291 -0.07608058

hidden_layers.1.weight f4 [64, 64]
00000000: f094 9fbe 9808 fc3c 9e5b 833d 84ad db3d
00000010: 18b8 88be db3a 9bbe c86b f63c c8f9 8abd
00000020: c614 1b3e 2a3b 40be 04ed 20be 9402 843d
00000030: ee65 21be 114f ef3d b9a6 843c cbff 973c
00000040: c806 33be ba7c c5bd 8f47 833d 21e3 273e
00000050: 5650 55bd 527e b3bd 101f 833d b067 05be
00000060: 3af6 a43d d574 81be 3ed2 903e b284 a0bb
00000070: 3a70 533e b913 1ebe 6425 05bc 6a33 8abc
00000080: 2ed5 5d3e 290c 7bbe 5300 aabd 104f 523c
00000090: 0140 ebbd 34ba 063d 1309 213e d3f4 93be
000000a0: 59f4 3dbe 59b5 a4bc a776 45bd b3d2 0fbe
000000b0: d53a 973d cd77 04be 73c7 94be dc7b 7d3e
000000c0: 749e ce3c 36a6 09be 599f 3a3e 2224 a83c
000000d0: e980 07be 60e9 73be 6cef 6dbe 1282 a73c
000000e0: f825 da3d 8ebe c43d e7aa 20be 9bbc 3e3e
000000f0: 6bfd 8fbd 8b1c c53d dd65 9bbe a055 d0be
00000100: acef 42be 9f58 0b3e 516e 03bd 86b3 c4bd
00000110: 5fe2 e53d 4de2 393e 0fc8 d0bd 1607 19bd
00000120: c457 11bd 62a0 50bd ae7a 16be 2acd 303e
00000130: d102 abbd 8f61 003d d807 8e3b bce6 2d3d
00000140: b634 ee3d bb68 4c3d 16b9 853d d433 413d
00000150: 3a29 7a3d a1ea cd3a b3b6 523e 5a66 8dbd
00000160: 7fb3 f13c ae89 313e 2247 11be 52b7 56be
00000170: 3a3c aebd 9284 d9bd f4b5 b03d 5872 1dbd
00000180: 5615 babd f75b fcbb 5eb0 afbd 4493 21bd
00000190: a09f d2bd 2d11 8a3d 13c7 05bd 23a4 efbd
000001a0: b5e3 a9b9 27e1 a03d 5754 a13d 0a20 58bd
000001b0: 94a2 82bd f4f5 cdbd 04c3 1ebe 434f 7e3d
000001c0: adb0 c2bd 0795 61be bce5 823d 3031 c83d
000001d0: 4055 d9bd b3fe c9bd dde1 68bb 674f 1ebc
000001e0: 993b 58bd ce3b c63d 5867 f93d 1256 bcbd
000001f0: d364 e7bd b9ba ac3e 4195 9fbd fdc9 bbbd
00000200: 0077 81bd 75e0 60be a0b3 cb3d 1f96 7f3e
00000210: a9f6 8cbd 6581 89be a079 96bd 2c70 283c
00000220: 4ca7 3c3e 80b8 bbbd f1dd 683e 9445 9abe
00000230: e756 f83d 008c a0bc 49be 53bd e6ed 90bc
00000240: 1426 f7bd 7885 543e 1518 123b c939 74bd
00000250: 4f15 02be 9091 933d 9ecc 0ebe fbae 133e
00000260: 47db 3fbd 7a3a c6bd dfd8 e73e d078 78bd
00000270: ebd7 b13d e3ff af3c abc8 2ebe abc0 1cbd
00000280: d416 ee3c d1d1 0f3c bbfb bebd b241 9b3d
00000290: f2f2 043e d43c f03e b66f 073e 813e 123e
000002a0: 9476 5d3e a8ef 44bd 190e abbe d761 b4bc
000002b0: 5822 56bd 8ef0 a43c e301 373d cc1f adbd
000002c0: 8f69 bebb 1da2 ecbd 0da3 4dbe 3827 3ebd
000002d0: 84bc 9ebe 76f8 30be e129 0bbe e003 013e
000002e0: 7031 0ebe 0ee1 62be 9c20 07be 2654 4d3d
000002f0: 8372 3c3d 6ba9 aebe c844 e43c 4cbe e6bd
00000300: 6ab1 2fbc 2a6c 47bd 6020 d53d ef3a 09be
00000310: b230 34bc 4087 543d 3526 963b 668c 9cbc
00000320: bd78 563d 9e46 d73c 8603 18be 34cd 623e
00000330: 4476 8bbd f79d 423c 4532 3bbd 5f70 33bd
00000340: 4083 d83a ae8e 063d 91a6 6d3d 966f 82bd
00000350: cdc3 893d f411 2a3c c444 1ebd 51d2 e4bc
00000360: bb3e 463d fd1a 42bd 5fe3 fe3c e652 b7bd
00000370: dc58 803e cf40 09bd 1150 b03e 04ef 563d
00000380: 311f 9a3d 48ed 903c f679 243d 1e90 ef3d
00000390: fd9c abbd 91ff 1b3e 707a 523e 2064 6f3e
000003a0: 55a3 553c 1cbd 1d3d 80f1 463d 5191 e7bc
000003b0: 8f41 3d3d 5029 823d 1a33 51bd 9625 1d3e
000003c0: 4fa6 dfbd 2225 2c3e 09e6 a2bc 7e9e 09bd
000003d0: ec66 483c 3f2b ddbd 6649 a7bd 2ea0 3b3d
000003e0: a3c7 21be 7633 bf3d f5ff 963d 75fd 4a3e
000003f0: 6e99 72be 82b9 dc3c 880d 47be 4fac 1ebd
-0.31168318 0.030765817 0.06413959 0.10726455 -0.26702952 -0.3031834 0.030080691 -0.06785923
0.15144643 -0.1877257 -0.15715414 0.06445804 -0.1576154 0.116850026 0.01619278 0.018554589
-0.17483056 -0.0964293 0.06410133 0.16395237 -0.052078567 -0.08764328 0.06402409 -0.13027835
0.080547765 -0.25284448 0.28285402 -0.004898631 0.2064828 -0.15437211 -0.00812659 -0.01687022
0.21663353 -0.24516357 -0.08300843 0.012836233 -0.11486817 0.03289242 0.15726118 -0.28897724
-0.18550242 -0.020106005 -0.04820886 -0.14045219 0.07384268 -0.12936325 -0.29058418 0.2475428
0.02522204 -0.1344231 0.18224849 0.020525042 -0.13232769 -0.23819494 -0.23235863 0.020447765
0.10651773 0.09606658 -0.15690194 0.18626635 -0.070307575 0.09624585 -0.30351153 -0.40690327
-0.1903674 0.13608025 -0.032087628 -0.09604554 0.112248175 0.18152733 -0.10194408 -0.037360273
-0.03548409 -0.050934203 -0.14695236 0.17265764 -0.083501466 0.03134304 0.004334431 0.042456374
0.116311476 0.049904566 0.06529443 0.047168568 0.061074473 0.0015710184 0.20577507 -0.06904288
0.029504536 0.17337677 -0.14187291 -0.20968369 -0.08507581 -0.10620989 0.08628455 -0.038439125
-0.09086101 -0.0077013928 -0.08578561 -0.039447084 -0.10284352 0.06741557 -0.032660555 -0.117012285
-0.00032403847 0.078554444 0.07877415 -0.05276493 -0.063786656 -0.100566775 -0.1550408 0.06208731
-0.095063545 -0.22029506 0.063914746 0.09775007 -0.10611963 -0.09863033 -0.0035535016 -0.009662486
-0.05279121 0.096793756 0.121779144 -0.09196104 -0.112985276 0.33736208 -0.0779214 -0.091693856
-0.063215256 -0.21960624 0.0994637 0.2495961 -0.06882984 -0.26856533 -0.07347417 0.01028065
0.18423194 -0.0916605 0.22740914 -0.3013121 0.1212595 -0.019598007 -0.051695142 -0.017691564
-0.1206781 0.2075404 0.0022292186 -0.05962542 -0.12703441 0.07205498 -0.13945243 0.14422219
-0.04683998 -0.09679122 0.45282647 -0.06066209 0.08683761 0.021484321 -0.17068736 -0.03826968
0.02906362 0.0087780515 -0.093253575 0.0758089 0.12983301 0.46921408 0.13226208 0.14281656
0.21627265 -0.048080117 -0.33409193 -0.02201931 -0.052278847 0.020134237 0.044679534 -0.084533304
-0.0058109234 -0.11554358 -0.2008173 -0.04642412 -0.310032 -0.1728228 -0.13590194 0.12599134
-0.13886046 -0.22156164 -0.13196033 0.05012908 0.046007644 -0.3411363 0.027864829 -0.11266765
-0.010723451 -0.048687138 0.10406566 -0.13401388 -0.010997938 0.051886797 0.0045821914 -0.019109916
0.05236124 0.02627879 -0.14845094 0.22148591 -0.06809667 0.011878482 -0.045702238 -0.043808337
0.0016518608 0.032850914 0.05802018 -0.063689396 0.06726799 0.010380257 -0.0386398 -0.027932318
0.04839967 -0.04738902 0.031114278 -0.089513585 0.25067794 -0.033509072 0.34436086 0.052474037
0.075254805 0.01769127 0.040155374 0.1169741 -0.083795525 0.1523421 0.20554519 0.23378038
0.01303943 0.038510427 0.048570156 -0.028267534 0.0462051 0.06355536 -0.051074125 0.15346369
-0.10920393 0.1681104 -0.01988508 -0.033598416 0.01223157 -0.10799264 -0.081682965 0.045807056
-0.15798812 0.09335987 0.07373039 0.19823249 -0.23691341 0.026943926 -0.19438756 -0.038738545

hidden_layers.1.bias f4 [64]
00000000: d936 4bbd 010e 20bd 22ef 093e be55 90bc
00000010: 0e38 d03d dc04 f3bd 982b ffbd e465 b53d
00000020: 34bf cc3c ed86 883e 828a 59bd 9141 333e
00000030: 3412 243d 2229 8bbd ebfa 22bd 9d85 263e
00000040: 54af abbb 4464 0bbd 202b 86bd 11cd 263d
00000050: 2600 8c3d 163e af3e f809 1dbe 9529 65bd
00000060: 997a d2bd 416e 91bd c38a 9a3c 040e a5bd
00000070: 14e9 e73d d46e 4f3e 17d4 c43d b175 9dbd
00000080: 6667 77bc d6dc fc3c 0955 d3bb 4b10 42bd
00000090: 0679 d0bd 1822 07be c9b4 8f3e f88b 3ebd
000000a0: 7d7b 06be 1c71 1c3e 1d1a 263e 3eb1 f4bc
000000b0: 4142 73bc d04c 19bd fee3 fcbb a0b5 4ebd
000000c0: 378e 1b3d 438d 29be a390 6abd f4e1 433d
000000d0: bec7 59bd 352d 2ebd c1a4 263d 8a17 91bd
000000e0: ba29 08be faf8 02be 4dd1 3d3d 9aa1 adbc
000000f0: 099a 273d d8b7 003e ca74 0b3d 557d 223b
-0.049612854 -0.039075855 0.13470128 -0.01761901 0.101669416 -0.11866161 -0.12459487 0.08857325
0.024993517 0.2666544 -0.053110607 0.1750548 0.040056422 -0.06794955 -0.039790075 0.16261907
-0.0052394066 -0.034031168 -0.06551194 0.04072291 0.06835966 0.34227055 -0.15335834 -0.05594786
-0.1027729 -0.071011074 0.018864995 -0.08059314 0.11323753 0.20257121 0.096107654 -0.076884635
-0.015100336 0.030867022 -0.006449346 -0.04737882 -0.101793334 -0.131966 0.28067616 -0.046520203
-0.13133045 0.15277523 0.16220899 -0.029869672 -0.014847339 -0.03742677 -0.0077176085 -0.05046618
0.037977424 -0.16557793 -0.057266843 0.047822908 -0.053169005 -0.04252358 0.040684465 -0.07084568
-0.13297167 -0.1279029 0.046342183 -0.021195222 0.040918384 0.12570131 0.034046926 0.0024793942

output.weight f4 [4, 64]
00000000: cd43 dabe 6645 4f3e fc9c c13e d30c b1bd
00000010: 4362 003f 16a5 753d 56c9 1a3e 7c08 adbe
00000020: 23b3 56bd 9ed4 7e3d 8f2a c4bd 8266 6d3e
00000030: 6a0f b13d c03a 303e 3be9 8abc d9d0 f33d
00000040: f384 60ba a9d6 183e 4d0e 3a3d 1309 373e
00000050: 78f9 d53d 1be8 db3d 4069 22bd 8841 223d
00000060: 0291 a43e 4950 c63b fafe 33be d702 083e
00000070: 4a2c e83d 751f b73d b6f2 86bd 8062 de3d
00000080: 8000 76bd 528c 843e 759d 1f3d c1e6 9abc
00000090: 6df9 343e 8eb8 fbbd 7e32 ed3d f6a5 d8bd
000000a0: 4044 0c3e d704 9f3d 7078 9d3d 3623 21bd
000000b0: cea5 603d a0fc c3bd bcf2 35bd 4012 af3d
000000c0: 4976 80bd ce09 583e 84ab 45be 9837 d33d
000000d0: 181d f03e 7a04 f3bc 9161 043e ef65 733e
000000e0: 6940 60be 5b34 47bd b177 be3e ee34 c23d
000000f0: dcf0 7bbe d459 de3d e6bb 803d e342 bb3e
00000100: f7ff 1a3e 16a3 ec3d e885 6e3e 4d0b dbbc
00000110: 3ae8 b83e 4ab2 3a3c 327b 0abd 6587 b0bd
00000120: e041 88bc 666d 663d 0b19 ecbb cf71 843e
00000130: 4f9b 2fbc f528 693e fbd9 81bd a2fe 913d
00000140: 2411 d0bd 9dfe a3bd 198e a1be 1463 fa3d
00000150: 07ce 703e 930b 453e e137 b7bd 59de 453e
00000160: 638d f13e 9a15 ecbc 1c7e bebd e2d6 4a3e
00000170: 30b0 0a3e 3b87 7f3d e8c8 023e 4a56 f73d
00000180: d2f4 f9bd 361e 243d eca4 c73e 060e c8be
00000190: abbc e73d 9416 2bbe b802 0a3e 4fba f13e
000001a0: d94d 003e e938 e33d 4fca 0c3d c67b 393e
000001b0: 73f6 4a3c 154d 8abe 70f1 673e 1894 d7bc
000001c0: 5f26 8b3d f726 adbc 8983 43be 5ffb 633c
000001d0: 4d4e b33e 88dd 933d 4988 df3d 28f0 c03e
000001e0: 6e28 1bbe 0b94 8dbe 4c8c 5a3e 2563 9bbc
000001f0: 1604 693d e930 18be d30f bcbd 1cf6 7d3e
00000200: 45b7 b4bd fc10 f03d 79ff bf3d 98a7 d43d
00000210: ace1 bb3e eba5 d13d 8598 083e 0cec 47bc
00000220: 4fe8 bfba 1eeb cc3d 1664 9dbd b187 8d3e
00000230: 7f43 e13d 4aea 9ebe 9a0a 5cbe 7b4d 223e
00000240: a237 cb3e 2c85 c43d 40b2 0f3c 6f3a e93c
00000250: c6cd 20bd 656d 3f3e 0935 3bbe 437e 613e
00000260: a21e 5e3e d88c e53c 9d37 7abe 24fe ae3e
00000270: 1641 113e bd59 343e 9d20 8a3e 3305 e3bd
00000280: c736 c5be 9564 a1ba 4aba 033f dd0c 833e
00000290: 25cb a23e 1bc7 8abe 10f1 ac3d 80ec b03d
000002a0: da1d 813e 65b6 ce3d 5786 d13d ae3e 873e
000002b0: c84a 053e c4e7 91be 01d2 623e a845 6a3e
000002c0: 255c 423e 4927 d33c f062 97be 9c26 c63e
000002d0: bdff 003e 5b49 113e 8cde f93d a3ed 26bd
000002e0: d11b dfbd a5ac 233d f95e 7b3e a9c2 62bd
000002f0: 67b9 f1be 26fd 9a3d 4eb2 40be b07a e6bc
00000300: ae20 e53c 9894 103e 22b2 e73d 0872 5cbd
00000310: 94d2 a83c a0fd 40be f511 c2bc 8a18 06be
00000320: d9c5 bc3d 87ce 153e ed7c 0f3e 4f9d 543d
00000330: 2b81 6d3e 94b3 2a3e bc44 243e 7c64 b83c
00000340: 7ce4 f43e 23ac 0fbe d1cf c63e 5bde 193e
00000350: a73b 913e 85c0 363e dbab a0bd a466 503e
00000360: c067 d33c 3021 aabe 72fd f4bd 8e20 503e
00000370: a777 4e3e 30bb 433d 05ce 6e3b 85c4 ae3d
00000380: cb2a e2be 5a79 dc3e 8de6 07bd 3469 bfbd
00000390: 287a c0be c805 ab3d 6011 063e 5341 4f3e
000003a0: e1b2 85be 9d6a 343e 2961 753e 1be7 8fbe
000003b0: 3fe4 9c3e abf9 9cbe 14b7 ff3d 00f7 653c
000003c0: 47db 5d3d 594d 80be f505 d9bc c955 b43d
000003d0: 5618 843d 7494 273e e552 253e fd26 f73e
000003e0: f9b7 25be 9b01 1dbf 9800 b63e a5d4 a1bd
000003f0: 146d 1bbf aacb 65bd f39e c8be 09a1 213e
-0.42629853 0.20241317 0.37815082 -0.08645024 0.50149935 0.05997189 0.15115866 -0.33795536
-0.05241693 0.062214486 -0.0957843 0.23183635 0.08645518 0.17209911 -0.016956916 0.11905069
-0.0008564733 0.14925636 0.045423795 0.17874555 0.10447973 0.1073763 -0.039651155 0.039613277
0.32141882 0.006052051 -0.17577735 0.13282333 0.113365725 0.08941547 -0.06589262 0.10858631
-0.06005907 0.25888306 0.038968522 -0.01890886 0.17673273 -0.122910604 0.11581896 -0.105785295
0.1369791 0.07764595 0.07688987 -0.03934022 0.054845624 -0.09569669 -0.044420943 0.08548403
-0.06272561 0.2109749 -0.1930371 0.10313338 0.46897197 -0.02966522 0.12927844 0.23769353
-0.2189957 -0.048633914 0.37200692 0.09482752 -0.246036 0.10856977 0.06285839 0.36574468
0.15136705 0.11554544 0.23293269 -0.026738787 0.36114675 0.0113950465 -0.033808894 -0.086195745
-0.016632974 0.056256674 -0.007205134 0.2586808 -0.010718181 0.2276953 -0.063404046 0.071286455
-0.10159519 -0.08007548 -0.31553724 0.12225929 0.23516093 0.19242696 -0.08946205 0.193231
0.47178182 -0.028818894 -0.09301397 0.19808534 0.13543773 0.062384825 0.12771952 0.12077005
-0.12204899 0.040067874 0.38993013 -0.390732 0.113152824 -0.16707832 0.134776 0.47212455
0.12529697 0.11094839 0.034372624 0.18113622 0.01238786 -0.27011934 0.22650695 -0.026315734
0.06794428 -0.021136744 -0.19093145 0.013914912 0.35020676 0.07219988 0.10914666 0.37683225
-0.15152141 -0.2765201 0.21342582 -0.018968174 0.056888662 -0.14862408 -0.09182706 0.24800915
-0.088240184 0.117219895 0.093748994 0.103835285 0.3669561 0.102367245 0.13339432 -0.012202274
-0.0014641377 0.100057825 -0.076851055 0.27642587 0.10999202 -0.31038123 -0.21488419 0.15849869
0.39690882 0.09595713 0.008770525 0.028470246 -0.03925874 0.18694074 -0.1828195 0.22020821
0.21691373 0.028021261 -0.24435277 0.3417827 0.14184985 0.17612357 0.26978007 -0.11084976
-0.38518354 -0.0012313301 0.5145613 0.2559575 0.31795612 -0.2710503 0.084444165 0.08638859
0.25218087 0.10093383 0.102307014 0.26415008 0.13016808 -0.28497136 0.22150423 0.22878134
0.18980463 0.025775569 -0.2956767 0.38701332 0.12597556 0.14188139 0.122006506 -0.04075397
-0.108939774 0.03995957 0.24547948 -0.055361424 -0.47211763 0.075678155 -0.18818018 -0.028134674
0.027969684 0.14119184 0.11313273 -0.053819686 0.020608224 -0.1884675 -0.023690203 -0.13095298
0.09217424 0.14629565 0.14012499 0.051907834 0.23193805 0.16670066 0.16041845 0.022508852
0.4783057 -0.14030509 0.38830426 0.15026228 0.28365824 0.17846878 -0.07845279 0.20351654
0.025806308 -0.33228445 -0.11962403 0.20324919 0.20162831 0.047785938 0.0036438715 0.08533577
-0.44173273 0.43061334 -0.033178855 -0.09346238 -0.37593198 0.08350712 0.13092566 0.20239763
-0.26113036 0.17618795 0.23962845 -0.28106007 0.30642888 -0.30659232 0.12486091 0.01403594
0.054164197 -0.25059012 -0.026492098 0.08805425 0.06449954 0.16365224 0.16144903 0.48271933
-0.16183461 -0.61330575 0.35547328 -0.07901887 -0.60713315 -0.056102432 -0.3918377 0.15784086

output.bias f4 [4]
00000000: d14d 473e 6c2e 133e 64af ca3d a6a9 c93d
0.19463278 0.14373177 0.09896734 0.09846811
