p1_navigation/dqn.pth (torch_old, 28526 bytes, 6 tensors)

hidden_layers.0.weight f4 [64, 37]
-0.31876737 0.217392 -0.045542464 0.026941152 -0.039415356 -0.0412574 -0.0485868 0.33810624
-0.16681919 -0.11014675 0.09948837 -0.08913821 -0.0849341 -0.10376937 0.020271888 0.07989874
0.018027896 0.12183913 -0.10314809 -0.21388353 0.110061936 0.15368879 0.02876348 -0.12101962
-0.04552112 0.0039879503 0.055687226 -0.027185354 -0.18243343 -0.08147094 -0.15159485 0.2914516
-0.12820938 -0.08902181 -0.1496312 -0.043202646 -0.0064188964 0.2779294 -0.07778502 0.104112975
-0.022371095 -0.3543983 0.03489168 -0.20360905 -0.08035717 -0.02380727 0.21506767 0.1872896
-0.0021448492 0.00022439158 -0.018512351 -0.15657632 0.1372897 0.022804664 0.066300064 -0.04471095
-0.20606595 -0.12605517 -0.03779783 -0.015761115 0.01738074 0.118285716 0.01235451 0.062239997
0.063715525 -0.072585955 -0.013114003 0.1439871 0.15583691 0.057619423 -0.21258537 -0.18963726
-0.10521687 0.010654776 0.28868774 0.0016425239 0.026181247 -0.042703066 -0.42829904 -0.29890946
0.15245026 0.17917751 0.26578674 -0.4574076 0.11273403 0.057439283 0.09708976 -0.5882687
-0.16646302 -0.05572137 0.022192856 0.21122701 -0.19133076 -0.105702944 -0.059594113 -0.15092568
0.08037827 0.05218565 -0.15990351 -0.07314062 0.22038262 0.24068168 -0.59548205 -0.22438283
-0.3109935 -0.02174954 0.025000034 -0.0138619505 0.11086884 0.023858448 -0.0022248933 -0.019571207
-0.32094532 0.3160727 -0.0063279667 -0.7064303 -0.20142134 -0.11053952 0.27732322 -0.21856342
-0.8736325 0.02156806 -0.333225 0.033849474 -0.1476777 -0.17919272 -0.0018318213 -0.34319112
-0.047863454 -0.43131888 -0.3024649 -0.011209729 -0.2941961 0.12201103 -0.19615078 -0.080557056
-0.104859434 -0.24930966 0.24276322 -0.45825753 -0.9442229 -0.018130874 -0.04439302 0.23477294
-0.44274762 -0.09616251 0.21219307 0.0073148874 -0.08307694 -0.078204386 -0.2189813 -0.14764138
-0.19936886 0.20614359 0.07515957 -0.19697718 -0.26311168 -0.23055066 -0.078673705 0.069903694
-0.15305234 -0.10532163 -0.19924158 -0.07159672 -0.024599284 -0.033713974 -0.2677373 -0.08872837
-0.18921998 0.03662782 0.09365534 -0.004761222 0.0888205 0.098245785 -0.24647751 0.12779082
-0.035335913 -0.09791063 0.11693586 -0.2139906 0.016059345 0.07693386 0.4974882 -0.04193797
0.030128835 0.09265234 -0.043438014 -0.06710321 -0.065334804 0.055983514 0.2486651 0.12865148
-0.28541774 -0.25822657 -0.7767555 -0.047328576 -0.06895643 0.021167586 -0.07317932 -0.010081153
0.084013775 0.07738102 -0.12608795 -0.07180108 -0.029271616 0.18249127 -0.008264497 0.0698931
0.096429795 0.09761557 0.041236468 -0.07993624 0.047571648 -0.0042072563 -0.017611677 0.0837981
-0.117835544 -0.076431185 0.062302638 -0.2366481 0.05615905 0.069559574 0.10940804 -0.13712655
-0.085443504 0.048511118 -0.25120398 -0.14040966 -0.13185126 0.12870784 -0.14278786 0.28931952
0.059382606 0.12955555 0.023137884 -0.16027875 0.14562818 -0.21650213 0.038674895 0.0024449215
0.016132768 0.15768813 0.010364738 -0.10541077 0.025493164 -0.08473278 -0.038480937 -0.28284603
-0.11722357 0.115891166 -0.06424869 -0.15962805 -0.014166831 0.036255978 -0.09865019 -0.081389114
00000000: 7a35 a3be 029c 5e3e bc8a 3abd b1b3 dc3c
00000010: ff71 21bd 85fd 28bd f402 47bd 431c ad3e
00000020: a6d2 2abe 9f94 e1bd 8fc0 cb3d 188e b6bd
00000030: eef1 adbd 0985 d4bd 3b11 a63c f3a1 a33d
00000040: 3daf 933c cb86 f93d 4e3f d3bd 4904 5bbe
00000050: 2768 e13d 9860 1d3e 64a1 eb3c 22d9 f7bd
00000060: 5b74 3abd 5aad 823b 4a18 643d d2b3 debc
00000070: d4cf 3abe 3cda a6bd ae3b 1bbe 2539 953e
00000080: 5249 03be 1151 b6bd ec38 19be 42f5 30bd
00000090: 9b55 d2bb c34c 8e3e c14d 9fbd 2f39 d53d
000000a0: 9643 b7bc b273 b5be 94ea 0e3d e47e 50be
000000b0: 4d92 a4bd 7707 c3bc b33a 5c3e d8c8 3f3e
000000c0: 9990 0cbb a84a 6b39 37a7 97bc 8b55 20be
000000d0: ac95 0c3e d9d0 ba3c 54c8 873d d422 37bd
000000e0: f402 53be 9b14 01be e6d1 1abd 741d 81bc
000000f0: 0e62 8e3c c83f f23d 926a 4a3c 5eef 7e3d
00000100: 497d 823d f2a7 94bd 1edc 56bc 5b71 133e
00000110: b693 1f3e 5802 6c3d fbaf 59be 4530 42be
00000120: f17b d7bd 5f91 2e3c e1ce 933e f549 d73a
00000130: 0e7a d63c 69e9 2ebd 034a dbbe a90a 99be
00000140: ec1b 1c3e 4f7a 373e 3315 883e 5431 eabe
00000150: 19e1 e63d 7445 6b3d ffd6 c63d c798 16bf
00000160: 4875 2abe 173c 64bd cbcd b53c e54b 583e
00000170: 36ec 43be c97a d8bd f518 74bd 438c 1abe
00000180: 5d9d a43d 9fc0 553d bfbd 23be c0ca 95bd
00000190: fbab 613e 4275 763e 8371 18bf 9dc4 65be
000001a0: 8a3a 9fbe 172c b2bc dfcc cc3c 3c1d 63bc
000001b0: 340f e33d cb72 c33c 84cf 11bb cc53 a0bc
000001c0: f252 a4be 48d4 a13e d55a cfbb 9ed8 34bf
000001d0: 6541 4ebe 8b62 e2bd 4ffd 8d3e 17cf 5fbe
000001e0: 61a6 5fbf 80af b03c 789c aabe bfa5 0a3d
000001f0: d338 17be 4c7e 37be b919 f0ba bfb6 afbe
00000200: 780c 44bd d4d5 dcbe aedc 9abe 03a9 37bc
00000210: dfa0 96be ebe0 f93d c0db 48be 19fb a4bd
00000220: 8bc0 d6bd 084b 7fbe ec96 783e bba0 eabe
00000230: 98b8 71bf 3387 94bc 75d5 35bd 5168 703e
00000240: d1af e2be daf0 c4bd 2449 593e b9b1 ef3b
00000250: 3e24 aabd 9f29 a0bd a23c 60be 4d2f 17be
00000260: 5a27 4cbe 4e17 533e 43ed 993d 63b4 49be
00000270: 93b6 86be 7915 6cbe ae1f a1bd ab29 8f3d
00000280: c1b9 1cbe deb2 d7bd fc05 4cbe 4da1 92bd
00000290: 7084 c9bc aa17 0abd dd14 89be 38b7 b5bd
000002a0: e2c2 41be 0e07 163d 5fce bf3d 0604 9cbb
000002b0: 86e7 b53d 1635 c93d 9a64 7cbe 99db 023e
000002c0: 64bc 10bd 5e85 c8bd 117c ef3d 5a20 5bbe
000002d0: e38e 833c 808f 9d3d c6b6 fe3e 26c7 2bbd
000002e0: bfd0 f63c 83c0 bd3d 0fec 31bd 686d 89bd
000002f0: 41ce 85bd f84e 653d 10a2 7e3e 37bd 033e
00000300: 4622 92be 4636 84be 73d9 46bf 9cdb 41bd
00000310: 0739 8dbd a567 ad3c 0adf 95bd 6c2b 25bc
00000320: 6a0f ac3d f179 9e3d 331d 01be 720c 93bd
00000330: 07cb efbc fede 3a3e d067 07bc 1d24 8f3d
00000340: fc7c c53d acea c73d 92e7 283d 9db5 a3bd
00000350: 7dda 423d 06dd 89bb 5d46 90bc 579e ab3d
00000360: c353 f1bd f487 9cbd 0d31 7f3d e153 72be
00000370: 0807 663d 4075 8e3d 5311 e03d e76a 0cbe
00000380: 01fd aebd 98b3 463d cf9d 80be 8dc7 0fbe
00000390: 0404 07be fdcb 033e fb36 12be b021 943e
000003a0: 2d3b 733d 36aa 043e a98b bd3c 1d20 24be
000003b0: 8e1f 153e bcb2 5dbe 9169 1e3d fa3a 203b
000003c0: de28 843c ff78 213e ddd0 293c 9ae1 d7bd
000003d0: 0ad7 d03c 6188 adbd 309e 1dbd 32d1 90be
000003e0: e912 f0bd 5958 ed3d d194 83bd 8975 23be
000003f0: ff1b 68bc 2681 143d 1c09 cabd 56af a6bd

hidden_layers.0.bias f4 [64]
0.14454783 -0.00249013 -0.056378294 -0.053069822 0.14027525 -0.0035932697 -0.10017987 0.06124436
0.07636221 -0.26889777 0.14142427 0.17577139 0.14550437 0.12291787 -0.007902512 -0.17010345
0.083194405 -0.17033505 0.015387106 -0.14306244 -0.08911756 -0.028454302 0.019819891 -0.056284614
-0.10191871 0.17131485 -0.019810516 -0.08558813 0.13924515 0.13489446 -0.13045374 -0.15572493
0.15555324 -0.019886471 -0.07690803 0.07583663 -0.04445224 -0.00021739988 -0.011070186 -0.09519561
-0.18610986 -0.019620476 -0.121233515 0.2257295 -0.017766612 -0.10121287 0.010657174 -0.17709136
-0.14479207 0.07609521 -0.15698296 0.060750537 -0.058755398 -0.089747466 -0.217224 -0.001995877
0.06912739 -0.03383561 -0.2094703 -0.18074167 0.029838573 0.06348527 0.065988064 0.040807568
00000000: 5904 143e 7331 23bb edec 66bd be5f 59bd
00000010: 51a4 0f3e 107d 6bbb 1b2b cdbd 5edb 7a3d
00000020: ca63 9c3d f8ac 89be 86d1 103e 6afd 333e
00000030: 19ff 143e 5dbc fb3d 8a79 01bc 992f 2ebe
00000040: d461 aa3d 506c 2ebe 331a 7c3c f67e 12be
00000050: 4483 b6bd ff18 e9bc 535d a23c b28a 66bd
00000060: c2ba d0bd 296d 2f3e aa49 a2bc d448 afbd
00000070: 4896 0e3e c621 0a3e aa95 05be 5b76 1fbe
00000080: 5949 1f3e f4e8 a2bc f581 9dbd 3c50 9b3d
00000090: 8d13 36bd d6f5 63b9 ba5f 35bc eaf5 c2bd
000000a0: 9593 3ebe 1fbb a0bc 4749 f8bd a225 673e
000000b0: 498b 91bc b148 cfbd 6d9b 2e3c 7057 35be
000000c0: 5f44 14be ced7 9b3d 24c0 20be 8ed5 783d
000000d0: 80a9 70bd 85cd b7bd f86f 5ebe 42cd 02bb
000000e0: a992 8d3d 3597 0abd 627f 56be 5814 39be
000000f0: 0670 f43c 9104 823d c024 873d d625 273d

hidden_layers.1.weight f4 [64, 64]
0.031648166 -0.066855595 0.12648076 0.07434712 -0.07751375 -0.029938838 -0.117284805 0.023048155
0.17785011 0.017806157 -0.036435418 -0.04928603 -0.20032433 0.28260195 0.03897125 0.0030953982
-0.09499877 0.0027260084 0.03554657 0.04987205 0.08527213 -0.21527529 0.07746199 0.15329836
-0.09213915 0.27703556 0.048626818 0.11159475 0.032956593 0.15968889 0.15527213 -0.2595382
0.13929094 -0.24042624 -0.045252778 -0.10372523 -0.13636532 0.119248554 0.32399118 -0.023895044
-0.14537846 -0.05211852 -0.053174403 -0.1443944 0.0013442861 -0.027147701 -0.09298609 0.08214353
-0.031253707 -0.18641047 0.049348667 0.0381169 -0.16475415 -0.16713813 0.0031381403 -0.08501744
-0.02984924 -0.023293335 -0.011368521 -0.04095951 -0.024650076 0.117424384 -0.022417743 -0.0034847225
-0.017249703 0.062096924 -0.12301864 -0.03736945 0.041674398 0.11350823 -0.09151834 0.06128764
-0.029825881 -0.1675349 0.02303947 0.2662627 -0.027078485 0.3159429 0.08427821 0.12071278
0.091176555 0.077318996 -0.071256325 -0.08128655 -0.04700975 -0.056971673 0.04510184 0.03501978
0.08122717 0.09102405 -0.4026419 -0.33363765 0.064590305 -0.101955086 0.1777227 -0.049044695
-0.052604005 0.12858577 0.0432378 -0.10968763 -0.002717281 -0.15648705 0.11679469 -0.17915934
-0.030557672 0.119971514 0.012191693 -0.12675592 -0.051313024 -0.17499077 -0.13075782 -0.05567539
-0.027787697 -0.173938 -0.078069754 0.13557172 -0.029120699 0.09404345 0.073974416 -0.011878044
-0.045113865 0.009926558 0.051578093 0.0428122 -0.12803288 0.112712026 -0.16918427 -0.011803604
-0.129052 -0.07865468 0.01538626 -0.19295758 0.11140719 0.07130426 0.036900382 0.009031823
0.16448638 -0.116053335 0.061896384 0.18084753 0.016250104 0.35070255 -0.13196675 0.00757178
-0.101718366 0.093519084 0.24024743 -0.092369325 -0.020210179 0.064206235 0.027005864 0.103221
0.07952053 0.12226904 0.43924096 0.3036542 0.013427404 0.2683161 -0.11961275 -0.07167167
-0.08013656 -0.022741266 -0.13246162 0.08722792 0.13728097 0.23866656 0.046569835 0.067511775
0.14224344 -0.042937998 -0.07479256 -0.054544408 -0.07875889 0.0035047885 0.10821496 0.009760792
0.018529085 -0.014650677 0.02017955 -0.015148293 -0.022194035 -0.17937654 0.05255379 -0.013007795
0.05536449 -0.07491035 0.14137298 0.13308282 -0.074075915 0.24232627 -0.09891447 0.06814946
-0.015904043 -0.2853478 -0.1811507 -0.18684994 0.0006708936 0.010168716 0.13179345 -0.12218169
-0.20693894 -0.04208312 -0.063571155 0.22618197 -0.13062437 0.27132043 -0.042056672 -0.026974296
-0.023261664 0.1443755 -0.116000734 0.012716753 -0.030348498 0.08692215 0.019909792 -0.04975403
0.11521842 -0.18371247 -0.22544144 0.014881138 0.11258026 -0.31389925 0.31710488 -0.048644908
-0.0833103 -0.12128642 0.05714303 0.12044174 -0.08378559 -0.052477527 -0.12025548 -0.12190775
0.07638637 0.029477675 -0.041543256 -0.030278267 -0.14146774 -0.088059336 -0.032602232 0.051087607
0.10915598 0.0019884326 -0.12474549 0.055968467 0.087073535 0.010664162 -0.11281327 -0.09756317
-0.13160932 -0.05403 -0.098873265 0.13258916 -0.13512538 0.14107381 -0.035598453 0.062609166
00000000: 82a1 013d 96eb 88bd 2c84 013e 4e43 983d
00000010: 87bf 9ebd 4b42 f5bc 0433 f0bd 7ccf bc3c
00000020: 571e 363e 38de 913c 4e3d 15bd 26e0 49bd
00000030: d221 4dbe 34b1 903e 51a0 1f3d 2adc 4a3b
00000040: b78e c2bd d5a6 323b 4899 113d a246 4c3d
00000050: 28a3 ae3d 2071 5cbe 64a4 9e3d 3ffa 1c3e
00000060: 73b3 bcbd 9bd7 8d3e ea2c 473d ca8b e43d
00000070: 7efd 063d 7c85 233e a8ff 1e3e 31e2 84be
00000080: 49a2 0e3e 4c32 76be fa5a 39bd e56d d4bd
00000090: 5aa3 0bbe 9638 f43d 2ce2 a53e 8abf c3bc
000000a0: 17de 14be 3b7a 55bd 67cd 59bd 20dc 13be
000000b0: c232 b03a db64 debc 7e6f bebd de3a a83d
000000c0: e303 00bd 63e2 3ebe d421 4a3d 7720 1c3d
000000d0: 50b5 28be 4226 2bbe 42a9 4d3b a01d aebd
000000e0: 6586 f4bc aad1 bebc 0843 3abc 29c5 27bd
000000f0: f5ee c9bc 327c f03d 6aa5 b7bc f15f 64bb
00000100: 404f 8dbc 5859 7e3d 32f1 fbbd b510 19bd
00000110: c6b2 2a3d 0177 e83d f86d bbbd c008 7b3d
00000120: 6855 f4bc 458e 2bbe 45bd bc3c 9653 883e
00000130: b3d3 ddbc 45c3 a13e 0e9a ac3d 4338 f73d
00000140: c6ba ba3d 6c59 9e3d d6ee 91bd 9079 a6bd
00000150: 4c8d 40bd 215b 69bd b5bc 383d e770 0f3d
00000160: 6e5a a63d d16a ba3d 1427 cebe 8ed2 aabe
00000170: ec47 843d d4cd d0bd f1fc 353e 17e3 48bd
00000180: 4c77 57bd fdab 033e 1f1a 313d e8a3 e0bd
00000190: 6914 32bb 243e 20be 0e32 ef3d 8c75 37be
000001a0: 1554 fabc a0b3 f53d abbf 473c 4ecc 01be
000001b0: 9b2d 52bd c830 33be 61e5 05be e10b 64bd
000001c0: 06a3 e3bc ce1c 32be 09e3 9fbd 50d3 0a3e
000001d0: 888e eebc da99 c03d e67f 973d 219c 42bc
000001e0: 51c9 38bd 00a3 223c 8d43 533d d85b 2f3d
000001f0: 0d1b 03be 90d5 e63d a43e 2dbe e763 41bc
00000200: 3526 04be b415 a1bd a716 7c3c ac96 45be
00000210: 7429 e43d f807 923d db24 173d 36fa 133c
00000220: 1e6f 283e 5fad edbd 1087 7d3d 1830 393e
00000230: f01e 853c 498f b33e 4b22 07be b21c f83b
00000240: b851 d0bd ef86 bf3d 6c03 763e 212c bdbd
00000250: d18f a5bc 8f7e 833d 673b dd3c 8865 d33d
00000260: a9db a23d 3168 fa3d 31e4 e03e 9078 9b3e
00000270: 9dfe 5b3c ba60 893e 88f7 f4bd 99c8 92bd
00000280: a31e a4bd e44b babc 05a4 07be 8da4 b23d
00000290: 6293 0c3e 0265 743e 03c0 3e3d 9d43 8a3d
000002a0: 44a8 113e c1df 2fbd d72c 99bd f569 5fbd
000002b0: 574c a1bd 98b0 653b ce9f dd3d bbeb 1f3c
000002c0: 4fca 973c 6509 70bc 954f a53c 8c30 78bc
000002d0: 44d0 b5bc 7cae 37be a542 573d a61e 55bc
000002e0: e0c5 623d 996a 99bd 14c4 103e dd46 083e
000002f0: 1db5 97bd 6124 783e ab93 cabd f291 8b3d
00000300: 3249 82bc 1b19 92be 927f 39be 9755 3fbe
00000310: e8de 2f3a b09a 263c ddf4 063e 653a fabd
00000320: cde7 53be 5a5f 2cbd 9831 82bd 3f9c 673e
00000330: 65c2 05be 83ea 8a3e 9e43 2cbd 33f9 dcbc
00000340: 3f8f bebc 2cd7 133e cb91 edbd ee59 503c
00000350: 6a9d f8bc 3d04 b23d dc19 a33c e2ca 4bbd
00000360: a3f7 eb3d 1f1f 3cbe 1fda 66be 04d0 733c
00000370: 7b90 e63d 67b7 a0be 925b a23e e23f 47bd
00000380: 979e aabd 0465 f8bd cf0e 6a3d 29aa f63d
00000390: c897 abbd adf2 56bd 8148 f6bd c5aa f9bd
000003a0: 7570 9c3d 2a7b f13c 4329 2abd 210a f8bc
000003b0: ebdc 10be 7458 b4bd eb89 05bd 3d41 513d
000003c0: 2c8d df3d 5d50 023b 907a ffbd 313f 653d
000003d0: 9c53 b23d bdb8 2e3c a50a e7bd 33cf c7bd
000003e0: 98c4 06be 904e 5dbd 117e cabd 74c5 073e
000003f0: 4f5e 0abe a775 103e afcf 11bd 3c39 803d

hidden_layers.1.bias f4 [64]
-0.12835498 -0.03978834 0.102585256 0.020389006 0.080649436 -0.13997458 -0.116992086 -0.008032761
0.16053726 0.25059146 -0.044966355 0.16562833 0.10467834 -0.07051036 0.0065461555 0.04323887
0.040555667 -0.124486156 -0.048812132 0.14930871 0.13822006 0.23812848 -0.09757572 -0.08846206
-0.063390315 -0.1271464 0.08362708 -0.08412244 -0.12978378 0.12344675 0.053567253 -0.039414715
-0.027368706 0.09150953 -0.014203376 0.11085415 0.0070608053 -0.09135533 0.28705385 -0.038284034
-0.031970985 0.31239456 0.16299532 -0.0449851 -0.037883922 -0.083288625 0.10296282 -0.1485759
0.053189978 -0.110634945 -0.11975309 0.22534482 -0.048706505 -0.05565359 0.074007176 -0.049355675
-0.1746222 -0.14353576 0.005631553 -0.02597244 0.083191104 0.15148798 0.088508666 -0.14049529
00000000: 7d6f 03be 19f9 22bd 3818 d23d d806 a73c
00000010: 882b a53d 7f55 0fbe 8c99 efbd d79b 03bc
00000020: e163 243e 864d 803e a42e 38bd 799a 293e
00000030: 9961 d63d bc67 90bd 2281 d63b 3e1b 313d
00000040: b31d 263d 99f2 febd 3bef 47bd 62e4 183e
00000050: 8f89 0d3e f4d7 733e c7d5 c7bd 992b b5bd
00000060: c8d2 81bd aa32 02be ad44 ab3d 6348 acbd
00000070: 0ae6 04be a6d1 fc3d 5669 5b3d 5371 21bd
00000080: 5634 e0bc 5969 bb3d 47b5 68bc 8007 e33d
00000090: 545e e73b 8118 bbbd b9f8 923e b8cf 1cbd
000000a0: 02f4 02bd 2ef2 9f3e 3fe8 263e 4c42 38bd
000000b0: 2c2c 1bbd 3a93 aabd 2cde d23d 4824 18be
000000c0: bcdd 593d 9394 e2bd 1c41 f5bd cbc0 663e
000000d0: 7980 47bd 05f5 63bd 1391 973d 2d29 4abd
000000e0: 29d0 32be 0afb 12be e488 b83b 28c4 d4bc
000000f0: 1960 aa3d aa1f 1b3e 0844 b53d ffdd 0fbe

output.weight f4 [4, 64]
-0.1865623 0.2103831 0.19230348 0.21143855 0.14225972 0.08249588 0.19462028 -0.13540322
0.119326234 0.08452795 -0.05551126 0.252 0.16438057 0.025588594 0.25990042 -0.102862395
0.07686044 0.26855126 -0.014181588 0.15039578 0.048696518 0.20687105 0.22233987 -0.23192087
0.12802584 -0.077158324 -0.20144393 -0.056677323 -0.42119154 0.18955036 -0.06679665 0.14969823
0.09318393 0.25022426 0.038298037 -0.07072137 0.15932263 -0.45189583 0.104039796 0.120447874
0.16763313 0.08982265 0.072272174 0.047732715 -0.027872875 0.026545817 0.12598991 0.13103119
-0.10653703 0.15186457 -0.09091737 0.3081844 0.214331 0.043197926 0.18118398 -0.007568502
-0.21135613 0.05994867 0.39851707 0.036109675 -0.22761077 0.13973568 0.34666112 0.13689376
0.08105668 0.17186117 0.20303157 0.18007377 0.11461998 0.12523533 0.03911076 -0.24028742
0.023389015 0.11935963 0.11071159 0.2017768 0.0050198077 0.106463194 0.3472034 0.32908127
0.065269284 -0.09881983 -0.3932304 0.065997764 0.030776527 0.26877117 0.11834727 -0.087301955
0.17924266 -0.05151606 -0.051325556 -0.005438774 -0.11710959 0.21076775 -0.037246197 0.16698675
0.14888087 0.08200182 0.15442441 -0.0041387402 0.14972077 -0.12473979 0.15187079 0.022506744
0.11581989 0.11593955 0.020577528 0.12310597 -0.23452751 -0.16217043 0.105733484 0.121325694
-0.026389377 0.3189894 0.0013733549 0.14447743 0.370674 0.14293115 0.1218041 0.2713039
-0.12584515 -0.2820423 0.17416552 -0.020972582 -0.06024086 -0.08671575 0.15872118 0.023800781
-0.14061514 0.04982232 0.17800933 0.28761 0.2606671 -0.41516474 0.39916998 0.028057735
0.029647369 0.09968101 -0.13594657 0.2764465 0.14360984 -0.07428981 -0.24393947 0.28513497
0.27158517 -0.2407798 -0.26937976 0.08890984 0.10049612 0.24674566 -0.14448667 0.21799769
0.27724168 0.05935725 -0.122081846 -0.019114926 0.13968222 0.12235359 0.2119821 -0.08951131
-0.09129754 0.07873587 0.18991877 0.24490048 -0.05198757 -0.46924034 0.20551144 -0.27881005
0.36840215 0.12033983 0.16535988 0.2287138 -0.1485262 -0.12687922 0.13926136 0.35040075
0.16818571 0.012392504 0.0438927 0.28635788 -0.23969316 0.15102208 0.21412754 0.031112896
-0.17405668 -0.1809423 0.42770034 0.050253548 -0.20781249 0.11651047 -0.06444473 -0.14244069
0.089015216 0.2995309 0.16376011 -0.03838191 0.25842783 0.2604065 -0.08953295 -0.050967317
0.13201353 0.16964556 0.13350202 0.12677029 0.21276632 0.28381664 0.31233776 -0.019816002
0.22295962 -0.0058563584 -0.29278532 0.10947101 0.01470417 0.2051257 0.09143004 -0.19063239
-0.13766424 -0.091910064 -0.12302525 0.027731005 -0.3993522 -0.0082441075 0.35752776 0.05995434
0.028537836 0.12947312 -0.088330366 -0.08467957 0.119401254 -0.047849778 0.1350154 0.047959406
0.19054095 0.19828233 0.21249941 -0.054995835 -0.17788272 -0.14830182 0.07629552 -0.14793363
0.036367226 -0.21503271 0.31924152 0.20075732 0.26313332 0.2812877 0.17887771 0.41680416
-0.043306988 0.108336724 0.05470911 -0.07335748 -0.12434096 -0.032733258 -0.042190637 0.10634936
00000000: 300a 3fbe ab6e 573e 34eb 443e 5983 583e
00000010: 88ac 113e 9af3 a83d 8a4a 473e 24a7 0abe
00000020: 5061 f43d fd1c ad3d c65f 63bd 2506 813e
00000030: 6153 283e 2c9f d13c ab11 853e 85a9 d2bd
00000040: 0269 9d3d 8d7f 893e e459 68bc 5a01 1a3e
00000050: 0076 473d 01d6 533e 10ad 633e aa7c 6dbe
00000060: 3519 033e 2f05 9ebd 5147 4ebe 7b26 68bd
00000070: 6ba6 d7be 7d19 423e afcc 88bd 7e4a 193e
00000080: 37d7 be3d 651d 803e 67de 1c3d 5ed6 90bd
00000090: 7925 233e e45e e7be d112 d53d 60ad f63d
000000a0: 05a8 2b3e f0f4 b73d 6f03 943d 6183 433d
000000b0: a855 e4bc 9d76 d93c 8003 013e 0a2d 063e
000000c0: 1630 dabd 6382 1b3e e332 babd 58ca 9d3e
000000d0: 9679 5b3e 4ff0 303d 4b88 393e 3201 f8bb
000000e0: be6d 58be bd8c 753d 6e0a cc3e bde7 133d
000000f0: cc12 69be df16 0f3e 917d b13e e12d 0c3e
00000100: 0b01 a63d 60fc 2f3e 82e7 4f3e 4265 383e
00000110: e1bd ea3d b13d 003e 9b32 203d e80d 76be
00000120: 529a bf3c d272 f43d c2bc e23d 949e 4e3e
00000130: 337d a43b 6009 da3d a5c4 b13e 577d a83e
00000140: e7ab 853d 0d62 cabd 7f55 c9be d629 873d
00000150: 0e1f fc3c 609c 893e 0e60 f23d 5ecb b2bd
00000160: 638b 373e 8102 53bd bf3a 52bd be37 b2bb
00000170: 27d7 efbd 80d3 573e 788f 18bd 93fe 2a3e
00000180: 3a74 183e 92f0 a73d 6f21 1e3e 459e 87bb
00000190: 6750 193e 9377 ffbd 0484 1b3e 1060 b83c
000001a0: fa32 ed3d b771 ed3d 3492 a83c fc1e fc3d
000001b0: fb27 70be 0110 26be cc8a d83d 9b79 f83d
000001c0: 892e d8bc 9452 a33e 2502 b43a e4f1 133e
000001d0: fcc8 bd3e 8b5c 123e 6e74 f93d 58e8 8a3e
000001e0: 8ddd 00be d967 90be 7258 323e b1ce abbc
000001f0: 1fbf 76bd 0798 b1bd ce87 223e dbf9 c23c
00000200: 6afd 0fbe 7d12 4c3d 1448 363e 9e41 933e
00000210: 2876 853e 7990 d4be 0260 cc3e 56d9 e53c
00000220: 0adf f23c 8f25 cc3d 9435 0bbe 658a 8d3e
00000230: 750e 133e 4225 98bd 45cb 79be 36fd 913e
00000240: 360d 8b3e fb8e 76be 25ec 89be 5d16 b63d
00000250: e9d0 cd3d e5aa 7c3e 50f4 13be c93a 5f3e
00000260: 9ff2 8d3e 9620 733d 0c06 fabd e896 9cbc
00000270: db08 0f3e 8594 fa3d d611 593e b551 b7bd
00000280: 34fa babd 4640 a13d 117a 423e 31c7 7a3e
00000290: ebf0 54bd 4540 f0be 9771 523e 31c0 8ebe
000002a0: 359f bc3e bb74 f63d 1a54 293e f333 6a3e
000002b0: 4117 18be a0ec 01be 889a 0e3e ba67 b33e
000002c0: e038 2c3e ee09 4b3c d5c8 333d 809d 923e
000002d0: 2072 75be 88a5 1a3e 4044 5b3e 79e0 fe3c
000002e0: ea3b 32be f048 39be 8afb da3e aad6 4d3d
000002f0: cccc 54be 0b9d ee3d 99fb 83bd f9db 11be
00000300: 9c4d b63d 1d5c 993e bbb0 273e 5a36 1dbd
00000310: a750 843e 0054 853e 0d5d b7bd 1bc3 50bd
00000320: 8e2e 073e 91b7 2d3e c1b4 083e 12d0 013e
00000330: 6adf 593e 6a50 913e bcea 9f3e 2b55 a2bc
00000340: 874f 643e b2e6 bfbb f5e7 95be 5632 e03d
00000350: c2e9 703c 790c 523e ac3f bb3d 2335 43be
00000360: dbf7 0cbe 583b bcbd aaf4 fbbd 222c e33c
00000370: e477 ccbe 4b12 07bc e10d b73e af92 753d
00000380: 2ec8 e93c 9a94 043e 8de6 b4bd 7b6c adbd
00000390: a588 f43d 21fe 43bd 7a41 0a3e 1571 443d
000003a0: 2b1d 433e 860a 4b3e 7299 593e 5043 61bd
000003b0: e326 36be 6fdc 17be d340 9c3d ea7b 17be
000003c0: cdf5 143d 8931 5cbe a073 a33e 5493 4d3e
000003d0: 69b9 863e f104 903e b82b 373e 5b67 d53e
000003e0: ab62 31bd a5df dd3d a916 603d 723c 96bd
000003f0: 79a6 febd 4f13 06bd 17d0 2cbd b1cd d93d

output.bias f4 [4]
0.17074521 0.1997532 0.0422191 0.098166086
00000000: d5d7 2e3e 1a8c 4c3e efed 2c3d 4d0b c93d
