p1_navigation/dueling_network.pth (torch_old, 46136 bytes, 9 tensors)

feature_layer.0.weight f4 [64, 37]
0	0xbebafd8a	-0.3652156
1	0x3e6bbbf3	0.23020916
2	0x3ccd85cc	0.025088213
3	0xbd43daa6	-0.04781594
4	0xbe853a26	-0.26020926
5	0x3c8211ea	0.015877683
6	0xbc4a362e	-0.012342019
7	0x3e1995ec	0.14998597
8	0x3e06c6c5	0.13161762
9	0xbd0d27ea	-0.034461893
10	0x3d202755	0.03910001
11	0x3cf07205	0.029351244
12	0xbe935d60	-0.28782177
13	0xbd2eb6b8	-0.042654723
14	0xbe72be4e	-0.23705408
15	0xbb96c499	-0.004601073
16	0x3dd9da89	0.106373854
17	0x3dc93f89	0.098265715
18	0xbc704adb	-0.014666284
19	0xbea4c0f5	-0.32178465
20	0x3e2bed1d	0.1678967
21	0x3ddd2db9	0.107997365
22	0x3d6ac84c	0.057319924
23	0xbd4d54f3	-0.050129842
24	0xbe266baa	-0.16252008
25	0xbdb6aad4	-0.08919302
26	0x3e86b7f9	0.26312235
27	0xbe2a0e69	-0.1660706
28	0xbd4541b2	-0.048158355
29	0xbda80435	-0.082039274
30	0xbe256c6d	-0.16154642
31	0x3e1ec45c	0.15504593
32	0xbdd5f30b	-0.104467474
33	0x3e1c2950	0.15250134
34	0xbe2ce32c	-0.16883534
35	0xbccb4167	-0.02481146
36	0xbc449750	-0.011998966
37	0x3e07ff99	0.13281097
38	0x3d15d655	0.036581356
39	0x3e3723af	0.17884706
40	0xbd81ae35	-0.063320555
41	0xbe9f4a24	-0.31111252
42	0xbddc43e1	-0.107551344
43	0xbdb274fa	-0.08713718
44	0xbd779ccf	-0.06045228
45	0xbd9dd5d6	-0.077068016
46	0x3d76657c	0.060155377
47	0x3d491b99	0.049098585
48	0xbd530701	-0.05152035
49	0x3cc327ed	0.023822749
50	0x3dd4e714	0.10395637
51	0x3e30966b	0.1724488
52	0x3d4b5e0c	0.049650237
53	0x3df72e68	0.12069398
54	0x3c87e397	0.016588015
55	0xbe0add9c	-0.135611
56	0xbda22cbd	-0.079186894
57	0xbe63ea19	-0.2225727
58	0xbcf3a9ef	-0.029744117
59	0x3c23eb11	0.010004775
60	0xbdc3b261	-0.095555075
61	0x3e98c756	0.2983958
62	0xbd615b7f	-0.055018898
63	0xbe6358a5	-0.22201784
64	0x3e5e5d39	0.21715249
65	0xbb0a505e	-0.0021105031
66	0xbd2be226	-0.04196372
67	0x3e2b37a3	0.16720442
68	0x3e71a366	0.23597488
69	0xbdc11a95	-0.09428898
70	0xbec0914d	-0.37610856
71	0xbf3b6fee	-0.73217666
72	0x3dc95e02	0.09832384
73	0x3cad3c21	0.021146836
74	0x3eb0df88	0.3454554
75	0xbd544c71	-0.051830713
76	0x3ddc9f8b	0.10772618
77	0xbe44a3e6	-0.19203147
78	0x3c3b3950	0.011427239
79	0xbdb7ce94	-0.089749485
80	0xbe2767d0	-0.16348195
81	0x3e57696e	0.21036312
82	0x3e706b67	0.2347847
83	0xbea6f61d	-0.32609645
84	0x3dba0852	0.09083618
85	0xbda2c6de	-0.07948087
86	0x3b7b77dd	0.0038371005
87	0xbd921592	-0.071330205
88	0xbeb30ca5	-0.34970585
89	0xbd94fa95	-0.07274357
90	0xbd5b2deb	-0.053510588
91	0x3d3b4f0b	0.045729678
92	0x3e9ac647	0.302294
93	0xbd7feae8	-0.062479883
94	0xbe25afe9	-0.16180386
95	0xbe34ccb1	-0.17656209
96	0x3e93f5ee	0.28898567
97	0xbe08a5fa	-0.13344565
98	0xbe4d8a4c	-0.20072287
99	0xbd8586ef	-0.06519877
100	0x3d9fbcc0	0.07799673
101	0x3db18bfc	0.08669278
102	0x3defdf8c	0.1171256
103	0x3e06d966	0.13168868
104	0xbdbd64db	-0.09247752
105	0xbd067270	-0.03282398
106	0xbdabfab7	-0.083974294
107	0xbdb0386a	-0.0860451
108	0x3e06f947	0.1318103
109	0xbd2840f7	-0.04107758
110	0xbd84fefe	-0.064939484
111	0x3e4a201b	0.1973881
112	0xbe83e9c3	-0.25764284
113	0x3e84fc71	0.25973848
114	0xbd98cf56	-0.07461421
115	0xbebc0f78	-0.36730552
116	0xbcc5ad04	-0.024130352
117	0x3d13d307	0.036089923
118	0xbc5c88fa	-0.013460392
119	0x3d05c0a4	0.03265442
120	0x3da1ceba	0.07900758
121	0x3e249c35	0.16075213
122	0xbec9700d	-0.393433
123	0x3cd44206	0.025910389
124	0xbe235435	-0.15950091
125	0xbece0c15	-0.40243593
126	0x3b9a8fe1	0.0047168587
127	0x3c821079	0.015876995
128	0xbdc5a3e5	-0.09650401
129	0xbea208e9	-0.31647423
130	0x3dc4b192	0.09604181
131	0xbd3e8142	-0.04650999
132	0xbd97cf6f	-0.07412612
133	0x3caa256a	0.020769794
134	0x3e8bf68a	0.27336532
135	0xbd65e54f	-0.05612689
136	0xbd23c9db	-0.039987426
137	0x3ca6d430	0.02036485
138	0x3daf54a8	0.08561069
139	0x3dbfc9cc	0.093646616
140	0x3e24182e	0.16024849
141	0x3e1d96e3	0.1538959
142	0x3e313192	0.17304066
143	0xbe1ad16a	-0.15118948
144	0xbdfaa1bd	-0.122378804
145	0xbe0bf76a	-0.136686
146	0x3ddcfd14	0.10790458
147	0xbd24d4a7	-0.040241864
148	0xbe10d200	-0.14142609
149	0xbe1eee85	-0.15520675
150	0xbcffbadf	-0.031217037
151	0xbe46002a	-0.19336
152	0xbdc87ccb	-0.09789427
153	0x3e36fc55	0.17869695
154	0x3e713df9	0.23558797
155	0xbf01e56c	-0.50740695
156	0x3d179fc1	0.037017588
157	0xbf0ee229	-0.55813843
158	0x3c0ff93d	0.00878745
159	0xbd993b7b	-0.07482048
160	0x3b12995c	0.0022369241
161	0xbd96336b	-0.07334026
162	0x3d079b78	0.03310725
163	0xbd8e0b37	-0.06935733
164	0xbde45cd2	-0.111505166
165	0x3e0b0a88	0.13578236
166	0xbe861b3a	-0.26192647
167	0x3e072c38	0.13200462
168	0xbdd21a17	-0.102588825
169	0xbd52a940	-0.05143094
170	0x3e113530	0.14180446
171	0xbd38f17c	-0.045152172
172	0x3e92c253	0.28663883
173	0x3e824583	0.25443658
174	0xbe924664	-0.2856933
175	0xbde4f13a	-0.11178823
176	0xbd5f9123	-0.054581773
177	0xbcc66293	-0.024216926
178	0x3e016fa5	0.12640245
179	0xbd5b1f2e	-0.053496532
180	0xbb8dbdad	-0.0043255896
181	0x3dcbe31b	0.09955426
182	0x3e4da166	0.200811
183	0x3dd5bd76	0.104365274
184	0x3ac6be0a	0.0015162837
185	0xbc9befb6	-0.019035202
186	0x3d906b1a	0.07051678
187	0xbcc06557	-0.023485823
188	0xbd23a95a	-0.039956428
189	0x3e276066	0.16345367
190	0x3e8cdc9c	0.27512062
191	0x3d1e406b	0.038635653
192	0xbe98b35a	-0.29824334
193	0xbea5c906	-0.3237993
194	0xbfaad7cb	-1.3347105
195	0xbcdc2746	-0.026874196
196	0xbcc244e5	-0.023714492
197	0x3d67e3c4	0.0566137
198	0xbd89736a	-0.067114666
199	0xbd66ea56	-0.056375824
200	0xbd05a077	-0.032623734
201	0x3e4eb929	0.2018782
202	0xbdff080f	-0.12452709
203	0xbceee21f	-0.029160557
204	0x3c271919	0.010198855
205	0x3cda9db1	0.026686521
206	0x3dce3465	0.10068587
207	0x3e05975b	0.13046019
208	0x3dfa4e3a	0.12221952
209	0xbbbd3e99	-0.0057752845
210	0xbd0e50d1	-0.03474504
211	0x3d8df619	0.06931705
212	0x3d715af6	0.058924638
213	0xbc0d0ace	-0.008608533
214	0xbcad7ac6	-0.021176707
215	0x3c0b3061	0.008495421
216	0x3d8bc4a8	0.068246186
217	0xba963f8b	-0.0011463029
218	0x3e1902e8	0.14942515
219	0xbd904ffe	-0.07046507
220	0x3cdd6cff	0.027029512
221	0x3c324fcd	0.010883284
222	0x3da8414d	0.0821558
223	0x3c3ce080	0.011528134
224	0xbd8b8e3e	-0.0681424
225	0xbca81cbb	-0.020521512
226	0x3c2ad684	0.010427121
227	0xbd4c8dd0	-0.04993993
228	0xbd2296a2	-0.039694436
229	0xbc826648	-0.015917912
230	0xbc850632	-0.016238306
231	0x3d33edae	0.04392784
232	0x3debab82	0.11507322
233	0x3e0ef5e7	0.13960992
234	0x3d448d3c	0.047986254
235	0xbe37f4bc	-0.17964453
236	0xbd3bbd82	-0.045835026
237	0x3d78f068	0.060776144
238	0xbe2d2195	-0.16907342
239	0xbd9c1875	-0.07621852
240	0xbc6ab610	-0.014325634
241	0x3dd18741	0.10230876
242	0xbe14e9de	-0.14542338
243	0x3d0b8e6e	0.03407138
244	0x3e4f98cb	0.2027313
245	0xbe55006e	-0.20800945
246	0x3ef6afd5	0.48181024
247	0xbe3ef70b	-0.18648927
248	0xbcb185ad	-0.021670187
249	0xbcb08f2f	-0.02155265
250	0x3cec979e	0.02888089
251	0x3d91c101	0.07116891
252	0x3e7e7777	0.2485026
253	0xbddf3a20	-0.10899758
254	0xbe4b910b	-0.19879548
255	0x3b63833e	0.0034715678

feature_layer.0.bias f4 [64]
0	0x3e49d569	0.19710316
1	0x3c961fc9	0.018325703
2	0xbdfb1a3c	-0.12260863
3	0xbd58a476	-0.052891217
4	0x3e272406	0.16322336
5	0x3cf4e3a5	0.029893706
6	0xbda27d09	-0.07934005
7	0x3c4f67e9	0.012659051
8	0x3bb8f744	0.0056447107
9	0xbe0dad0d	-0.13835545
10	0x3e20a656	0.15688452
11	0x3deefaf1	0.11668957
12	0x3e300eb4	0.17193109
13	0x3dc06359	0.09393949
14	0xbd0985aa	-0.033574738
15	0xbd9c4944	-0.07631162
16	0x3d9592e1	0.073034056
17	0x3d0e09c9	0.0346773
18	0xbcc77a07	-0.02435018
19	0xbe580c46	-0.21098432
20	0xbc9c31f5	-0.01906679
21	0x3c8674a8	0.016413048
22	0xbc902938	-0.01759778
23	0xbc6430ec	-0.0139276795
24	0xbd1243d5	-0.03570922
25	0x3cfb0fec	0.03064724
26	0xbc872ce9	-0.016500907
27	0xbe2c150e	-0.16804907
28	0x3e0c0811	0.13674952
29	0x3dd6b4e5	0.10483722
30	0xbc9a9c1e	-0.01887327
31	0xbe252878	-0.16128719
32	0x3e35870e	0.177273
33	0xbbd66758	-0.0065430813
34	0xbde25685	-0.110516585
35	0x3d7621a7	0.060090687
36	0xbdae31ae	-0.085055694
37	0x394c5452	0.00019486368
38	0xbd5f03d5	-0.054447014
39	0xbdb08ff8	-0.0862121
40	0xbdbc0c5b	-0.09182044
41	0xbd24f6ae	-0.040274315
42	0xbe069ccf	-0.13145755
43	0x3dfd9aff	0.12383079
44	0x3d479727	0.048728134
45	0xbdd90527	-0.10596686
46	0xbbb7023d	-0.0055849836
47	0xbd3292e9	-0.043597136
48	0xbe2c4f27	-0.16827069
49	0x3d553754	0.052054718
50	0xbdd00a46	-0.101582095
51	0x3d997e8a	0.074948385
52	0xbd27913c	-0.04090999
53	0xbd63faf9	-0.055659268
54	0xbe26bada	-0.16282216
55	0x3c3bda19	0.011465573
56	0x3d99eb64	0.075156
57	0xbd8ff8f3	-0.07029905
58	0xbe0a95ed	-0.13533755
59	0xbe0b5b09	-0.13608946
60	0x3d06d3e2	0.03291691
61	0x3d31b37f	0.04338407
62	0xbcacc500	-0.02109003
63	0x3d438613	0.047735285

value_layer.0.weight f4 [64, 64]
0	0xbe7cdc2b	-0.24693362
1	0xbd70b8a3	-0.058769833
2	0x3e816fb0	0.25280523
3	0xbe64fa22	-0.22361043
4	0x3e84d77f	0.2594566
5	0xbdfbc161	-0.122927435
6	0xbe77ccb4	-0.24199182
7	0x3e6fb59d	0.23409124
8	0xbe97504d	-0.29553452
9	0xbd381ec8	-0.04495123
10	0x3db5f653	0.08884873
11	0xbf07da1e	-0.53067195
12	0x3e25f5c8	0.1620704
13	0x3edf9a44	0.43672383
14	0xbd91389d	-0.07090876
15	0xbd891dab	-0.06695112
16	0xbcee83f3	-0.029115653
17	0xbe5259c1	-0.20542051
18	0xbed467ca	-0.41485435
19	0xbec79015	-0.38977113
20	0xbebfe735	-0.37481084
21	0xbdd8e7dc	-0.10591099
22	0x3dee6741	0.11640788
23	0xbd8f9b36	-0.07012026
24	0xbe7bdd5d	-0.24596162
25	0xbe15d32e	-0.1463134
26	0x3e461b18	0.19346273
27	0xbd5848ce	-0.052803807
28	0x3e59952d	0.21248312
29	0xbea73c9b	-0.32663426
30	0x3e248c6f	0.16069196
31	0x3e05830f	0.13038276
32	0xbe823d86	-0.25437564
33	0x3e88b35f	0.2669935
34	0xbda26149	-0.07928712
35	0xbdbdb660	-0.09263301
36	0xbe93dd50	-0.28879786
37	0x3e449aaa	0.19199625
38	0xbd4470d1	-0.047959153
39	0xbebc4971	-0.3677478
40	0xbe4d2c91	-0.20036532
41	0xbe83e57e	-0.25761026
42	0x3c3790ba	0.011203939
43	0xbe08071c	-0.13283962
44	0xbe48d897	-0.19613872
45	0xbda26fc7	-0.07931476
46	0xbe5efc5c	-0.21775955
47	0x3da5ac8f	0.080895536
48	0xbe65aa25	-0.22428186
49	0x3c3881f7	0.011261455
50	0xbe997552	-0.2997232
51	0xbe92906a	-0.28625804
52	0xbf07202d	-0.5278347
53	0x3c4baada	0.012430871
54	0xbd61fbab	-0.05517165
55	0x3df8bc52	0.12145294
56	0xbea2a665	-0.31767574
57	0xbed294a6	-0.41129035
58	0xbdc5fefb	-0.09667774
59	0xbebf0647	-0.37309477
60	0xbd8a6fef	-0.06759631
61	0x3de311e0	0.11087394
62	0xbd45de12	-0.048307486
63	0xbdde347d	-0.10849855
64	0xbdf0135d	-0.11722443
65	0x3e027ea0	0.12743616
66	0xbe03b444	-0.12861735
67	0xbcb30c30	-0.021856397
68	0x3d66c48d	0.05633979
69	0x3cd86f49	0.026420252
70	0xbe08d31b	-0.1336178
71	0x3d67b25a	0.056566574
72	0xbdce4a0c	-0.10072717
73	0x3d84ef60	0.0649097
74	0x3e587a17	0.21140324
75	0x3d71c358	0.059024185
76	0xbdbc3076	-0.09188931
77	0x3d31d981	0.04342032
78	0xbc256c9f	-0.010096698
79	0x3e04c532	0.12965849
80	0x3db642cf	0.088994615
81	0x3e0e1a71	0.13877274
82	0xbe57de2d	-0.21080847
83	0x3d8af02f	0.06784093
84	0x3d7e0151	0.062012974
85	0xbea09262	-0.3136168
86	0x3c9ad0f6	0.018898468
87	0xbe32c4c0	-0.17457867
88	0x3dbd3064	0.092377454
89	0x3cc73d74	0.024321295
90	0xbe238856	-0.15969977
91	0xbe685e33	-0.22692184
92	0xbc979bc1	-0.018506886
93	0x3d28f252	0.04124672
94	0xbde901fb	-0.11377331
95	0xbd1617f3	-0.036643934
96	0xbd4cb6e2	-0.0499791
97	0xbdb94153	-0.09045663
98	0xbd2b530a	-0.04182724
99	0xbdb80ea1	-0.08987165
100	0x3d6e7c11	0.058223788
101	0xbe49f5d3	-0.19722681
102	0x3e53a008	0.20666516
103	0xbe201f3e	-0.15636918
104	0xbe054210	-0.13013482
105	0x3ce958b1	0.028484674
106	0xbdd2b040	-0.10287523
107	0xbe1c71b9	-0.15277757
108	0xbe4f7aaa	-0.20261636
109	0x3d083772	0.033256
110	0xbdf0f360	-0.1176517
111	0xbd1d32db	-0.038378578
112	0x3c88fe5d	0.016722852
113	0xbe266ef9	-0.1625327
114	0x3e866fc1	0.26257136
115	0x3e434782	0.19070247
116	0xbdcd1c15	-0.10015122
117	0x3dd8a810	0.105789304
118	0x3de5e7c4	0.112258464
119	0x3d747d7a	0.059689976
120	0xbe15f78a	-0.1464521
121	0x3d97223a	0.07379575
122	0xbd04a960	-0.03238809
123	0x3d439f1d	0.047759164
124	0xbe9245fe	-0.28569025
125	0xbe046b7c	-0.12931627
126	0xbde0399b	-0.10948487
127	0x3d1fc676	0.039007626
128	0xbdaa484e	-0.08314572
129	0xbe78c0d9	-0.24292316
130	0xbf13b2f8	-0.5769496
131	0xbdba6658	-0.09101552
132	0xbd1fa42e	-0.038974933
133	0xbe13c280	-0.14429665
134	0xbea00dde	-0.3126058
135	0xbbaeb9c4	-0.0053322036
136	0x3e3e2f6c	0.18572778
137	0xbd9a7acb	-0.07542952
138	0x3ddb4a35	0.10707513
139	0x3e878aaa	0.2647298
140	0x3db9e2a3	0.09076431
141	0x3e0e7d89	0.13915075
142	0xbb5d14a0	-0.0033734217
143	0x3d671618	0.056417555
144	0xbe877308	-0.2645495
145	0xbd08df8a	-0.03341631
146	0x3e8aea59	0.27131918
147	0xbe970057	-0.29492447
148	0xbe77b2c7	-0.24189292
149	0xbd3f532a	-0.04671017
150	0xbe30f9cb	-0.17282788
151	0x3e253257	0.16132484
152	0xbe2c76af	-0.16842149
153	0x3ca1d807	0.01975633
154	0x3e78742c	0.24263066
155	0x3df68bb3	0.12038364
156	0x3de0fe60	0.10986018
157	0x3e0fb364	0.14033276
158	0xbe22f2dc	-0.15912956
159	0x3caad677	0.020854218
160	0xbe7026f6	-0.23452362
161	0xbe0f9630	-0.14022136
162	0xbc3ee2b8	-0.011650734
163	0x3e6133ff	0.21992491
164	0xbc4fdd43	-0.01268703
165	0x3db19fd7	0.08673065
166	0x3e2dac19	0.16960181
167	0xbd1c93fa	-0.03822706
168	0x3d2b708f	0.04185539
169	0xbef42464	-0.47684014
170	0xbed63d48	-0.4184363
171	0xbe4980a4	-0.19677979
172	0xbdd85f94	-0.10565105
173	0x3d2b94ae	0.04188984
174	0xbcf6daed	-0.030133689
175	0xbf0b65c6	-0.5445217
176	0xbe814dd7	-0.252547
177	0xbdd56090	-0.104188085
178	0x3c0a9034	0.008457232
179	0xbe25bcac	-0.16185254
180	0xbeef3f7a	-0.46728116
181	0xbd092079	-0.033478234
182	0xbd9a8a3c	-0.07545897
183	0xbdc8e41e	-0.09809135
184	0xbe12e39e	-0.14344642
185	0xbe49219e	-0.1964173
186	0x3e18dbcb	0.14927594
187	0x3e5b1a05	0.21396644
188	0x3cd25343	0.025674468
189	0x3dcf2b5b	0.10115691
190	0xbe2a786c	-0.166475
191	0xbcd66d89	-0.026175277
192	0xbd191ec2	-0.03738285
193	0x3c436786	0.011926537
194	0xbe0ef1a3	-0.13959365
195	0xbe92f928	-0.28705716
196	0xbd591c72	-0.053005643
197	0xbd91fa8e	-0.07127868
198	0xbdf12188	-0.11773974
199	0x3cdc7e5c	0.026915722
200	0xbcc45db9	-0.023970472
201	0xbdfd0df7	-0.12356179
202	0xbde70c8f	-0.11281692
203	0xbd8a1509	-0.067422934
204	0xbe2dec27	-0.16984616
205	0x3e4641e0	0.19361067
206	0x3d620a17	0.055185404
207	0xbd85a70b	-0.065260015
208	0x3d63157d	0.055440415
209	0xbdc7e2eb	-0.09760078
210	0x3c286d1d	0.010279921
211	0xbe5530a7	-0.2081934
212	0x3dace823	0.08442714
213	0x3d98ccc1	0.07460929
214	0xbe07f085	-0.13275345
215	0x3dd8af38	0.10580295
216	0xbdecf1a2	-0.11569525
217	0xbdba39e8	-0.09093076
218	0x3d86a5dc	0.06574604
219	0x3e15f101	0.14642717
220	0x3d8ce4bc	0.06879565
221	0xbe7b6ccd	-0.24553223
222	0xbda62478	-0.081124246
223	0xbe579956	-0.21054587
224	0xbdc75ca9	-0.097344704
225	0x3df25e23	0.118343614
226	0xbe0d8467	-0.13820039
227	0xbd7673a9	-0.060168896
228	0xbe276e8b	-0.16350763
229	0x3e1f2dc5	0.15544803
230	0xbe004212	-0.12525204
231	0x3d7893d8	0.06068787
232	0xbea11553	-0.31461582
233	0x3da06daf	0.078334205
234	0xbdb5481e	-0.08851646
235	0xbdf5ee57	-0.1200835
236	0xbe22f850	-0.15915036
237	0x3da0a8ba	0.07844682
238	0x3cd9a213	0.02656654
239	0x3d99be2f	0.07506978
240	0xbcdeb22d	-0.02718457
241	0x3dd2a7f0	0.10285938
242	0xbda97931	-0.082750686
243	0xbde08de4	-0.109645635
244	0x3da1bfad	0.078978874
245	0x3e5152df	0.20441769
246	0x3ceaac53	0.028646624
247	0x3e096ded	0.1342084
248	0xbe39bde2	-0.18138841
249	0xbe2243f4	-0.15846235
250	0xbe157043	-0.14593606
251	0x3e770cd8	0.24125993
252	0xbeb4f6fa	-0.35344678
253	0x3d85b8d6	0.06529395
254	0xbed3e19f	-0.41383073
255	0x3d5207b5	0.05127688

value_layer.0.bias f4 [64]
0	0x3b8b8110	0.004257329
1	0xbb7d7c26	-0.0038678735
2	0x3c9a18dd	0.018810684
3	0xbd19d37f	-0.037555214
4	0x3da63321	0.08115221
5	0xbe249cfc	-0.1607551
6	0xbe0b73ec	-0.1361844
7	0x3d422f25	0.04740824
8	0x3ea40802	0.3203736
9	0x3ca21aac	0.019788109
10	0xbe339a1d	-0.17539258
11	0x3e170a89	0.14750113
12	0xbd02b313	-0.03190906
13	0xbe04111b	-0.1289715
14	0xbdbc7124	-0.09201267
15	0xbdab79dc	-0.08372852
16	0xbd7d84d1	-0.06189424
17	0xbc1f3592	-0.009717362
18	0xbe155764	-0.14584118
19	0x3e040e81	0.12896158
20	0x3eb30708	0.34966302
21	0x3c3eb9dc	0.011640992
22	0x3e20570a	0.15658203
23	0xbe0f90f3	-0.14020137
24	0xbe0124b0	-0.12611651
25	0xbe096f2a	-0.13421312
26	0x3c0f97e7	0.008764244
27	0xbdc86cd0	-0.09786379
28	0xbe2aec13	-0.16691618
29	0xbd08826c	-0.033327505
30	0x3d3e9366	0.04652729
31	0xbd5a86cf	-0.05335122
32	0x3e0a1415	0.13484223
33	0x3e41a2aa	0.18909708
34	0x3d6ccb07	0.05781081
35	0xbd4eb904	-0.050469413
36	0x3d0b8ae9	0.034068022
37	0xbe1b06b9	-0.15139283
38	0x3da8f396	0.08249585
39	0x3d9ed8ec	0.07756218
40	0xbdb0e9e1	-0.08638359
41	0x3e8ef2e6	0.27919692
42	0x3db85ddd	0.09002278
43	0x3d564661	0.052313212
44	0x3db59c7c	0.08867738
45	0xbdeeded3	-0.11663594
46	0xbb479e2f	-0.0030459275
47	0xbdfbeaa1	-0.12300611
48	0xbd241d85	-0.040067215
49	0xbe07df86	-0.13268861
50	0xbe3c16f6	-0.18368134
51	0x3e95daf3	0.29268607
52	0xbdc7009c	-0.09716913
53	0xbe221c22	-0.15831044
54	0x3e0212ca	0.1270248
55	0xbe17e41a	-0.14833108
56	0xbe471021	-0.19439746
57	0xbe4e5ff4	-0.2015379
58	0x3b340e4d	0.0027474344
59	0xbd2ee54f	-0.042699154
60	0x3aa8ad18	0.0012868969
61	0x3df23294	0.11826053
62	0x3eba62bc	0.36403453
63	0xbdfa491f	-0.12220978

value_layer.2.weight f4 [1, 64]
0	0xbeee1d16	-0.46506566
1	0x3e4d41a9	0.20044579
2	0x3ef23cd0	0.4731202
3	0xbea40800	-0.32037354
4	0x3ea5edf4	0.32408106
5	0xbe5560f2	-0.20837763
6	0x3dc85175	0.09781162
7	0x3dfc0b65	0.12306861
8	0x3e0d6f0b	0.13811891
9	0xbe218126	-0.15771922
10	0xbe03eb3c	-0.12882704
11	0x3e2f01af	0.17090486
12	0xbe916841	-0.28399852
13	0xbe594d7e	-0.21220967
14	0xbe791325	-0.2432371
15	0xbdb9a69d	-0.09064982
16	0xbea70721	-0.32622626
17	0x3ee6e70d	0.45098153
18	0xbdfc3d12	-0.12316336
19	0x3df4c918	0.11952418
20	0x3e199e0b	0.15001695
21	0xbe7ac87a	-0.24490538
22	0x3db23ad4	0.08702627
23	0xbf139c04	-0.57659936
24	0xbe108234	-0.14112169
25	0xbd412a01	-0.0471592
26	0xbe189c01	-0.14903261
27	0xbe1ceb7a	-0.15324202
28	0xbefcc564	-0.49369347
29	0xbe1aed36	-0.15129551
30	0xbe911d9a	-0.28342897
31	0x3e53bf42	0.20678428
32	0x3df715b1	0.12064684
33	0x3e1fc56e	0.15602657
34	0x3e5d78d3	0.21628122
35	0xbe8670b6	-0.26257867
36	0x3dba26d5	0.09089438
37	0xbe730af9	-0.23734654
38	0x3e0238e2	0.12717012
39	0x3e310282	0.17286113
40	0x3e1ebb3e	0.15501115
41	0x3dd15084	0.10220435
42	0x3e6de8e0	0.23233366
43	0x3dd7630d	0.10516939
44	0x3eac8291	0.33693364
45	0xbe47a7f6	-0.19497666
46	0x3e0007f3	0.12503032
47	0x3ebddc1a	0.37081987
48	0xbe06b8cd	-0.13156433
49	0x3e93d18e	0.28870815
50	0xbdba8378	-0.09107107
51	0x3df61a8d	0.12016783
52	0x3f084c83	0.5324175
53	0xbe2dc6b6	-0.16970333
54	0x3d8c33fc	0.06845853
55	0xbe1d573f	-0.15365313
56	0xbe315bbf	-0.17320155
57	0xbe79cb86	-0.24394044
58	0x3eebfcbe	0.46091264
59	0x3ee75bfe	0.45187372
60	0xbe6021c8	-0.21887887
61	0x3e1cd2e9	0.15314831
62	0x3e0a1388	0.13484013
63	0x3ee2334f	0.4417977

advantage_layer.0.weight f4 [64, 64]
0	0xbdddf1b3	-0.10837116
1	0x3e7fa87f	0.2496662
2	0xbd77b781	-0.060477737
3	0xbdfc3110	-0.123140454
4	0x3d596959	0.053078983
5	0x3d8d553e	0.06901024
6	0x3c07ee61	0.00829658
7	0xbd34de81	-0.04415751
8	0x3d4c00c4	0.049805418
9	0x3d8b7064	0.06808546
10	0x3e8f27d6	0.2796008
11	0xbdc8c7c5	-0.09803728
12	0x3d193978	0.037408322
13	0x3c8602ff	0.01635885
14	0x3dceba87	0.10094171
15	0xbd75daa2	-0.060022958
16	0xbd8a2b5f	-0.06746554
17	0xbcb5051d	-0.022097165
18	0x3d517e57	0.051145878
19	0xbe3f2c0f	-0.18669151
20	0x3d51d723	0.05123056
21	0xbe2d8783	-0.16946225
22	0x3e30e466	0.17274627
23	0xbea88934	-0.32917178
24	0xbce5b868	-0.028042033
25	0x3daa19a0	0.08305669
26	0x3d394bed	0.045238424
27	0x3e0677d7	0.13131653
28	0x3dc5a93b	0.09651419
29	0x3e3c27ce	0.1837456
30	0xbd9c5638	-0.076336324
31	0xbe759e71	-0.23986222
32	0xbdf2094e	-0.11818181
33	0xbc84089a	-0.016117383
34	0xbbe498df	-0.0069762315
35	0x3d005028	0.031326443
36	0xbdf13230	-0.11777151
37	0x3dd273c0	0.10275984
38	0xbd1a7b58	-0.037715286
39	0x3dd5b4fe	0.10434912
40	0xbdd5a54f	-0.10431921
41	0xbdde5983	-0.10856917
42	0x3dc3a13f	0.095522396
43	0xbd800ab0	-0.062520385
44	0xbe3dedb6	-0.18547711
45	0xbd58d936	-0.052941523
46	0xbdddb58e	-0.108256444
47	0x3d8cc4a1	0.068734415
48	0x3dca9964	0.09892538
49	0x3e2c2268	0.1681
50	0x3b122ddb	0.0022305164
51	0x3dd3155c	0.10306808
52	0x3d31fe3a	0.04345534
53	0xbd9ba726	-0.076002404
54	0x3df46602	0.11933519
55	0x3cb793f1	0.022409411
56	0xbce74138	-0.02822934
57	0x3d8fe3e9	0.07025892
58	0xbdf73c8e	-0.12072097
59	0xbd15a022	-0.036529668
60	0xbd8ed870	-0.06974876
61	0xbe35f7c7	-0.17770301
62	0x3d0b8b8d	0.034068633
63	0xbd7a6dbc	-0.061139807
64	0x3d5cdb12	0.05391986
65	0x3d7b116a	0.061295904
66	0x3d6d3304	0.05790998
67	0x3e42f05d	0.19037004
68	0x3cea13d7	0.028573913
69	0x3db65d05	0.08904461
70	0x3e371587	0.17879306
71	0xbe22065b	-0.15822737
72	0x3d1a1409	0.037616763
73	0xbd9263e6	-0.0714796
74	0x3e064453	0.13112001
75	0x3c44af0e	0.012004627
76	0xbecd9efc	-0.40160358
77	0x3c348ce0	0.011019915
78	0x3d6490e2	0.055802234
79	0xbdb5f3fb	-0.08884426
80	0xbe2fa533	-0.17152862
81	0xbcee7cd3	-0.029112255
82	0xbd271f70	-0.040801466
83	0xbd3a9311	-0.04555041
84	0x3e087508	0.13325894
85	0xbd3f1a3b	-0.046655875
86	0x3c1f3c36	0.009718945
87	0xbd08758c	-0.033315226
88	0xbde4ca1f	-0.11171364
89	0x3d3156c6	0.043295644
90	0x3e0bdd90	0.13658738
91	0x3e172c93	0.14763097
92	0x3da235e8	0.07920438
93	0x3c7006fd	0.014650104
94	0xbe6d93e8	-0.23200953
95	0xbe18cb33	-0.14921264
96	0x3dc82dd4	0.09774366
97	0x3eb7d41d	0.35904017
98	0x3f095fe5	0.5366195
99	0x3d6699db	0.05629907
100	0xbe16d5be	-0.14729974
101	0xbc8d2974	-0.01723168
102	0x3e2e9611	0.17049433
103	0x3e4f1b06	0.20225152
104	0x3e0358ef	0.12826894
105	0x3dd2d138	0.102938116
106	0x3ce902ed	0.028443778
107	0xbca1949d	-0.019724185
108	0x3e6edb7e	0.23325917
109	0x3e0b14d6	0.13582167
110	0x3d4d563d	0.05013107
111	0x3cf4b3c8	0.029870883
112	0x3b5e3a7d	0.0033909373
113	0x3ca41ce0	0.0200333
114	0x3e289f6f	0.16467069
115	0xbdac6a87	-0.08418756
116	0x3da73d41	0.0816598
117	0xbd84ae71	-0.064785846
118	0xbe24d7b5	-0.1609791
119	0xbcb28f67	-0.021796895
120	0xbdd81ac3	-0.105519794
121	0x3cf8fd43	0.030394202
122	0x3dc9a37d	0.09845636
123	0xbd6b21c7	-0.05740526
124	0x3d163a06	0.03667643
125	0xbdc8a9bb	-0.097979985
126	0xbe2dbbba	-0.16966143
127	0xbd0d74d6	-0.03453525
128	0x3e077a89	0.13230337
129	0xbe0a9e44	-0.13536936
130	0xbd6f2af5	-0.058390576
131	0x3d5e5ceb	0.054287832
132	0x3a48bccc	0.00076575275
133	0xbdb09a07	-0.086231284
134	0x3cfab303	0.030602938
135	0xbde758e8	-0.112962544
136	0x3e266236	0.16248402
137	0x3d96b4bc	0.07358691
138	0xbe068242	-0.13135627
139	0x3d2dba74	0.042414144
140	0x3c95ba73	0.018277382
141	0x3e2e3ddf	0.1701579
142	0xbd4f27e3	-0.05057515
143	0xbc377ea5	-0.011199628
144	0xbddfb64f	-0.109234445
145	0x3e632308	0.22181332
146	0x3d45ea0e	0.048318915
147	0xbdf2a3db	-0.11847659
148	0x3e434c02	0.19071963
149	0xbdf69ec6	-0.120420024
150	0xbe3be5e6	-0.18349418
151	0x3c4d144c	0.012517046
152	0xbe100658	-0.1406492
153	0x3c646d6d	0.013942105
154	0x3dbd81f7	0.092533045
155	0x3e61fb21	0.22068454
156	0xbd94b455	-0.07260958
157	0xbea5a355	-0.32351175
158	0xbddaccac	-0.10683569
159	0xbb6f7c57	-0.0036542618
160	0x3da5eff7	0.0810241
161	0x3d0d65ac	0.03452079
162	0x3ead3910	0.33832598
163	0xbdd49add	-0.103811
164	0xbd3bff8d	-0.04589801
165	0xbcfde409	-0.030992525
166	0xbc787b2b	-0.015166084
167	0x3b35945d	0.002770684
168	0x3e98b7f3	0.29827842
169	0xbb7b8867	-0.0038380863
170	0x3c0999d8	0.008398496
171	0xbd2f7be5	-0.042842764
172	0x3df25a12	0.11833586
173	0xbcfd2719	-0.030902432
174	0xbe129542	-0.1431475
175	0xbdf60513	-0.120126866
176	0xbc772757	-0.015085063
177	0x3e0de446	0.1385661
178	0xbed7a0e2	-0.4211493
179	0xbdf05ceb	-0.11736473
180	0x3cf0cad2	0.029393587
181	0x3ddffcb5	0.10936872
182	0xbd869dbc	-0.06573054
183	0xbdb77e17	-0.089595966
184	0xbe1bd3e5	-0.1521755
185	0xbe3682b6	-0.178233
186	0xbd882969	-0.06648523
187	0xbda9c601	-0.082897194
188	0x3d88fb56	0.066885635
189	0xbdd25bc1	-0.10271407
190	0x3d1301b5	0.0358903
191	0x3d6d1b1d	0.057887185
192	0xbd02771f	-0.031851884
193	0xbe95c5a7	-0.2925236
194	0x3b0b10fe	0.0021219845
195	0x3e394619	0.18093146
196	0xbe51617d	-0.20447345
197	0xbd6f171f	-0.05837166
198	0xbdcfd61a	-0.101482585
199	0xbb5efc3a	-0.003402485
200	0x3c6e1bdf	0.014533012
201	0xbe212094	-0.15735084
202	0xbe56e40a	-0.20985427
203	0x3e13b79c	0.1442551
204	0x3d3250b4	0.043533996
205	0xbca7c341	-0.020478847
206	0xbbb4b8d1	-0.005515196
207	0x3e104408	0.14088452
208	0x3bf16007	0.0073661837
209	0x3e8585ba	0.26078588
210	0x3d2b36a5	0.04180016
211	0xbe58dce4	-0.21178013
212	0x3db67837	0.08909648
213	0xbddd97b8	-0.10819954
214	0xbdc62374	-0.09674731
215	0x3e5f8c5d	0.21830888
216	0x3db5470a	0.0885144
217	0x3dd32179	0.10309119
218	0xbe2dc7c5	-0.16970737
219	0x3d4e99c4	0.05043961
220	0x3daa6161	0.08319355
221	0xbdd4bc80	-0.10387516
222	0xbe3e2cda	-0.18571797
223	0x3db382c3	0.08765175
224	0xbe74e97e	-0.23917195
225	0xbd833ffb	-0.06408688
226	0x3cebfd6d	0.028807366
227	0x3d892fac	0.06698546
228	0x3db01ab5	0.08598844
229	0x3d8bd1a6	0.06827097
230	0xbd865297	-0.065587215
231	0x3e017601	0.12642671
232	0xbe8bdf77	-0.27318928
233	0xbe23daae	-0.16001388
234	0xbe9168cc	-0.28400266
235	0x3e2504cd	0.16115113
236	0xbdf5ed0e	-0.12008105
237	0x3d208cab	0.03919665
238	0xbdf97fc6	-0.12182574
239	0xbd93f937	-0.07225268
240	0xbe64e78f	-0.22353958
241	0x3db60d4f	0.08889257
242	0x3e093dd5	0.13402493
243	0x3e3d4f50	0.18487287
244	0xbd3ad63d	-0.04561447
245	0x3cbd7b46	0.02313007
246	0xbda1432f	-0.078741424
247	0xbee13da0	-0.4399233
248	0xbdecea0a	-0.11568077
249	0xbcce9bdf	-0.02522081
250	0xbd9bf210	-0.07614529
251	0x3e44f613	0.19234495
252	0x3beda61e	0.0072524687
253	0x3e272bb8	0.16325271
254	0xbd99d37f	-0.07511043
255	0x3bdd688a	0.006756847

advantage_layer.0.bias f4 [64]
0	0xbd27b03c	-0.040939555
1	0xbdc68226	-0.096927926
2	0xbd3b1514	-0.0456744
3	0xbe0b786d	-0.13620158
4	0x3c92d128	0.017922
5	0xbd823977	-0.06358617
6	0xbde5cdf4	-0.11220923
7	0x3d8f7bfd	0.07006071
8	0x3d0985fc	0.033575043
9	0x3bcf2847	0.00632194
10	0xbd96affe	-0.073577866
11	0xbbee0c5f	-0.0072646583
12	0x3cabeddb	0.020987442
13	0xbd400576	-0.046880208
14	0xbd90e94e	-0.07075749
15	0xbd4910d6	-0.04908832
16	0xbe0eba6c	-0.13938302
17	0x3cfe5b50	0.0310494
18	0xbdde0b7f	-0.108420365
19	0xbd4a5416	-0.049396597
20	0xba95dca6	-0.0011433556
21	0xbd48c329	-0.049014244
22	0xbd1aaa80	-0.037760258
23	0xbdc9e3f7	-0.09857934
24	0x3db0668d	0.0861331
25	0x3dc049db	0.09389087
26	0xbcbf91ad	-0.023384893
27	0x3b56b23d	0.0032760047
28	0xbb4ba6b5	-0.0031074707
29	0xbdb05353	-0.08609643
30	0xbdbdfecb	-0.092771135
31	0x3a0009ec	0.0004884291
32	0xbe2d30a3	-0.16913085
33	0x3de8d82c	0.113693565
34	0x3db00d20	0.085962534
35	0xbd88012a	-0.06640847
36	0x3d266e94	0.0406328
37	0xbd923e51	-0.07140792
38	0x3d7ab4de	0.061207645
39	0xbd86b238	-0.06576961
40	0x3d19040e	0.037357382
41	0xbdc71ddf	-0.09722494
42	0xbe160896	-0.14651713
43	0x3d425e9e	0.047453515
44	0x3c16845e	0.009186832
45	0xbdd6ee08	-0.104946196
46	0x3d80e080	0.0629282
47	0xbd2f873a	-0.04285357
48	0x3e11ec4e	0.142503
49	0xbd555dc1	-0.052091364
50	0x3cc75968	0.024334624
51	0xbccfa837	-0.025348766
52	0xbd8cfc92	-0.068841115
53	0xbd4bf390	-0.049792826
54	0xbe5d1d99	-0.21593322
55	0x3d7556b7	0.05989715
56	0xbdda25a0	-0.10651708
57	0x3d7400b2	0.059570976
58	0xbdc971f3	-0.09836187
59	0xbd98f62c	-0.074688286
60	0xbcc5fc13	-0.02416805
61	0xbd05f59d	-0.03270494
62	0xbe39b823	-0.18136649
63	0xbd609878	-0.054832906

advantage_layer.2.weight f4 [4, 64]
0	0x3d12bac6	0.035822652
1	0xbd82eb86	-0.06392579
2	0x3d1da398	0.038486093
3	0x3aa00cb2	0.0012210815
4	0xbdb3f97b	-0.08787819
5	0xbd694b8c	-0.056956813
6	0x3c2bc607	0.010484225
7	0x3e1552dd	0.14582391
8	0xbdef94bf	-0.11698293
9	0x3dd91bb2	0.106009856
10	0x3d2ea282	0.04263545
11	0xbe0f428f	-0.13990234
12	0x3ce2e1ab	0.027695497
13	0xbdeb9f9a	-0.11505051
14	0x3de9db64	0.114187986
15	0x3df5495d	0.119768836
16	0x3ee49a0a	0.44648772
17	0xbeedb6f9	-0.4642866
18	0x3d2b9258	0.04188761
19	0x3e04b105	0.12958153
20	0x3c16c07c	0.009201165
21	0x3e874017	0.26416084
22	0xbf05fd63	-0.5233976
23	0xbd9e3525	-0.0772498
24	0x3cb30cda	0.021856714
25	0xbc8936bc	-0.016749732
26	0x3d7f9ee4	0.06240739
27	0x3e637a0c	0.22214526
28	0xbc3c2fe3	-0.011486026
29	0xbce0671f	-0.027392922
30	0x3be0e967	0.006863761
31	0x3e222f07	0.15838252
32	0xbe00c65b	-0.12575667
33	0xbdf93e94	-0.12170139
34	0x3c4a9a25	0.0123658525
35	0xbe7eb527	-0.24873792
36	0x3cd67179	0.026177155
37	0xbb873165	-0.0041257613
38	0x3cfacd04	0.030615337
39	0x3c868601	0.01642132
40	0xbda465b0	-0.08027208
41	0xbdbad67a	-0.091229394
42	0xbed629aa	-0.41828662
43	0xbd1a875f	-0.037726756
44	0xbe47d965	-0.19516523
45	0x3e27ed5e	0.16399142
46	0xbd83e83d	-0.0644078
47	0xbc99fc11	-0.018796952
48	0xbe4c9f51	-0.1998265
49	0xbde48411	-0.11158002
50	0x3dd1a043	0.102356456
51	0x3e33e7a8	0.17568839
52	0xbd2dbfaf	-0.04241913
53	0xbe6dffed	-0.23242159
54	0xbe2352ab	-0.15949504
55	0x3dde8ae8	0.10866338
56	0x3d33c3f6	0.043888055
57	0x3c398cd7	0.011325083
58	0xbeaae8fd	-0.3338088
59	0x3e0a1066	0.13482818
60	0x3d35fb16	0.044428907
61	0xbc2ad9e1	-0.010427923
62	0x3c9a067a	0.018801916
63	0x3cc1ef63	0.023673719
64	0x3acda25f	0.0015688649
65	0x3d3f796e	0.046746664
66	0x3dad1e24	0.084530145
67	0xbd66e905	-0.05637457
68	0xbe1e2768	-0.1544472
69	0xbc3f8087	-0.011688358
70	0xbd1b2f2a	-0.037886776
71	0xbe1e93d0	-0.15486073
72	0x3d37fd2b	0.044919174
73	0x3d8ff836	0.07029764
74	0x3e0239a4	0.127173
75	0xbd5ca35e	-0.053866737
76	0xbe23d994	-0.16000968
77	0xbf357693	-0.70884055
78	0x3e60e1f0	0.21961188
79	0x3de6f01b	0.11276265
80	0x3f05a707	0.5220799
81	0x3e3bdfbc	0.18347067
82	0x3cc628e0	0.024189413
83	0x3ef8cde8	0.48594594
84	0xbdaa96c5	-0.08329538
85	0xbd215d34	-0.039395526
86	0x3e376df8	0.17913043
87	0xbe0b1bc0	-0.13584805
88	0x3dcbd047	0.09951835
89	0xbc718cce	-0.014743043
90	0x3b91cf17	0.004449736
91	0xbea2ea2b	-0.3181928
92	0x3e2025df	0.15639447
93	0xbda667e8	-0.08125287
94	0x3b9fcf46	0.004877004
95	0x3d9cae1b	0.076503955
96	0xbdae9076	-0.085236475
97	0xbbb510d6	-0.0055256886
98	0x3d35266b	0.04422609
99	0x3e9ae45b	0.30252346
100	0xbd712b17	-0.058878984
101	0xbb3df471	-0.002898481
102	0xbd9bcee6	-0.07607822
103	0xbe175277	-0.14777552
104	0xbde4d00f	-0.111724965
105	0x3c90853a	0.017641652
106	0x3e657f37	0.2241181
107	0x3dc07577	0.09397405
108	0x3d913326	0.07089834
109	0xbec21bf2	-0.37911946
110	0xbd320882	-0.043465145
111	0x3d733344	0.059375063
112	0x3d8558c1	0.06511069
113	0xbe90b917	-0.28266212
114	0xbddd0517	-0.107919864
115	0x3e0f7d11	0.14012553
116	0x3e01d052	0.12677124
117	0x3e5283f7	0.20558153
118	0x3ee07c0d	0.43844643
119	0x3e0fb009	0.14031996
120	0xbe6fcaea	-0.2341725
121	0x3b91ac1f	0.0044455673
122	0x3f0345fd	0.5127867
123	0xbd256b18	-0.040385336
124	0x3e022f06	0.1271325
125	0xbe0891d1	-0.13336875
126	0x3e897130	0.26844168
127	0x3e67d088	0.22638142
128	0x3e2d2782	0.16909602
129	0x3e95a629	0.29228333
130	0x3e3ec8e2	0.18631318
131	0xbebee32a	-0.37282687
132	0xbead0b7f	-0.33797833
133	0xbde2af1e	-0.11068557
134	0x3ebb0c91	0.36533025
135	0xbede9c69	-0.43478706
136	0x3d0dd394	0.034625605
137	0x3d43568f	0.04768997
138	0x3e273f90	0.16332841
139	0xbd2188b3	-0.039437007
140	0x3da054d2	0.07828678
141	0x3f0ef78a	0.55846465
142	0xbe18b1ec	-0.14911622
143	0xbde910b0	-0.11380136
144	0x3e5897ba	0.21151629
145	0x3de51bde	0.11186956
146	0x3e455d40	0.19273853
147	0xbe3d51da	-0.18488255
148	0x3d8349f8	0.06410593
149	0x3dafaa1e	0.08577369
150	0x3f0fa541	0.5611153
151	0x3e3c83a9	0.184096
152	0x3ecba126	0.39771384
153	0xbd0f1374	-0.03493066
154	0xbc447f79	-0.0119932825
155	0x3dedf9fb	0.116199456
156	0xbdfbfe32	-0.12304343
157	0x3cfce75f	0.030872045
158	0xbe1803fe	-0.14845273
159	0xbdfabd9c	-0.12243196
160	0x3dd5f562	0.10447194
161	0x3db7c30b	0.08972748
162	0x3cc502c8	0.024049178
163	0x3d547579	0.051869843
164	0xbca849b0	-0.02054295
165	0xbe30dbc7	-0.17271338
166	0x3dc351e1	0.095371015
167	0xbe8a9828	-0.2706921
168	0xbe248916	-0.16067919
169	0xbec7d13a	-0.39026815
170	0xbe13b3be	-0.14424035
171	0xbeb4b2bf	-0.35292622
172	0x3a0a6bce	0.00052803464
173	0x3edb352a	0.42813998
174	0x3d9427f9	0.07234187
175	0x3eb6dd2b	0.35715613
176	0x3d18bc65	0.037289042
177	0x3cadfb94	0.021238126
178	0x3e2f6cfd	0.1713142
179	0xbe3f108f	-0.1865866
180	0xbe420ef0	-0.1895101
181	0xbe8d1aa3	-0.27559385
182	0xbea879c8	-0.32905412
183	0x3dcf07eb	0.10108932
184	0xbdad848b	-0.08472546
185	0x3e57ae4a	0.2106258
186	0x3edf2fa8	0.43591046
187	0xbd8f38e8	-0.06993276
188	0xbe266f1b	-0.16253321
189	0xbdcf592e	-0.101244316
190	0xbe29358b	-0.16524331
191	0xbe1c6e7c	-0.15276521
192	0xbda4fa0c	-0.08055505
193	0xbe20cb4d	-0.15702553
194	0xbe70d49e	-0.23518607
195	0x3e0e2ae7	0.13883553
196	0x3edaea1f	0.42756745
197	0x3da5a585	0.08088211
198	0xbdccb25b	-0.09994956
199	0x3e5537e0	0.20822096
200	0x3de7104c	0.11282405
201	0xbd547184	-0.05186607
202	0x3b44a28d	0.0030004114
203	0x3d6561f8	0.056001633
204	0x3e49c6cb	0.1970474
205	0x3db44cb9	0.08803696
206	0xbcec5543	-0.02884925
207	0xbe4a098d	-0.19730206
208	0xbf066437	-0.52496666
209	0x3e6ac50f	0.22926734
210	0xbe40d036	-0.18829426
211	0xbeb647ab	-0.35601553
212	0xbd96cdb4	-0.073634535
213	0xbea6c274	-0.3257023
214	0x3e812850	0.25226068
215	0xbdfc1ca7	-0.123101525
216	0xbef1486b	-0.47125563
217	0xbe0d85ac	-0.13820523
218	0xbe0db44d	-0.1383831
219	0x3ea9be51	0.33153012
220	0x3e0aab41	0.1354189
221	0xbd55637d	-0.052096833
222	0x3df5ac40	0.11995745
223	0x3d758a55	0.059946377
224	0x3d7f5870	0.0623402
225	0x3da7efc9	0.08200032
226	0xbdf4bcd0	-0.119500756
227	0xbd500dd4	-0.050794438
228	0x3d36ddb5	0.04464503
229	0x3e40e40f	0.18836997
230	0x3cb19473	0.021677231
231	0x3e2eb816	0.1706241
232	0x3e4d1d3e	0.20030686
233	0x3e9a7d58	0.30173755
234	0x3ebd4778	0.3696859
235	0x3e90bb47	0.2826788
236	0x3d531dd5	0.051542122
237	0x3e920c6f	0.2852511
238	0xbe326878	-0.17422664
239	0xbec60154	-0.38672888
240	0x3daf69e3	0.08565118
241	0x3e652311	0.22376658
242	0x3d868d40	0.0656991
243	0xbd83a2cc	-0.064275354
244	0x3e2aa43d	0.16664214
245	0x3dc41998	0.09575194
246	0xbeb93f37	-0.36181042
247	0xbc84cda1	-0.016211333
248	0x3e779159	0.2417654
249	0xbdd92dbf	-0.106044285
250	0xbce912a0	-0.028451264
251	0xbda0f8c2	-0.07859947
252	0x3e450c39	0.19242944
253	0x3e43d09c	0.19122547
254	0x3dd566c9	0.10419995
255	0xbd07aea3	-0.03312553

advantage_layer.2.bias f4 [4]
0	0x3e13e5ad	0.14443083
1	0x3d3a5279	0.04548881
2	0x3be1e770	0.0068940446
3	0x3d9efcf8	0.07763094
