p1_navigation/dueling_network_per.pth (torch_old, 46136 bytes, 9 tensors)

feature_layer.0.weight f4 [64, 37]
00000000: 9c3b a63d 29da ad3b 5935 02be dd74 97be
00000010: e425 86be 4e44 413c cca2 853c acdc 0abd
00000020: b115 793d e83c 02be 6eb5 3e3a 3ee0 ac3d
00000030: 1022 8fbe 684c 06bf 1137 88be 3632 893c
00000040: 700f 9fbc 3fe6 a8bc 9090 0ebd d485 ac3d
00000050: 8185 883b 316e 7f3e b489 8abe 45c7 1ebb
00000060: d1fb 44bd c816 983d 414f c43d aa63 a3be
00000070: 7bc5 1fbe c4b6 89be 673b cebd 6b0d a1bc
00000080: 90c4 353e 3742 72be 20b5 87be aa6a 41bd
00000090: c593 93bd e835 3c3e 842f ce3d 0457 6f3b
000000a0: 2b45 99bd 3f4d 94bd ba73 003d 9834 0bbe
000000b0: d719 2bbe 695b 41be 63ee 9cbe d1b3 653d
000000c0: 5b8e c2bd 4fa0 743d 9498 40bc 5368 613e
000000d0: 9297 fe3c adfb ccbc eb85 103e dc37 843d
000000e0: 757d 2a3e fccd c3bd e80e e7bd aceb 9bbd
000000f0: 04dd 15be b9dd f1bd a3d8 07be 314f 223d
00000100: 9a3c 213e 7233 e5bc 83e5 c7bd fa61 943c
00000110: c274 fb3d c0fd 443e 6e15 59be 1232 fb3b
00000120: 1c44 b43d 32f0 2e3d a05b b1bb 51ac c93d
00000130: dadb 1e3e 1bbc 2e3e 4388 0fbe 7d0e aa3d
00000140: 5029 0abe 1da5 0abd 6169 9a3e 1ec4 80be
00000150: 1d8b 9d3c dfd3 97bd 9716 0e3b 2cb2 013d
00000160: 4146 193e d5f1 773d d366 dd3c d229 53bb
00000170: da97 5b3e d0d9 dc3d e2ac aabe 2fc2 723c
00000180: ef92 ef3d ba54 7d3d 1f35 42be 9604 0dbe
00000190: 546a ea3d bf46 e73d 3750 4b3e c55c 733e
000001a0: 414d abbe 2fce ae3d ff1d cb3b 5d8e e9bd
000001b0: 3859 42be 2bea 993c 0c17 96bd 8ea6 a4be
000001c0: 5a6c e53c 419e 483e e5f1 4a3d 94f4 89be
000001d0: d5ad 01be 8080 b93d 02fd 0a3d 7e4c 4dbd
000001e0: bd34 523c 9f9d eb3d 3d40 56be cd14 febd
000001f0: cbab a9be 43d5 93be c853 62bc 1bfa 85be
00000200: 7d8f ea3b f20c 16be 98b1 0dbe 53b1 76bc
00000210: 7605 84be 2af3 cfbe 332f a63e 1e25 a6bc
00000220: ae8c fdbd 1942 72bd aa25 6d3d 874e 9b3e
00000230: 1346 bb3d d795 203e 0054 423e 58fd 97be
00000240: 7506 0fbf 4af6 81be 2500 2b3e b640 a83c
00000250: 46f4 75bd 0209 53be 0638 f7bd 3592 67bd
00000260: d806 55be 7f83 bb3d e1f9 68be 5ca4 8b3d
00000270: ac51 ddbd 6eac cdbf 43d6 17be a219 183e
00000280: b8db 23bd 9a2d 48bc 9201 92be cd2f 7abd
00000290: 8c40 39bd dd6f 2b3d cf52 a5be e83b 063e
000002a0: a6f8 1dbd 63c4 a03d b08f 853d d023 7abd
000002b0: 6d52 56be 5617 09be 10a2 0b3e 5c23 4c3e
000002c0: 5ac7 0ebe c5b9 d03d d0fc 883e 215a 0bbf
000002d0: cc59 6fbd 3e47 3bbe 2fb4 9dbf 8f15 983c
000002e0: 3200 bb3c ea52 d93c 42b8 93bc 29c8 85bd
000002f0: e305 be3d 7e1f 153e 7214 d93e 7c8e b1be
00000300: 42ff b0be 4f7f 04bf 0260 e6bf 0ba7 8bbd
00000310: 197f 9cbc 8bf6 513d 9987 8fbd 49fd 2b3e
00000320: 5077 873d 0d76 573c 4b48 58bd 66a8 7d3c
00000330: 01d2 5c3d 149f 313c 6e7c d93d 3b84 ec3d
00000340: 98f7 5d3e 8c91 8a3e 4bb8 2ebd f200 4e3d
00000350: 54ec 503d 647a 093e 210e 093e 990b 633d
00000360: 08b0 68b8 c09d 7bbd 77f3 b5bc adbb bd3a
00000370: c9a0 1b3d 3b0d 863c caec 813d 5a9e 81bd
00000380: cd3c 7c3c a715 05bd 3fa0 aabd 1b6f 8f3b
00000390: 245a 87bd f7cb 58be 585d 923d 670f 883e
000003a0: 6d8d 38be faae 803d aff1 413e 582f 96bd
000003b0: 056f 773e b1c2 e2bc 3a66 8ebe 361b 803e
000003c0: 89b0 9b3c 47e1 79bd 5a6a 6dbe b13b 833d
000003d0: af7a a93c 6baa ddbd 40c4 4d3e 2274 85be
000003e0: cf4c 353d b4cb 04be 11e9 c6bb 5709 29be
000003f0: 787c 3e3e e2e2 82bd 23eb 86be 73e8 bdbd
0.08116838 0.0053055477 -0.12715663 -0.29581347 -0.26200783 0.01179607 0.01631298 -0.033901855
0.060811702 -0.12718546 0.000727496 0.08441208 -0.27955675 -0.52460337 -0.26604512 0.016747575
-0.01941654 -0.020617602 -0.034805834 0.08423963 0.0041663055 0.24944378 -0.27058184 -0.002422766
-0.048091713 0.0742622 0.09585429 -0.31911975 -0.15602677 -0.26897252 -0.10069924 -0.019659718
0.17750764 -0.23658071 -0.26505375 -0.047220863 -0.07205919 0.18379939 0.10067657 0.0036520371
-0.07483896 -0.07241296 0.031360365 -0.13594282 -0.16709076 -0.18882526 -0.30650625 0.05607969
-0.094998084 0.059723195 -0.011755127 0.22012453 0.031078134 -0.025022352 0.14113586 0.06455967
0.1664942 -0.09560773 -0.1128214 -0.0761331 -0.14635092 -0.11809868 -0.13266234 0.039626304
0.15745774 -0.027978633 -0.09760573 0.018113125 0.12278129 0.19237423 -0.21199581 0.007665881
0.08802053 0.042709537 -0.005412534 0.0984732 0.15513554 0.17063944 -0.14016823 0.08303545
-0.13492322 -0.03384887 0.30158523 -0.25149626 0.019231373 -0.07413458 0.0021680945 0.03166406
0.14968206 0.060533363 0.02702657 -0.0032220972 0.21444646 0.10783732 -0.33335024 0.014816805
0.11697947 0.06184838 -0.18965577 -0.1377128 0.11446062 0.112927906 0.19854818 0.23765858
-0.33457378 0.0853542 0.006198644 -0.11404107 -0.18979347 0.018788418 -0.073286146 -0.3215832
0.028005768 0.19591619 0.049547095 -0.2694441 -0.12663968 0.090577126 0.033932693 -0.050121777
0.012829957 0.11504673 -0.20922942 -0.12406311 -0.3313888 -0.28873643 -0.01381392 -0.26167378
0.0071582184 -0.14653376 -0.13837278 -0.015056926 -0.25785416 -0.40615207 0.32457885 -0.02028137
-0.12380348 -0.059145067 0.057897247 0.3033335 0.09144225 0.1568216 0.18977356 -0.29685473
-0.5586923 -0.25383216 0.16699274 0.02053867 -0.06004741 -0.20608905 -0.120712325 -0.05653592
-0.20803392 0.0915594 -0.22751571 0.068184584 -0.10806593 -1.6068246 -0.14827828 0.14853528
-0.040004462 -0.0122179035 -0.28516823 -0.061080743 -0.045227572 0.041854728 -0.3228974 0.1310879
-0.038567208 0.07849958 0.06521547 -0.06106931 -0.2092988 -0.13387808 0.1363604 0.19935364
-0.13943234 0.10191683 0.2675538 -0.544344 -0.058435246 -0.18288895 -1.2320613 0.018564967
0.022827242 0.026528794 -0.018032197 -0.06532318 0.092784666 0.14562795 0.4239841 -0.3467902
-0.34569746 -0.5175676 -1.7998049 -0.0681897 -0.019103574 0.051260512 -0.07008285 0.1679584
0.06614554 0.013150704 -0.05280332 0.015482044 0.053911213 0.01084115 0.10619436 0.115486585
0.21676481 0.27064168 -0.042656224 0.05029387 0.05100663 0.13425595 0.13384296 0.055430982
-5.5477052e-05 -0.06142974 -0.02221082 0.0014475487 0.037995134 0.01636373 0.06343992 -0.06329031
0.015395355 -0.032491352 -0.08331346 0.0043772585 -0.0660899 -0.21171556 0.0714671 0.2657425
-0.180227 0.06283374 0.18939851 -0.07333249 0.24163444 -0.027680727 -0.27812368 0.2502076
0.019005077 -0.061005857 -0.23185101 0.064078696 0.020688383 -0.1082352 0.20094395 -0.26065165
0.044262704 -0.12968332 -0.006070264 -0.16507469 0.18602169 -0.06390931 -0.2635127 -0.09272852

feature_layer.0.bias f4 [64]
00000000: dfc2 c63d 3420 34bd c42b debd 02c3 d6bd
00000010: a2bd 2f3e 59c6 a13c e67c 09be 6e46 063d
00000020: d5e3 c23a 980d 41be 8ff9 103e 3746 173e
00000030: 8306 d53d 8348 643d 4bb1 58bd c1be 05be
00000040: f39a eb3c 1dd7 303d 0468 8e3c 03ce 83be
00000050: 5b48 8cbd 7d45 803d 42d7 6ebc af37 0fbe
00000060: 21b5 0dbe 4e7e 8b3d 37d4 b0bc 9fd6 a1bd
00000070: 0f11 353e 00d9 1c3e d34c ddbd 7aa4 17be
00000080: 54c7 1f3e 7951 c2bc e285 a8bd d254 b03d
00000090: 2708 91bd 33a2 543d d9a9 c6bd 1027 d8bc
000000a0: c514 efbd c0b2 52bd a52a 8ebd be64 163e
000000b0: dbc3 92bc 5a5b 5ebd 5f8b 643d 4a21 69bd
000000c0: 5b18 5dbd 0c10 933d f226 20be f681 193e
000000d0: ae96 833c 0de0 ecbd 743d 6bbe a32c 1e3d
000000e0: 1dbd 8d3d ae7d 6ebd 8489 a9bd b127 93bd
000000f0: 520b 993d 7910 ebbc 3c97 0cbd 85c5 793c
0.097051375 -0.043976024 -0.108481914 -0.104864135 0.17162183 0.0197479 -0.13426551 0.03278201
0.0014868925 -0.18852842 0.14157699 0.14772879 0.10401633 0.055733215 -0.052903455 -0.13061048
0.028760409 0.043173898 0.017383583 -0.25743112 -0.06849738 0.06263254 -0.014577689 -0.13986085
-0.13838626 0.068112 -0.021585567 -0.07902264 0.17682289 0.15317154 -0.10805669 -0.14808837
0.15603381 -0.02372049 -0.08228661 0.08609928 -0.07081633 0.051912498 -0.097003646 -0.026385814
-0.11673883 -0.05144 -0.069417275 0.14686868 -0.017915657 -0.05428634 0.055796977 -0.056916513
-0.053978305 0.07180795 -0.15639856 0.14990982 0.01606306 -0.11566172 -0.22972661 0.038616788
0.06920836 -0.058225326 -0.08278182 -0.07185305 0.07472862 -0.028694378 -0.034323916 0.015244846

value_layer.0.weight f4 [64, 64]
00000000: f388 9abe ad07 d5bd c1e6 f2be ae15 813e
00000010: 1189 d6bd e2ea b3bd 896a 32bd bb31 a83e
00000020: 0727 dbbe 4c48 5ebe 291b b33d 2b41 1fbf
00000030: e0c8 b3be 285e 553e 26ec b2be 50ee bebe
00000040: 1a02 4ebe feb8 a23b 83da d1be 63cd 913e
00000050: 8c08 e2be 0a6e 00be 266b 313e 6b76 0d3e
00000060: 1a94 9ebc 793e 81be b6a6 fe3d db06 92be
00000070: e7e7 113e 6780 50bc 9b65 dfbc 3203 a9be
00000080: 5e99 8bbb c4e9 213e 14be 94bd ebbb 133e
00000090: 9308 e3bd 8115 473e d1df 1c3e 0e34 b03d
000000a0: 940b 45be b70f a0be 2196 5fbe 29a0 e5be
000000b0: f313 033e a0f7 99bd ca2c 2bbe f9ba 013d
000000c0: ea4e 11bf 798a 87bc 14f2 a9be b406 ff3d
000000d0: e6df 10bf e7f9 22be 0ea1 9bbe 75bf 48bd
000000e0: 1e40 19be ca4f c4be d3a3 563d a76a 17bf
000000f0: 1d0d 073e 56f5 0bbd f3ef 5fbe 2b95 89be
00000100: d040 2cbd 99db bc3d bf37 00be f480 d33c
00000110: f442 383e 687f bc3d 2272 9abd 5160 a13d
00000120: 25af 97bd 77b8 913d bd58 82bd 0db6 d83d
00000130: 0c8b 77bd 5617 d43c 3614 a8bd 762c d03c
00000140: 614f ad3d c1f2 9d3d 0fba b9bd 95a3 6b3e
00000150: 1220 7d3d 8793 223c f17b b43d b65c f73d
00000160: d7f2 e1bd 67ba dc3d 4bc6 31be 7c6b 353d
00000170: d37b fdbc 9fa4 95bd 2312 fb3c dc00 82be
00000180: 88f9 e7bc 834b 8fbd fb4a 7b3e 335b f9bd
00000190: e860 9fbd 3d50 e93d 9f7a a2bd b75e dabd
000001a0: f87f 6c3d c4a0 863d 8c76 21be 9dab 35bd
000001b0: 4705 c4bd 7d04 57be fdc2 09bc a50d 58bd
000001c0: e28c d9bd 6e80 d4be 0733 d93c cd22 013e
000001d0: 1200 5cbd 513d a73c 8cc5 eebd 1ea3 2c3e
000001e0: e923 51be 70f6 b63c 083e d23e f652 e8bb
000001f0: b4f5 26be 3037 dfbd 2a1b 01be 6d6d 31be
00000200: b3aa 06bd f001 a0be b8bc df3d 71bc a1bd
00000210: 986a 2f3e 5dfd 933e 9e98 cebd e2f7 ebbb
00000220: d31c a0ba 6a3e a8bc 5bb7 49be de08 403e
00000230: d58c 133e 8298 a63d c53f c13d 37a6 d8bd
00000240: 38b1 2ebd 1021 0cbf 9c01 823d a8fb 16bc
00000250: 6ea2 debc 540e 883d 9bdc b73c a210 873d
00000260: d5ca 6cbe 9707 793d 924c 303e 74b9 ac3d
00000270: f4bd 8ebe b358 a43d 717c 833e c8a7 31bc
00000280: 6b94 05be 0d5d dfbd 3838 05be f8ee 103e
00000290: 15b5 0c3d f861 e83c 1a4f a53d 0121 dd3c
000002a0: f00b 2e3e 63a6 dabe 4a58 12bd 39b3 503c
000002b0: bf2a ebbd 9e48 03be 2ad5 21be e5cc febc
000002c0: 9f40 dfbd f0fa 99bd 1de4 8cbe 71bd 6c3d
000002d0: 93af b5bd 7a85 edbd 7995 d3bd 6730 e0bd
000002e0: 2789 10be 9b1a 29be 2fcf d33d c71b 083e
000002f0: a8d9 0c3e c173 acbd f4ce 6d38 07e9 be3d
00000300: 9d2e 053e d9ba 2cbe 0c38 013e fc5b 723d
00000310: 5a03 a5be 756f adbe e540 1dbe c315 bf3d
00000320: ff3b 6dbc 11fe 66bd d47a aabd bb15 173e
00000330: b4b7 353d 4b39 7c3d d7a6 1dbe 7d30 0fbd
00000340: aefc 83bd b3c9 e5bd 5b42 e4bd b993 f1bd
00000350: c8a3 0eba 52b9 0a3e e49d 18be f6b4 6fbd
00000360: 4922 39bd 54a2 26be 8c43 33be 7292 bb3c
00000370: 7cd6 ce3d 836f 73bc 78e8 af3e a060 bcbd
00000380: 5b70 f7bd 7530 a8bd 8832 1d3e f97c 6f3d
00000390: da29 f7bd 02a2 c83c eb05 883d 92ba 96bc
000003a0: 41f4 8bbe 0194 9f3d e27f 45be e142 d73d
000003b0: 73db eabd b7ab 0c3e 379b 4a3d 9d5e 60be
000003c0: 3060 143d 661e 61bd a239 ed3d 9336 be3d
000003d0: d6aa 263d 1e4d a0be 6729 aabd 5390 66bd
000003e0: 4bfd 103e 878e 633c 1cb3 29be 90fa 253e
000003f0: fbb6 63be 9985 953d 3629 70be 3c58 0f3d
-0.3018261 -0.10401855 -0.47441676 0.25211853 -0.10475362 -0.08785035 -0.04355863 0.3285044
-0.42803213 -0.21707267 0.08745415 -0.62208813 -0.35114193 0.20836699 -0.34945792 -0.37291193
-0.20117989 0.0049659004 -0.40987024 0.2847701 -0.44147146 -0.12541977 0.1732603 0.13814704
-0.01935773 -0.25242975 0.12434141 -0.28520855 0.1424862 -0.012725926 -0.027270129 -0.3301025
-0.004260226 0.15811831 -0.07262817 0.14427154 -0.1108562 0.19441797 0.15319754 0.08603679
-0.19242698 -0.3126199 -0.21834613 -0.44848755 0.12800579 -0.07517934 -0.16716304 0.03167245
-0.5676104 -0.016545521 -0.33192503 0.124524504 -0.5659164 -0.15915643 -0.30396312 -0.049010713
-0.14965865 -0.38342124 0.05240233 -0.59147114 0.13188596 -0.034169517 -0.21868877 -0.2687162
-0.042053998 0.092215724 -0.12521265 0.025818326 0.1799429 0.09203988 -0.075413 0.07879699
-0.07406453 0.07115262 -0.06364582 0.105815984 -0.06043534 0.025890034 -0.0820698 0.025411826
0.08462406 0.07712317 -0.09068691 0.2301162 0.061798163 0.009922869 0.088127024 0.1207823
-0.11032646 0.10777741 -0.17360799 0.04429196 -0.030942833 -0.073067896 0.030648297 -0.2539128
-0.028317228 -0.069968246 0.24540322 -0.12175598 -0.07782155 0.11392257 -0.07933544 -0.10662597
0.057739228 0.06573632 -0.15767878 -0.044353116 -0.09571319 -0.20997806 -0.008408305 -0.052747387
-0.106225744 -0.41504234 0.02651359 0.12610932 -0.053711005 0.02041498 -0.11658773 0.168591
-0.20423855 0.022334307 0.4106295 -0.007089968 -0.16304666 -0.10899198 -0.12608019 -0.17326899
-0.032877635 -0.31251478 0.10924667 -0.078972705 0.17130506 0.28904238 -0.10087703 -0.007201181
-0.0012215622 -0.020537574 -0.19698851 0.18753383 0.14409192 0.08134557 0.09435991 -0.10578578
-0.042649478 -0.5473795 0.06347963 -0.009215273 -0.027177062 0.06643358 0.02244406 0.06594969
-0.2312425 0.060798254 0.1721671 0.0843381 -0.27879298 0.080247305 0.2568088 -0.010843225
-0.13044898 -0.1090642 -0.13009727 0.1415366 0.03435238 0.028367028 0.08071728 0.026993277
0.16996741 -0.42705068 -0.03572873 0.0127380425 -0.114827625 -0.1282067 -0.15803972 -0.03110356
-0.10900997 -0.07518566 -0.27517787 0.057797853 -0.08871379 -0.11597724 -0.10331244 -0.10946732
-0.1411482 -0.16514055 0.103422515 0.13291846 0.13754904 -0.08420516 5.6697943e-05 0.0932179
0.13006063 -0.16868152 0.12619036 0.059169754 -0.3222912 -0.33874097 -0.15356787 0.093303226
-0.014479636 -0.05639464 -0.08324209 0.14754383 0.044364646 0.061578076 -0.15395676 -0.03495835
-0.06444679 -0.11220112 -0.11145469 -0.11795754 -0.00054412754 0.13547257 -0.1490398 -0.058522187
-0.045198712 -0.16272861 -0.17506236 0.022896979 0.100995034 -0.014858129 0.34357047 -0.09198117
-0.12081977 -0.082123674 0.15351307 0.058468793 -0.120685294 0.024491314 0.06641754 -0.01839951
-0.27334788 0.077919014 -0.19287065 0.10510803 -0.11467638 0.13737379 0.04946443 -0.21911092
0.036224544 -0.05496063 0.11583258 0.09287753 0.040690266 -0.31308836 -0.08308678 -0.056289982
0.14159124 0.013888962 -0.16572231 0.16208863 -0.2223777 0.07300872 -0.2345322 0.034996256

value_layer.0.bias f4 [64]
00000000: 965b 3bbc bcbc 86bd a89a cd3d 961d 883c
00000010: 2817 6d3e 9efe 2dbe 19eb 82bd c0c6 a0bc
00000020: 9065 2d3e 1950 acbd bb23 50bd c57c 693e
00000030: d859 1f3d e8f0 1cbe b4ad abbd 1920 17be
00000040: 7dce 10bd f633 18bd f667 3ebe 1fa4 8d3e
00000050: 81b4 9c3e 7535 943d 3615 f53d 86e2 f2bd
00000060: bb11 18be 75db 2dbe 0631 a43d 6bc1 6a39
00000070: d2b7 ec3d 85d2 b13d 8b8b 353d 18ac 4abd
00000080: f638 883d 09a3 d73d f3c2 82bc c2ef eabd
00000090: afd6 c7bb d3dc 4ebe 317f afbd 1be1 353d
000000a0: fc7d 3937 4c20 b93e ad24 2bbd d8ec 0c3c
000000b0: d428 153e c316 723c ac10 99bd b0bd d2bc
000000c0: 7c94 ea3b 59ef 3bbe cb20 21be b470 003e
000000d0: 79d5 29be ff6c 2fbe 4e92 af3d cdfe 6ebe
000000e0: 3182 31be dc63 3ebe aaab 67bd 52fe ae3c
000000f0: c7d6 a6bd 7666 343e 2e78 0e3e 5178 9bbd
-0.01143541 -0.06578967 0.10039264 0.01661567 0.23153365 -0.1699166 -0.063924976 -0.019626021
0.16933274 -0.08413715 -0.050815325 0.22801502 0.03890404 -0.15326273 -0.083827406 -0.14758338
-0.035353173 -0.03715893 -0.18594345 0.27664277 0.30606464 0.072367586 0.11966936 -0.11859612
-0.14850514 -0.16978247 0.08017163 0.00022388033 0.115584984 0.086827315 0.04432253 -0.049480528
0.066514894 0.10529143 -0.0159621 -0.114715114 -0.0060985903 -0.20201425 -0.08569182 0.04440413
1.1056192e-05 0.36157453 -0.041783024 0.00860139 0.14566356 0.014775935 -0.07473883 -0.025725216
0.007158814 -0.18353023 -0.15735166 0.12542993 -0.1658534 -0.17131422 0.08572827 -0.23339386
-0.1733482 -0.18592781 -0.056560196 0.021361504 -0.08146434 0.17617211 0.13913032 -0.07591308

value_layer.2.weight f4 [1, 64]
00000000: 3b73 99bf 6c3c 643e 37a1 c93d d997 8dbe
00000010: d995 503e e9a5 4dbe b4ff a53e f685 18be
00000020: 827d 693e 7f95 43be ebbb 12be 7d59 193e
00000030: ef00 5dbe 15d1 0fbf 8776 7ebe 8f8e c2bd
00000040: 61c1 00bf 0909 933e 2779 8bbe c3c8 533e
00000050: 127a 093e b095 3cbe b0d2 a13d eae2 12be
00000060: 7bb6 0fbe 8d8b c0be 7da2 d8bd a51f 0bbf
00000070: 9cf9 213e e3fe e83e e279 25be 8e01 f03d
00000080: 6bcd 2d3e e724 553e fc64 553e fa59 86bd
00000090: 1d41 2f3e ad73 17bf 3a1a 583f 41a2 343e
000000a0: ae6a 703e da7c 1c3e a722 28be 2f1b 523e
000000b0: 6480 233e d127 a63e ba27 953e 2c1d 023e
000000c0: c081 bfbd 192e 123f e536 00be 6183 af3e
000000d0: 15a5 1b3f 50b4 cabd 408c ca3d 601e 1abf
000000e0: ab64 a5be 400d e1bd b76c 2d3f cfc4 893e
000000f0: 1dfe 3cbe 7c3e 493e 0771 253e f8de 183e
-1.198829 0.22288674 0.098452024 -0.27654913 0.20369662 -0.20082821 0.32421649 -0.14894852
0.22801784 -0.19099997 -0.14329498 0.14975543 -0.21582387 -0.5617841 -0.24849902 -0.09499847
-0.5029507 0.2871783 -0.2724087 0.20682053 0.13425472 -0.18416476 0.079015136 -0.14344373
-0.14034455 -0.3760647 -0.10577867 -0.5434516 0.15817875 0.45506963 -0.16159776 0.117190465
0.16972892 0.20814858 0.20839304 -0.065601304 0.17114682 -0.5916088 0.8441502 0.1764002
0.23478195 0.15282002 -0.16419469 0.20518182 0.15966946 0.32452253 0.2913187 0.1270644
-0.0935092 0.5710159 -0.1252094 0.34279922 0.6079877 -0.09897673 0.09890032 -0.602026
-0.32303366 -0.10988855 0.6774401 0.26907966 -0.18456312 0.19652742 0.16156398 0.14928806

advantage_layer.0.weight f4 [64, 64]
00000000: 1890 22bb e1bf 303e 309d bdbd a476 df3e
00000010: bc06 51be c3ba cebc a8f6 9dbc 73fd dabd
00000020: 07b0 8bbd e333 b03d d833 153d dfc7 ee3d
00000030: 1e3a c03d 4fac eb3c 71b1 1abd 266a 22bd
00000040: 2498 d43b d934 51be 6288 663c da41 eb3c
00000050: f403 9c3d 656e 9b3d a25f d83d 9ace 0c3e
00000060: b1bd cd3d 6e44 abbd c1ce 703c 549b 373e
00000070: 20ec ecbd 9616 22bb 26ca 783e 3fd2 5e3d
00000080: 3bd2 87bd 8a80 0c3e 6ee5 c63d 1fa7 d83d
00000090: 5096 6abd 5130 863d f98c cfbd d37c cbbc
000000a0: e6e2 d03d 7453 2e3d 52cf e43d f8df c2bc
000000b0: 5857 183d 8c8a cf3c 01d0 06be 2e6e 69bd
000000c0: d8cf 463d ec43 a53d 5603 11bf e433 05be
000000d0: b8c9 653e eae4 973d 7fa6 fe3c 9d46 7b3c
000000e0: 2b2a 753d fc2e 0e3d 4a7a 0f3e 7bcc 78bd
000000f0: ac42 05be aa6d 00be d087 abbc aba0 013d
00000100: 2c19 293e 46b5 b33d 7b0e 94bd 7b89 433e
00000110: 42a9 62bd 5241 b13d 1144 483d 6d5a 84be
00000120: 57ac 96bc b14f 58be 3c84 bd3d 9302 613d
00000130: 90c5 4abe 3271 21bc be6f 443e 569e 57bd
00000140: 0a9a b53d 0c37 e0bc 0ce4 ee3d b41f efbe
00000150: f4d3 b83d 4390 ac3d d8cd b33d 4390 063c
00000160: 3032 f6bd ca72 403e 0a85 91bd 78f2 ad3c
00000170: d1f6 003d 32e2 91bd 01de 32be 02aa 81be
00000180: 06f1 a33c 89ba 243d 4c26 853e 1118 4abe
00000190: 5129 fcbd 9d38 5c3d aa8b d9bc 694c 3e3e
000001a0: 24d2 d43d fe4b 853c c564 00bc 03a9 85bb
000001b0: 0e10 3cbe 2ec5 eb3d ec48 033c a4b8 be3d
000001c0: 6003 c2bd 2bcb e6bd 4bfd 013e b47e 51bd
000001d0: f249 633d 09df 12bd 2b0b 6f3e 32c3 b73b
000001e0: 6242 9bbd 1280 a1bd 8618 6f3d 2b25 abbd
000001f0: 0dde 9f3d 1f6c 07be 115a 8a3b 8ca1 66bb
00000200: 4950 3b3d 3c20 dcbc 285e 17be 26c7 42be
00000210: 9e40 5abd 53b5 3ebc 0ef6 aebd d5c1 203d
00000220: d095 983d 9197 dd3d 8a94 24be 77a2 003d
00000230: 1580 063d f17d 143d 5076 0d3c bd5f 2d3e
00000240: 55d9 4ebd 3ac2 20bc fb97 a33d c6cd 0abd
00000250: f21a 013e d346 4ebe 279f 233d 2359 dcbd
00000260: b541 bebe 86c6 45be f986 bb3c 8537 213e
00000270: fab2 fabd 585e c93c 7c3b 623e bbcb 0abe
00000280: 7db6 b2bc 129d 16be 8824 4abc 7155 ba3d
00000290: a099 a73d 1051 ac3d c906 fc3d 46be 6dbd
000002a0: 682f cabc 28e4 cd3c 83c6 8bbe 8c7f 3f3e
000002b0: 3f98 dbbd 4db4 76bd 40d4 063c 70c5 81bd
000002c0: 428e 05be 0eec c9bc 03bd f0bc 2c36 0a3d
000002d0: d0a2 623d eacc c7bd 6039 9d3e ea74 f23c
000002e0: f3f8 1bbe 5214 bebc 2906 ab3e 4e7b fcbc
000002f0: bc89 cebd 2dfa 1f3e 5a5a 1a3d b4f6 c23d
00000300: 6a0d 1d3e 7f1f 37bc 2c6a 6bbe c5d0 c13d
00000310: af6a d53b fc6b 083e 6a00 73be d755 193e
00000320: 2e47 5d3d 798b 0ebe 382b afbc 682a 2b3e
00000330: e515 8bbe 1dbc 6bbe b6b4 1abe bfd4 a8bd
00000340: 0da6 423e e10f 363e 5f0c 833b 21f6 98bd
00000350: c6dd 933c 6788 afbe 22b6 a1bd 8dc6 4abd
00000360: 7903 f3bc f859 263e 8c00 473d f04c 653e
00000370: 98dc 143e 1bc6 5dbe b6a5 cf3d 1fb6 a3bd
00000380: ae63 3b3a a9a7 19be bd9f 84bc eb76 90bc
00000390: 33c8 febd bfc5 debd 9544 ff3c bc2f 8dbe
000003a0: 9027 48bd 0190 86bd aaf1 213c 9e7e 0f3e
000003b0: a30f 20be a7c5 633d 9dfa 8f3d 6d8e 0e3e
000003c0: 6b3a c8bd e004 4ebe a46f 633d bf4e c33d
000003d0: a537 9d3c 4cf9 9abe 9abe ffbe 8698 70be
000003e0: 59e8 cf3d c6e0 c43d a73c 9d3d 70f8 ccbd
000003f0: 88c4 41be 1aec 2ebd fd68 413c 1766 b2bd
-0.0024805125 0.17260696 -0.09258497 0.43645203 -0.20412725 -0.02523554 -0.019282654 -0.10692873
-0.06820684 0.086036466 0.036426395 0.11659216 0.09386085 0.028768687 -0.037766878 -0.039652012
0.006487863 -0.20430316 0.014070602 0.028717924 0.076179415 0.075894155 0.105651155 0.13750687
0.100459464 -0.08362661 0.0146977315 0.17930347 -0.11568475 -0.00247327 0.24295864 0.054399725
-0.06631895 0.13720909 0.09711729 0.10578751 -0.057272255 0.065521844 -0.1013431 -0.024839794
0.101995274 0.042560056 0.11172356 -0.023788437 0.037192672 0.025334619 -0.13165285 -0.05698984
0.04853806 0.08069596 -0.56645715 -0.13008076 0.22440231 0.07416709 0.03108525 0.01533666
0.059854668 0.034712777 0.14011493 -0.060741883 -0.13013715 -0.12541834 -0.020938784 0.031647366
0.16513509 0.087748095 -0.072293244 0.19095413 -0.055337198 0.08655037 0.04889304 -0.2585024
-0.018392725 -0.2112415 0.09253737 0.054934096 -0.19801927 -0.009853648 0.19183251 -0.052641235
0.08867271 -0.027369998 0.1166459 -0.46703875 0.09024802 0.08425953 0.08779496 0.008213106
-0.12021291 0.18793789 -0.07105453 0.021233782 0.031485382 -0.071232215 -0.174675 -0.25325018
0.02001239 0.040216956 0.2600578 -0.19735743 -0.12312568 0.053764928 -0.026555855 0.18583836
0.10391644 0.016271587 -0.007836525 -0.0040789857 -0.183655 0.115122184 0.008012991 0.09312561
-0.094733 -0.1126922 0.1269428 -0.051146224 0.05549044 -0.035857234 0.23344104 0.005607986
-0.07581021 -0.078857556 0.058372997 -0.083566986 0.07806025 -0.13224839 0.0042221625 -0.0035191504
0.045730863 -0.02687084 -0.14782012 -0.19021282 -0.05328428 -0.011639911 -0.08543025 0.039247353
0.074504495 0.108199246 -0.16072288 0.03140494 0.032836992 0.03625292 0.008634165 0.16931053
-0.050500233 -0.009811932 0.07987972 -0.033887647 0.12607935 -0.20144205 0.0399467 -0.10759189
-0.37159505 -0.19314012 0.022891508 0.15743835 -0.12241168 0.02458112 0.22093004 -0.1355428
-0.021815533 -0.14708355 -0.012337811 0.09098328 0.081835985 0.08413899 0.12305982 -0.058042787
-0.024680808 0.025133207 -0.2729989 0.18700999 -0.10722398 -0.060230542 0.008229315 -0.06336486
-0.13042548 -0.024648692 -0.029387003 0.03374307 0.05533105 -0.09755881 0.30707836 0.029596765
-0.15231685 -0.023203049 0.33403137 -0.030820515 -0.100848645 0.15622778 0.037683822 0.09519711
0.15337148 -0.011176943 -0.2298972 0.09463648 0.006512962 0.13322443 -0.23730627 0.14974152
0.05402296 -0.13920392 -0.021382913 0.16715395 -0.27165142 -0.23020978 -0.15107998 -0.08243703
0.19008656 0.17779495 0.0039992775 -0.0746882 0.018050086 -0.34283754 -0.07896067 -0.04950576
-0.029664742 0.16245258 0.048584506 0.2239263 0.14537275 -0.21657602 0.10139029 -0.07993721
0.00071483373 -0.15005364 -0.01618945 -0.01763483 -0.12440529 -0.10877561 0.031160632 -0.2757548
-0.048865855 -0.06570435 0.009884277 0.14013144 -0.15630965 0.055608418 0.070302226 0.13921519
-0.09776767 -0.20119047 0.05552639 0.09536504 0.019191572 -0.30268323 -0.49950105 -0.23495683
0.10151739 0.09613185 0.07677584 -0.10008323 -0.18922627 -0.042705633 0.011804816 -0.08710878

advantage_layer.0.bias f4 [64]
00000000: 1317 41bd e198 69bd 219c c93d cefc 11be
00000010: d9f1 403c b0f5 ec3b 53d0 84bc b587 3f3d
00000020: b157 63bd e7c3 803c bb1e 21bd 100c 5ebd
00000030: f36b b83d a8f1 3bbe 36f4 8dbd d169 3b3d
00000040: b2a6 bbbd 62db 783c 9123 183d c9cd 34be
00000050: 57c0 1fbd dd74 36bd 526d d9bc 9c3f 3dbe
00000060: 972c 1cbc ce8b 783d d6cb 09bd c731 473c
00000070: e72a 3b3d a243 1abe a50b ccbd db6b 56bc
00000080: 002c 2abe 9b36 cebb 84eb 893d 0d0f 35bc
00000090: b006 be3d 2019 69bd c2e6 5e3d 0b19 f2bd
000000a0: f67f a5bd 5deb d6bd 01e6 edbd 439a f83d
000000b0: 0f61 49bd c698 80be c84b 0e3e 0a57 c6bd
000000c0: 7cd2 de3d 04ef a0bc 8619 06bc 105c 88bd
000000d0: 8d16 61bd e37b 4abd 75d8 cbbd 6c1e cfbc
000000e0: 0be2 15be 88af a4bd 6456 f5bd 4739 acbd
000000f0: 5f8a 4a3d a4c8 3b3d 2267 3fbe bc18 8e3c
-0.047141146 -0.057030562 0.09844232 -0.14256594 0.011776411 0.0072314367 -0.016212618 0.04676028
-0.05550355 0.015718414 -0.039335947 -0.054210722 0.09004965 -0.18353903 -0.06931345 0.04575521
-0.09162654 0.015189024 0.037143294 -0.17656626 -0.03900179 -0.044545043 -0.026541386 -0.18481296
-0.009532115 0.060680203 -0.03364166 0.012157864 0.04569521 -0.15064862 -0.099631585 -0.013087238
-0.16618347 -0.0062931306 0.06734374 -0.011050952 0.09278619 -0.056908727 0.054419287 -0.11821183
-0.08081047 -0.10494111 -0.116161354 0.12138798 -0.049164828 -0.25116557 0.13896096 -0.0968457
0.108799905 -0.019645222 -0.008184796 -0.066581845 -0.054953147 -0.049434554 -0.09953395 -0.025283061
-0.1463701 -0.080412924 -0.11979368 -0.08409362 0.049448367 0.045845643 -0.18691686 0.017345779

advantage_layer.2.weight f4 [4, 64]
00000000: 836f c93d 18c0 8d3c 46b1 643c 41cb de3b
00000010: f34d 59bd b32e 8e3c 3846 993e e14c 013e
00000020: 4a60 8abd 04ff c93d 2df5 15be ec38 6abe
00000030: e2f3 053e d6d0 c9be 287d 193d 59bf adbd
00000040: 5420 3ebf 761a 86bd 9248 083d e725 99bd
00000050: 771f a23c 636f 5d3e a11d 11be 563a 2cbd
00000060: 8c91 2ebf 022c 483c 949b 843d fcc3 80bb
00000070: e478 08bc 6eb9 d9bd b067 f63d 3187 7c3d
00000080: 52ed ff3d 2370 d1bd cb8c 153d e351 8f3d
00000090: e1fa 9f3d 9c04 a33e 44b4 2f3d 52af 13bf
000000a0: d585 fabd dd95 7cbd 2ad1 83bd 06ad 64be
000000b0: bed8 d0bd 40b3 64bd 77c3 84be 1755 1abd
000000c0: 305b 37be 43f8 88bd 892c 843e b111 3c3e
000000d0: 8446 e2bb ca0a 2d3e 1156 53be a595 fcbd
000000e0: 9c63 333e 2b94 24bc 622d e7be 0adf 2e3c
000000f0: 187a bb3a 0392 65bd d3e6 6cbe b6ec 843c
00000100: 96c1 55bd ac28 84bd b78a 873d 102b 79bd
00000110: d00f bcbe a0d6 a6bd 3485 b7bb 30fb 23be
00000120: cf3a e33d a1c5 c43d 8d1e 093f 7988 a63e
00000130: b5d5 2a3d 5392 2bbd e0bf e03d 4cef f8bd
00000140: 12a0 8a3f 1a5c 043e e33f 4e3d 3bf8 f23d
00000150: 3242 0b3d 2d17 c53c c107 4fbe 750e abbe
00000160: 2c58 383f 635c e2bd f3fa 533d 5fb5 a93d
00000170: 997a 5e3d c086 9fbd 9f6d 9e3d 0a4e a23d
00000180: aac2 95be 5858 b43c 39f2 d93c 8549 073e
00000190: d9cb 02be 32dd c2bd 57c1 11be 2cc9 2abf
000001a0: 9ae5 6cbd fb2a 553d 5396 df3d 8f98 9c3e
000001b0: 226a f73d e629 91be c775 8dbd 3e13 4f3e
000001c0: 7783 4a3d 0537 49be 5d90 92bc 0603 f43e
000001d0: f0b7 2c3e 14a9 ac3d a699 a33e 6bf8 013e
000001e0: 4c99 bfbe abcc 1f3d 3688 443f 4534 48be
000001f0: 8710 463d 72cb cdbd 4d65 d13d 2825 2e3e
00000200: 279a fe3b 00ca fd3d 1051 073e dc9a 93be
00000210: 98dd 1c3c 7d60 43be 5f1f 2cbe a469 29be
00000220: b297 9f3d 8a6c db3d ce02 0abf a9c3 fe3d
00000230: 783f cfbd c4b2 df3d 09b8 c0be 78df 49be
00000240: 1e5d 66bf 011d 6cbd 7b46 443c f1bb b03e
00000250: 2ded 8f3b 6dc5 9ebd b81b 1cbe 1113 f33e
00000260: 7bc0 0f3e dd29 8cbc 21ee 543d 611d a0be
00000270: dbce 3abe 9b87 f33c 212f ddbe 3a8e f1bd
00000280: 8bf3 853e d6f0 5f3d ad68 bd3c 23a4 883e
00000290: 295a 91bd bb3b 1cbd ba30 a03d bcaf 473f
000002a0: d459 9e3e b7fe 20be 9fe8 e6bc 24dc 373d
000002b0: d926 2c3e b620 843e 678e c73d 0843 643e
000002c0: 27e0 013b 2d6b 84bd 928f 3a3e bed3 863e
000002d0: 3918 b9be 099b 8bbe bae1 bcbd f8f2 ac3e
000002e0: de81 6c3e 08d2 5d3e ca3b 40bf a2ab 043e
000002f0: 864d 4dbd dd8b 153e 72a0 523d 973a 0abe
00000300: ce6b 663d 4628 c2bb cf0a 04be f577 883d
00000310: 47e2 9f3e 76fb 0e3e ca50 e1bd 6046 fc3c
00000320: 91c7 6abd 6fe8 a5bd 9d33 b83e 98fc ddbe
00000330: 7dd4 063e 0d6e 273e 9853 a03e d727 503e
00000340: a20a 83bf 60d7 783d 0078 3dbd a10b adbd
00000350: dbe1 0bbe 3179 16bd 9d89 a03e fe50 cfbe
00000360: 2e4c 17bf a47b febd 5849 72be 3e26 993e
00000370: a469 553e ed69 623c 82a3 313e ba99 c03d
00000380: 6eea 47be 1263 833d f6a0 2dbe bce1 eabe
00000390: 2b22 633d 1690 adbe ff22 0a3e 7700 8fbe
000003a0: 25eb 9cbe 4df7 4c3e a444 013d f4eb c9be
000003b0: 5449 8dbe d300 843e 2815 313d 1900 2bbe
000003c0: f0af db3d d516 da3d 3bf1 43be d8c9 3bbf
000003d0: b051 593e a3d8 b53d 41fd 3abe 42f3 85bd
000003e0: 231f 0bbe 467e e2bd ff99 dcbe 3da7 2abc
000003f0: 8bc4 493e 5f21 72bd 3ac6 9b3e f79b 023c
0.09835722 0.017303512 0.013958281 0.006799132 -0.053052854 0.017356252 0.29936385 0.12626983
-0.06756647 0.098630935 -0.14644308 -0.22873276 0.13081315 -0.39417142 0.037472874 -0.08483762
-0.7426808 -0.06548016 0.033272333 -0.074779324 0.019790394 0.21624522 -0.14171459 -0.04204782
-0.68190837 0.0122175235 0.06474987 -0.003929613 -0.008329604 -0.10631071 0.120314956 0.061652366
0.12496437 -0.102264665 0.036511224 0.069980405 0.07811523 0.31839454 0.042896524 -0.5768939
-0.12232558 -0.06166636 -0.06436379 -0.22331628 -0.1019759 -0.05583501 -0.25930378 -0.037678804
-0.17905879 -0.06687977 0.25815228 0.18366124 -0.006905379 0.16898647 -0.206383 -0.1233323
0.17518467 -0.010045092 -0.45151812 0.010673294 0.0014303355 -0.05604745 -0.23134927 0.016226154
-0.05218657 -0.0645307 0.06618255 -0.060832083 -0.36730814 -0.08146405 -0.005600596 -0.16013789
0.11095201 0.09608007 0.5356224 0.32525995 0.041707713 -0.041887593 0.10974097 -0.12155017
1.08301 0.12925759 0.050353896 0.118637525 0.033998676 0.024058903 -0.20217802 -0.33409467
0.7200954 -0.110527776 0.051752996 0.08286547 0.054316137 -0.077893734 0.07735752 0.07925041
-0.2925008 0.022014782 0.026604759 0.13211639 -0.12773074 -0.09514846 -0.1423391 -0.66713214
-0.057836153 0.052042942 0.10917344 0.30585143 0.1208079 -0.28352278 -0.0690723 0.20222184
0.04944178 -0.19649895 -0.017891103 0.47658557 0.16867042 0.084306866 0.31953162 0.1269242
-0.37421644 0.039013546 0.7677034 -0.19551189 0.048355605 -0.1004857 0.102244 0.17006361
0.0077698412 0.12392044 0.13214517 -0.28829086 0.009574316 -0.19079776 -0.16808842 -0.16544205
0.077926055 0.107140616 -0.5391053 0.12439663 -0.101195276 0.10922769 -0.37640408 -0.19714153
-0.89985836 -0.057644848 0.0119796945 0.34518388 0.004392287 -0.077525 -0.15244949 0.47475484
0.14038269 -0.017109806 0.05198491 -0.31272414 -0.18242972 0.029727748 -0.4320002 -0.11794706
0.2616237 0.05467304 0.023121202 0.26687726 -0.07097275 -0.0381429 0.07821794 0.78002524
0.30927908 -0.15722166 -0.028187094 0.044887677 0.16811694 0.25806206 0.09743958 0.22291195
0.0019817443 -0.06465755 0.1821883 0.2633342 -0.36151293 -0.2726672 -0.092227414 0.3377912
0.23096415 0.21662152 -0.7509123 0.12956098 -0.05012276 0.14604135 0.051422544 -0.13498913
0.056255154 -0.005925211 -0.12894748 0.06663505 0.31227323 0.13963112 -0.110017374 0.030795276
-0.057319228 -0.08100974 0.35976878 -0.43356776 0.13166995 0.16350575 0.31313777 0.20327698
-1.023762 0.060752273 -0.04625702 -0.08449484 -0.13660376 -0.03673667 0.3135499 -0.4049148
-0.59100616 -0.12425926 -0.23660791 0.2991199 0.2084108 0.0138192 0.1734753 0.09404321
-0.19523022 0.064153805 -0.16955933 -0.45875347 0.055452507 -0.3389899 0.13489912 -0.27930042
-0.3064815 0.20016213 0.0315596 -0.3943783 -0.27595007 0.2578188 0.043233067 -0.16699256
0.10726917 0.10648886 -0.19134991 -0.73354864 0.21222568 0.08879211 -0.18260671 -0.06540538
-0.13586096 -0.11059241 -0.4308624 -0.010415849 0.19703881 -0.059113856 0.30424672 0.007971755

advantage_layer.2.bias f4 [4]
00000000: f152 d83d 57f4 6d3d b4fe 2a3d e294 823d
0.10562695 0.05809435 0.04174681 0.063760534
