p2_continuous-control/checkpoint_critic.pth (torch_old, 170965 bytes, 9 tensors)

fc1.weight f4 [256, 33]
0.07566621 0.3662882 -0.20310634 -0.11772243 -0.10488838 0.15826955 -0.30514 0.40334603
-0.04966207 -0.058151964 -0.3103956 0.15789954 -0.5956746 0.29771906 0.17016889 -0.32154995
-0.6488532 -0.44206294 0.043708544 -0.04186513 0.32779297 -0.378704 0.13614404 -0.046105955
0.095264815 -0.08622877 -0.11080066 -0.16000074 0.408014 -0.34734827 -0.14446436 0.037835483
0.05320038 0.21299529 0.02771779 -0.05644895 -0.26035032 0.2522323 -0.02126056 -0.15587978
-0.14602838 -0.1186082 0.60631204 0.86566645 0.025584176 0.25233173 0.2890687 -0.3613563
-0.029293155 -0.3584212 -0.374372 0.28254047 -0.021276146 -0.05690745 -0.14906843 -0.055592023
0.039556418 -0.36485803 0.2696561 -0.39959255 -0.41199592 -0.20590249 -0.6080762 -0.07339607
0.04432242 0.08195151 0.106853686 0.13635498 0.16747262 0.1273892 0.21030821 -0.1291061
0.5723136 -0.24438357 -0.10813407 -0.036070615 0.20264447 0.49217454 0.19054554 0.22722366
0.23101059 0.040477786 -0.4210173 -0.5150418 0.23484495 0.0818664 -0.4414637 -0.4016411
0.40245417 -0.15091518 -0.21630988 0.16320203 0.029926872 -0.5227876 -0.059485387 -0.58565587
-0.26874587 0.028223796 -0.09020685 -0.036779698 0.20437302 0.11734392 0.11962908 0.18879154
0.036348745 0.0047733705 0.10967643 -0.043589916 -0.13120416 0.0026470094 0.27250445 0.08019897
0.25210297 1.0843189 -0.048059966 0.09387155 0.019412968 0.06838575 0.06317187 -0.025232553
0.06072989 -0.14174367 0.011746178 0.5150456 0.044355623 -0.19949858 -0.23170139 0.026169641
-0.21238603 0.0076603987 -0.030740943 0.0021701455 -0.015277998 0.1510735 -0.3346887 0.109495334
-0.25965607 -0.037626397 -0.049534522 0.003265492 0.11039707 -0.33096907 0.04183622 0.15656571
0.15928753 -0.009548851 -0.25542164 -0.08981363 -0.7337735 -0.20447516 0.124700174 0.18350661
0.19414291 -0.3231155 0.23430076 -0.5287904 -0.65043664 -0.4193887 0.12530227 -0.42047003
-0.22813615 -0.3937102 0.010227519 -0.04069895 -0.21079342 0.0204845 -0.37100798 -0.026973326
0.053345777 0.41772652 0.28030968 0.1821183 0.10476426 0.10642119 0.2897163 0.030507542
-0.44013125 -0.02056618 0.16763744 0.2031655 -0.29546496 -0.21600184 -0.31462392 0.27075705
-0.58747447 0.10940201 0.35000026 -0.1690833 0.1574763 0.46464634 -0.0753456 -0.48746112
-0.40824956 -0.03394749 -0.29702252 -0.09491197 0.0076879123 0.135022 -0.16832736 0.1417377
0.18167496 0.04421376 -0.012374662 0.09467915 0.034467824 -0.32441372 -0.11108121 -0.10262262
-0.34188858 0.3394258 -0.034084525 -0.33922654 0.22511071 -0.23032677 0.14625567 -0.2700875
-0.16543582 0.06488443 0.07778034 -0.014913482 -0.02360392 -0.3216635 0.106725164 -0.36554646
0.41823834 -0.5760112 0.22638898 -0.48982427 0.026075533 -0.01000646 -0.16165315 0.13568202
0.20247956 0.12160255 -0.1205868 -0.032563742 0.02330547 0.63011044 -0.08257837 0.32742736
0.73141456 0.4931665 0.21558546 -0.38303095 -0.17335811 -0.16430849 0.14799409 0.18664306
-0.42795932 -0.58665365 -0.4378727 -0.2103953 0.060736384 0.2052682 -0.37754676 -0.31486666
00000000: e3f6 9a3d 208a bb3e 1cfb 4fbe 7518 f1bd
00000010: b8cf d6bd 6a11 223e 4f3b 9cbe 5f83 ce3e
00000020: 746a 4bbd c130 6ebd 2cec 9ebe 6bb0 213e
00000030: 217e 18bf a26e 983e c140 2e3e 32a2 a4be
00000040: 3e1b 26bf 1356 e2be bb07 333d c57a 2bbd
00000050: 7bd4 a73e 7ee5 c1be 5869 0b3e 99d9 3cbd
00000060: 331a c33d b698 b0bd 75eb e2bd 3cd7 23be
00000070: 36e7 d03e a2d7 b1be 77ee 13be 61f9 1a3d
00000080: a4e8 593d 701b 5a3e 6b10 e33c 0437 67bd
00000090: a34c 85be 9824 813e a02a aebc f39e 1fbe
000000a0: 7788 15be dbe8 f2bd 4437 1b3f 519c 5d3f
000000b0: e895 d13c a031 813e d000 943e b103 b9be
000000c0: 33f8 efbc fc82 b7be b0ad bfbe 25a9 903e
000000d0: 504b aebc c917 69bd 65a5 18be 76b4 63bd
000000e0: e905 223d acce babe 5d10 8a3e 6597 ccbe
000000f0: 21f1 d2be 1ad8 52be e2aa 1bbf ae50 96bd
00000100: 6d8b 353d 31d6 a73d 1bd6 da3d a4a0 0b3e
00000110: f17d 2b3e 5072 023e 095b 573e 6434 04be
00000120: 2583 123f b03f 7abe 6575 ddbd c8be 13bd
00000130: 0882 4f3e 4dfe fb3e 5f1e 433e 52ad 683e
00000140: 0a8e 6c3e 09cc 253d 948f d7be c8d9 03bf
00000150: 327b 703e 92a9 a73d 8807 e2be e7a3 cdbe
00000160: 790e ce3e 8289 1abe 5680 5dbe 6f1e 273e
00000170: 3329 f53c 68d5 05bf f3a6 73bd 8bed 15bf
00000180: 0f99 89be 9735 e73c 5ebe b8bd 4fa6 16bd
00000190: 2947 513e 0252 f03d 1700 f53d 9252 413e
000001a0: 6ce2 143d ef69 9c3b 099e e03d 578b 32bd
000001b0: 625a 06be 7379 2d3b b485 8b3e 5c3f a43d
000001c0: a413 813e f6ca 8a3f 87da 44bd ba3f c03d
000001d0: f207 9f3c d40d 8c3d 4160 813d 80b4 cebc
000001e0: e8bf 783d 4125 11be 0b73 403c 07da 033f
000001f0: 3eae 353d 5b49 4cbe 2143 6dbe b761 d63c
00000200: b97b 59be 1504 fb3b 6ed4 fbbc 0039 0e3b
00000210: 9150 7abc 03b3 1a3e 515c abbe 173f e03d
00000220: a4f1 84be 231e 1abd b6e4 4abd dd01 563b
00000230: dc17 e23d c774 a9be 755c 2b3d c352 203e
00000240: 451c 233e c972 1cbc a0c6 82be 35f0 b7bd
00000250: 95d8 3bbf f061 51be ce62 ff3d 28e9 3b3e
00000260: 66cd 463e 656f a5be 8aec 6f3e cf5e 07bf
00000270: 0483 26bf 1eba d6be 3d4f 003e d947 d7be
00000280: 869c 69be 6294 c9be 5391 273c f1b3 26bd
00000290: 3bda 57be 1ccf a73c c2f4 bdbe 2af7 dcbc
000002a0: 1a81 5a3d 40e0 d53e c084 8f3e 387d 3a3e
000002b0: a58e d63d 5af3 d93d b255 943e f4ea f93c
000002c0: e258 e1be 687a a8bc 26a9 2b3e 9e0a 503e
000002d0: 2f47 97be 962f 5dbe 6316 a1be aba0 8a3e
000002e0: ba64 16bf 290e e03d 3c33 b33e 2c24 2dbe
000002f0: 7841 213e 20e6 ed3e cb4e 9abd 8194 f9be
00000300: 1606 d1be 860c 0bbd 5613 98be 3561 c2bd
00000310: e2ea fb3b 3543 0a3e 025e 2cbe b023 113e
00000320: 0009 3a3e 7d19 353d 18bf 4abc 24e7 c13d
00000330: 222e 0d3d 8e19 a6be 8c7e e3bd cf2b d2bd
00000340: 050c afbe 38c9 ad3e 379c 0bbd 1aaf adbe
00000350: 6c83 663e c8da 6bbe 0cc4 153e e948 8abe
00000360: 0268 29be 21e2 843d 4d4b 9f3d ad57 74bc
00000370: 025d c1bc 14b1 a4be b992 da3d e828 bbbe
00000380: 5623 d63e 7875 13bf 83d2 673e 3fca fabe
00000390: 5b9c d53c 23f2 23bc 6788 25be 3af0 0a3e
000003a0: cd56 4f3e c20a f93d 36f6 f6bd 8f61 05bd
000003b0: 1deb be3c eb4e 213f d91e a9bd 8fa4 a73e
000003c0: fc3d 3b3f 5280 fc3e 6fc2 5c3e a21c c4be
000003d0: ca84 31be 7c40 28be c38b 173e 5c1f 3f3e
000003e0: 7c1d dbbe ef2e 16bf da30 e0be de71 57be
000003f0: b7c6 783d d431 523e cf4d c1be 3436 a1be

fc1.bias f4 [256]
-0.22606565 -0.43477067 -0.42449805 -0.15515056 -0.3482741 -0.31064612 -0.55628973 -0.3230984
-0.30109635 -0.1681012 -0.16697523 -0.4001529 -0.265452 -0.36076528 -0.22752091 0.018380268
-0.39368644 -0.32633063 -0.32551962 -0.5638386 -0.23366052 -0.52815 -0.08110799 -0.47492707
-0.47274208 -0.24847442 -0.28356254 -0.44417688 -0.30685928 -0.4166045 -0.53877366 -0.35160604
-0.4316912 -0.50271696 -0.25526956 -0.11855571 -0.076343596 -0.2462231 -0.042487025 -0.2976694
-0.3884092 -0.25116858 -0.3256778 -0.15696764 -0.47543997 -0.29070014 -0.4482176 -0.15420133
-0.18035541 -0.12644884 -0.37839538 -0.2793047 -0.38292304 -0.27220124 -0.35990322 -0.4824314
-0.27117172 -0.44594 -0.1798854 0.10799312 -0.18934347 -0.13580701 -0.32213855 -0.16620886
-0.37683094 -0.35608798 -0.32464713 -0.3730364 -0.3370066 -0.2273836 -0.229488 -0.53171307
-0.10482297 -0.31481558 -0.31662267 -0.12879723 -0.5844994 -0.3277451 -0.0949414 -0.27253035
-0.40882927 -0.5198575 -0.5335862 -0.14666215 -0.22937758 -0.43184412 -0.3690479 -0.26293024
-0.15835932 -0.43020645 -0.36009222 -0.27646938 0.018476637 -0.44010875 -0.1448686 -0.4016699
-0.35327137 -0.31116927 -0.23961894 -0.13861382 -0.38102403 -0.23944187 -0.28137404 -0.17444892
-0.26326662 -0.27704954 -0.47485167 -0.19464424 -0.18820867 -0.323603 -0.36220255 -0.32223395
-0.21514061 -0.50036216 -0.104527526 -0.2184542 -0.36720717 -0.45079377 -0.18549022 -0.4709332
-0.12026006 -0.33155373 -0.18465278 -0.33139238 0.11539707 -0.36069745 -0.2373164 -0.13186921
-0.25977293 -0.37405977 -0.16288759 -0.3953714 -0.0938688 -0.07800756 -0.28295296 -0.10876015
-0.24347968 -0.01374656 -0.26113197 -0.40803778 -0.15143317 -0.45641032 -0.18792303 -0.4651216
-0.2697332 7.0635e-08 -0.4497409 -0.3146192 -0.11041046 -0.011897579 -0.52734804 -0.5321753
-0.24371281 -0.24376118 -0.29605746 -0.060697865 -0.48299098 -0.3593285 -0.27176893 0.17053863
-0.30335906 -0.44199544 -0.24861208 -0.038685363 -0.5033772 -0.13486828 -0.3360391 -0.28532082
-0.26447925 -0.20167758 -0.39817366 -0.14262928 0.20386729 -0.3976446 -0.32655156 -0.5452022
-0.21087398 -0.16712353 -0.34448993 -0.44587293 -0.37406322 -0.26846054 0.10011723 -0.21038707
-0.15925795 -0.48974136 -0.33487368 -0.4823724 -0.47166637 -0.20435408 0.09196264 -0.17245264
-0.21554168 -0.37923074 -0.3802893 -0.40045375 -0.27000335 -0.23616041 -0.3363889 -0.32908356
0.30821064 -0.33335626 -0.41025978 -0.34976876 -0.45906472 -0.4413152 -0.23662904 -0.18425497
-0.5626387 -0.029285995 -0.371851 -0.07691219 -0.3957907 -0.20642138 -0.37713635 -0.31957537
-0.3642002 -0.054142073 -0.45946208 -0.56004864 -0.5212956 -0.4198659 -0.12691869 -0.22842942
-0.35123724 -0.28912777 -0.10569423 -0.37896097 -0.08157871 0.10014268 -0.38361824 -0.46787652
-0.5242978 -0.29702452 -0.115915224 -0.28978884 -0.20491983 -0.122171246 -0.3138671 -0.45761344
-0.23133159 -0.3097254 -0.4927799 -0.28730452 -0.5033834 -0.16266936 -0.17737976 -0.22156839
-0.1365842 -0.040143564 -0.4981256 -0.41922486 -0.033858906 0.23299679 -0.52522266 -0.44960484
00000000: c17d 67be 439a debe cf57 d9be cadf 1ebe
00000010: fc50 b2be 020d 9fbe 0169 0ebf 276d a5be
00000020: 4d29 9abe b922 2cbe 8efb 2abe d7e0 ccbe
00000030: 53e9 87be 3ab6 b8be 3efb 68be 3792 963c
00000040: 4591 c9be cf14 a7be 82aa a6be ba57 10bf
00000050: b444 6fbe d734 07bf f21b a6bd a429 f3be
00000060: 400b f2be 1470 7ebe 1c2f 91be 276b e3be
00000070: a91c 9dbe 2f4d d5be 12ed 09bf b505 b4be
00000080: a106 ddbe 0fb2 00bf b1b2 82be 56cd f2bd
00000090: 085a 9cbd e921 7cbe e006 2ebd 2068 98be
000000a0: 92dd c6be 2b99 80be 3ebf a6be 20bc 20be
000000b0: de6c f3be a6d6 94be c77c e5be f4e6 1dbe
000000c0: 17af 38be ce7b 01be 0abd c1be 0701 8fbe
000000d0: 7d0e c4be f65d 8bbe 3c45 b8be 4001 f7be
000000e0: 05d7 8abe 3f52 e4be e133 38be 7f2b dd3d
000000f0: 41e3 41be fe10 0bbe 58ef a4be a832 2abe
00000100: fcef c0be 2a51 b6be 2638 a6be a1fe bebe
00000110: 218c acbe 3fd7 68be e7fe 6abe 591e 08bf
00000120: 6dad d6bd 822f a1be 5e1c a2be 6ce3 03be
00000130: c1a1 15bf 35ce a7be a370 c2bd 1989 8bbe
00000140: 1252 d1be 6215 05bf 1b99 08bf 9a2e 16be
00000150: f5e1 6abe ac1a ddbe d9f3 bcbe cb9e 86be
00000160: f228 22be 0544 dcbe 025e b8be 658d 8dbe
00000170: 515c 973c ef55 e1be 6f58 14be ada7 cdbe
00000180: fcdf b4be 9451 9fbe ab5e 75be c8f0 0dbe
00000190: 9515 c3be 4030 75be 4210 90be bda2 32be
000001a0: e2ca 86be 70d9 8dbe c21f f3be d250 47be
000001b0: c6b9 40be 4baf a5be 9d72 b9be d9fb a4be
000001c0: d24d 5cbe bc17 00bf 8712 d6bd 75b2 5fbe
000001d0: 9402 bcbe 71ce e6be 26f1 3dbe 281e f1be
000001e0: e84a f6bd 69c1 a9be 9e15 3dbe 43ac a9be
000001f0: 4d55 ec3d 56ad b8be 1203 73be b908 07be
00000200: f500 85be c384 bfbe 01cc 26be 1f6e cabe
00000210: 493e c0bd 6dc2 9fbd 36df 90be a4bd debd
00000220: bd52 79be 4039 61bc 17b3 85be 54ea d0be
00000230: 4c11 1bbe 9dae e9be e56e 40be 6b24 eebe
00000240: 781a 8abe 00b0 9733 7044 e6be c515 a1be
00000250: e11e e2bd 10ee 42bc 4800 07bf a43c 08bf
00000260: da8f 79be 889c 79be d894 97be 539e 78bd
00000270: 984a f7be e8f9 b7be 4c25 8bbe aea1 2e3e
00000280: e151 9bbe 3a4d e2be 2a94 7ebe 8b74 1ebd
00000290: 54dd 00bf e91a 0abe 510d acbe 9215 92be
000002a0: d369 87be 9184 4ebe 6bdd cbbe 690d 12be
000002b0: 96c2 503e 1398 cbbe c431 a7be 5f92 0bbf
000002c0: 59ef 57be 6e22 2bbe fc60 b0be 7549 e4be
000002d0: 3785 bfbe a973 89be 430a cd3d b56f 57be
000002e0: 8414 23be 61bf fabe 9074 abbe 84f9 f6be
000002f0: 417e f1be 3242 51be e956 bc3d 6d97 30be
00000300: f5b6 5cbe 882a c2be 47b5 c2be 4608 cdbe
00000310: e13d 8abe 09d4 71be 2a3b acbe a47d a8be
00000320: c9cd 9d3e acad aabe 920d d2be e414 b3be
00000330: 880a ebbe 11f4 e1be e24e 72be 56ad 3cbe
00000340: 1709 10bf 2fe9 efbc 4163 bebe 2384 9dbd
00000350: 14a5 cabe 2060 53be 0418 c1be 629f a3be
00000360: 7378 babe 14c4 5dbd 9d3e ebbe 595f 0fbf
00000370: a173 05bf aaf8 d6be f9f6 01be 67e9 69be
00000380: 5ed5 b3be 8e08 94be 3776 d8bd 2c07 c2be
00000390: bd12 a7bd 9b17 cd3d 9c69 c4be 838d efbe
000003a0: 6138 06bf 9913 98be f664 edbd 345f 94be
000003b0: 81d6 51be eb34 fabd 30b3 a0be 4f4c eabe
000003c0: 30e2 6cbe 5494 9ebe a64d fcbe 9419 93be
000003d0: bcdd 00bf cc92 26be 0aa3 35be d3e2 62be
000003e0: bbdc 0bbe 946d 24bd 520a ffbe a4a4 d6be
000003f0: a3af 0abd b696 6e3e fe74 06bf 9b32 e6be

fc2.weight f4 [128, 260]
-0.5173033 0.21189186 -0.60167676 -0.39424333 -0.026317611 -0.0960857 -0.0784082 -0.52742714
-0.12524289 -0.042175096 0.101451606 0.4253123 -0.58263326 -0.18809035 -0.08937201 -0.0867476
-0.38362053 -0.16201897 -0.15984192 0.05858286 0.18373477 0.1513454 0.19054696 0.17014962
0.6659448 0.18183865 -0.5264222 0.15592822 -0.027854566 -0.19105229 0.3617632 -0.3571328
-0.37952337 0.41838282 0.082343325 0.7202769 0.06142132 -0.2009302 -0.637902 0.29285184
0.2880357 0.02996659 -0.5491556 -0.6175333 -0.022362825 -0.06497803 0.2045497 0.093853034
-0.44190472 0.40875134 0.2501077 -0.013892234 -0.36230206 -0.20482515 -0.36032984 0.1928699
-0.59491986 0.045177985 0.2036393 -0.18038072 0.22015037 -0.07544018 0.12084119 0.15757042
-0.005050341 0.3581064 0.16923988 0.38133842 -0.2191084 -0.4185045 0.27134475 -0.31085616
0.0072193365 0.17247626 0.23757263 0.31839895 -0.18831106 -0.38596627 0.020707201 0.20842485
-0.0086562345 -0.18849887 -0.3644473 -0.08124307 -0.44596034 0.514502 -0.42353347 -0.108860075
1.1158813 -0.36690694 0.5686829 -0.38487893 -0.0644937 0.16025887 0.07233196 0.41687715
-0.12594518 -0.5276284 -0.3732053 0.030543778 0.1774903 0.051725674 -0.16855197 -0.12005691
-0.49405387 -0.11496963 -0.16413051 -0.39719886 -0.3396063 0.15835069 -0.1537912 -0.3649846
0.35070384 0.020450767 -0.08674286 -0.10653786 0.26345232 -0.15899065 -0.30692765 -0.11103657
-0.04433507 -0.08262324 -0.7504696 -0.4495808 0.063033335 -0.04538671 0.4065263 0.5855709
-0.4514554 -0.13708125 -0.09825827 -0.36489418 -0.11716815 -0.5135099 -0.20449735 -0.015313827
0.080967136 -0.013704426 -0.76511157 -0.0552585 -0.004882917 0.16000463 -0.76289654 0.0027544743
-0.18192469 0.4149791 -0.2919989 0.07205584 -0.33043015 -0.069914535 -0.2249244 -0.28809172
0.0979808 0.19208789 -0.09024209 0.014132614 -0.049443215 0.39336723 -0.3919168 0.12155489
-0.30241865 -0.103354625 0.40065145 0.40962374 0.52434754 -0.46234384 -0.2646702 -0.09031806
-0.04677716 -0.4295403 -0.072723754 -0.6541677 0.13471244 -0.42546555 -0.00072887697 0.15984064
-1.3005614 -0.5957138 0.12956248 0.026603485 -0.27346244 -0.4284714 0.031558838 -0.021622071
-0.096247956 -0.32461944 -0.9137988 0.28039086 -0.38722813 0.4214939 -0.22289374 -0.5404615
0.36307323 -0.05106601 0.35519615 0.48030463 -0.13810554 0.36542815 0.059882984 -0.36588085
-0.16051246 -0.56733775 0.021491844 -0.14192362 0.463495 0.382855 0.4639625 0.36139148
-0.25158337 0.013013301 -0.05106752 -0.37367773 -0.1465029 -1.2776496 -0.48042092 -0.20147166
-0.5937621 -0.6314438 -0.078763105 0.07670636 0.07095403 -0.42286122 0.06751173 -0.4389287
-0.20417602 -0.18894896 -0.840431 0.20646754 -0.24784048 0.031434406 -0.41233316 -0.010937228
0.11160356 0.37381843 -0.02960929 -0.5511654 0.061539408 -0.39717555 -0.2520957 -0.38322115
0.16611874 0.5279503 0.15980981 -0.21333347 0.2514978 -0.7038815 0.13167566 0.16922925
-0.08479821 0.22414574 0.3017178 -0.04536852 -0.40164492 -1.0759343 0.35489172 -0.36226955
00000000: fd6d 04bf 2efa 583e 7d07 1abf 43da c9be
00000010: 0898 d7bc 94c8 c4bd 7a94 a0bd 7705 07bf
00000020: ac3f 00be cbbf 2cbd dcc5 cf3d 89c2 d93e
00000030: 7427 15bf c29a 40be ac08 b7bd baa8 b1bd
00000040: e969 c4be 4de8 25be 9aad 23be 95f4 6f3d
00000050: f824 3c3e 4afa 1a3e be1e 433e b43b 2e3e
00000060: 5c7b 2a3f e933 3a3e 9bc3 06bf a6ab 1f3e
00000070: 422f e4bc 36a3 43be 0739 b93e 1cda b6be
00000080: e350 c2be 4636 d63e 9ea3 a83d 1164 383f
00000090: ec94 7b3d a5c0 4dbe 8c4d 23bf adf0 953e
000000a0: 6a79 933e 7f7c f53c 7695 0cbf aa16 1ebf
000000b0: 3e32 b7bc 3413 85bd 7a75 513e 0536 c03d
000000c0: 5641 e2be db47 d13e 1e0e 803e 419c 63bc
000000d0: a87f b9be afbd 51be 277d b8be b07f 453e
000000e0: ab4c 18bf 8d0c 393d d286 503e b9b5 38be
000000f0: 196f 613e 6280 9abd 967b f73d 245a 213e
00000100: 557d a5bb b959 b73e 384d 2d3e ca3e c33e
00000110: f45d 60be 3946 d6be b3ed 8a3e 8a28 9fbe
00000120: 2f90 ec3b 9e9d 303e 3d46 733e 3005 a33e
00000130: 9dd4 40be 5f9d c5be 26a2 a93c 536d 553e
00000140: e1d2 0dbc d905 41be d698 babe c462 a6bd
00000150: ea54 e4be 67b6 033f 61d9 d8be 08f2 debd
00000160: 33d5 8e3f 3adb bbbe 3495 113f da0e c5be
00000170: 4615 84bd e71a 243e c722 943d ec70 d53e
00000180: c6f7 00be a812 07bf c414 bfbe f236 fa3c
00000190: 04c0 353e 4dde 533d e398 2cbe 66e0 f5bd
000001a0: a1f4 fcbe 3375 ebbd d411 28be a65d cbbe
000001b0: e1e0 adbe af26 223e 717b 1dbe 43df babe
000001c0: 748f b33e 5e88 a73c 3ea6 b1bd 8630 dabd
000001d0: 39e3 863e 72ce 22be 9f25 9dbe 2467 e3bd
000001e0: b198 35bd 6036 a9bd c71e 40bf 742f e6be
000001f0: 9f17 813d 6ae7 39bd 3724 d03e f9e7 153f
00000200: 2a25 e7be 075f 0cbe a23b c9bd 69d3 babe
00000210: dbf5 efbd 6375 03bf c167 51be d9e6 7abc
00000220: 19d2 a53d 8788 60bc 5ade 43bf bd56 62bd
00000230: e000 a0bb 41d8 233e 304d 43bf 6984 343b
00000240: 774a 3abe 2478 d43e e180 95be 0392 933d
00000250: 242e a9be 5a2f 8fbd 9552 66be c280 93be
00000260: 28aa c83d b0b2 443e d8d0 b8bd 7b8c 673c
00000270: f884 4abd 6e67 c93e 52a9 c8be c5f1 f83d
00000280: 9ed6 9abe 97ab d3bd 3022 cd3e 34ba d13e
00000290: a43b 063f 55b8 ecbe da82 87be adf8 b8bd
000002a0: 6899 3fbd b5ec dbbe 31f0 94bd 8977 27bf
000002b0: 0ff2 093e 9fd6 d9be 1b12 3fba 44ad 233e
000002c0: cc78 a6bf b380 18bf 07ac 043e 8def d93c
000002d0: 4503 8cbe 9a60 dbbe d743 013d c520 b1bc
000002e0: a61d c5bd 8534 a6be b8ee 69bf 648f 8f3e
000002f0: c442 c6be 0cce d73e 423e 64be af5b 0abf
00000300: bce4 b93e 982a 51bd 45dc b53e 7dea f53e
00000310: 8a6b 0dbe 6619 bb3e dc47 753d bc54 bbbe
00000320: 615d 24be 0c3d 11bf aa0f b03c 6d54 11be
00000330: 374f ed3e 9205 c43e 7e8c ed3e 4e08 b93e
00000340: 89cf 80be be35 553c 2d2c 51bd b052 bfbe
00000350: db04 16be 068a a3bf bbf9 f5be 964e 4ebe
00000360: cb00 18bf 4da6 21bf 8d4e a1bd 3918 9d3d
00000370: 5950 913d 4481 d8be 9743 8a3d 43bb e0be
00000380: 8513 51be d67b 41be 7c26 57bf 3a6c 533e
00000390: e5c9 7dbe 5dc1 003d 551d d3be 0f32 33bc
000003a0: 6890 e43d 2165 bf3e 2f8f f2bc 2d19 0dbf
000003b0: bf10 7c3d 985a cbbe b012 81be 9035 c4be
000003c0: 081b 2a3e c027 073f 2fa5 233e 1774 5abe
000003d0: 52c4 803e 9431 34bf fcd5 063e 6f4a 2d3e
000003e0: afaa adbd 7686 653e c17a 9a3e 57d4 39bd
000003f0: 67a4 cdbe 37b8 89bf 5eb4 b53e 657b b9be

fc2.bias f4 [128]
0.38228378 0.31111574 -0.26543707 0.21177118 -0.024468297 0.5736127 0.30849782 0.8205103
-0.25995517 0.57621497 -0.39280787 0.39656195 0.49225906 -0.018993732 -0.3077066 -0.25177556
0.3302237 -0.20215516 0.69193804 0.33052018 -0.26441932 0.63614523 0.7049449 0.4278441
0.58518314 -0.44758618 -0.052976422 -0.24865218 -0.24349563 0.4300622 -0.19519195 -0.21337381
-0.3005164 0.0019751943 -0.33212596 -0.15119004 -0.1684915 -0.16092668 0.4687623 -0.057863362
-0.14359635 -0.42604873 0.43908587 -0.31106424 -0.0793676 -0.11521442 -0.18703072 -0.09192894
-0.3525654 0.35068324 -0.08416132 0.6924776 -0.18993706 0.4345556 -0.073039435 -0.026241006
0.13513963 -6.812526e-05 0.5513024 0.4077662 -0.17443664 -0.16539234 0.31395116 -0.035057273
-0.18844381 -0.24311149 -0.11882422 0.7786317 0.41486424 -0.10821269 -0.24486706 -0.263124
-0.283642 0.4943149 0.35452884 0.2669904 0.4896006 -0.13957001 0.11752997 -0.25178948
-0.24962957 0.24547926 0.3931805 -0.19852448 0.10997394 -0.30233967 0.7392293 0.4199388
-0.407327 -0.37833434 -0.029857138 -0.2391583 -0.30709758 -0.08772632 0.097462155 0.016635444
-0.1823958 -0.20101486 -0.19734517 0.114062354 -0.25324035 0.516965 0.30842775 -0.35560724
0.3398154 -0.13732538 0.41428012 -0.19130442 -0.057201713 -0.24208216 0.2994543 0.114527725
-0.1861124 -0.117847934 -0.38573644 -0.14806543 -0.43609577 -0.36247608 -0.17160025 0.48284283
0.2763462 -0.17904796 0.51364446 -0.22195745 0.17231584 0.4350984 -0.31833693 0.19146064
00000000: b3ba c33e 904a 9f3e 5ee7 87be 8bda 583e
00000010: bd71 c8bc 48d8 123f 6df3 9d3e f70c 523f
00000020: d818 85be d382 133f 1d1e c9be 2b0a cb3e
00000030: 6109 fc3e be98 9bbc b88b 9dbe bae8 80be
00000040: 1513 a93e c301 4fbe da22 313f f139 a93e
00000050: f861 87be 6ada 223f 4577 343f 620e db3e
00000060: 90ce 153f 042a e5be cefd 58bd ad9e 7ebe
00000070: eb56 79be 1d31 dc3e 66e0 47be aa7e 5abe
00000080: 49dd 99be 4372 013b 6a0c aabe 90d1 1abe
00000090: 0989 2cbe f7c9 24be 9d01 f03e 2202 6dbd
000000a0: ec0a 13be 0f23 dabe ddcf e03e d043 9fbe
000000b0: 7b8b a2bd 8af5 ebbd fb84 3fbe 3d45 bcbd
000000c0: 7483 b4be c18c b33e c55c acbd 3646 313f
000000d0: dc7e 42be 127e de3e b395 95bd 61f7 d6bc
000000e0: 0b62 0a3e 78de 8eb8 2722 0d3f bbc6 d03e
000000f0: 859f 32be 9c5c 29be 35be a03e 3798 0fbd
00000100: 6af7 40be 38f2 78be 1d5a f3bd 6854 473f
00000110: 1669 d43e 9d9e ddbd 6ebe 7abe 30b8 86be
00000120: 8639 91be d816 fd3e ce84 b53e f7b2 883e
00000130: eeac fa3e 71eb 0ebe 8eb3 f03d 8dea 80be
00000140: e59e 7fbe ea5e 7b3e f44e c93e 004a 4bbe
00000150: 043a e13d 44cc 9abe 223e 3d3f 3802 d73e
00000160: 2a8d d0be 0ab5 c1be f596 f4bc eae5 74be
00000170: e53b 9dbe dba9 b3bd 3d9a c73d 0e47 883c
00000180: f7c5 3abe d7d6 4dbe da14 4abe 8699 e93d
00000190: b8a8 81be d157 043f 3eea 9d3e 2712 b6be
000001a0: 49fc ad3e 069f 0cbe 861c d43e 4ee5 43be
000001b0: 584c 6abd 63e4 77be 1352 993e 838d ea3d
000001c0: 4094 3ebe 425a f1bd 3f7f c5be 779e 17be
000001d0: f247 dfbe 7796 b9be fab7 2fbe 2d37 f73e
000001e0: 407d 8d3e 5958 37be 347e 033f d048 63be
000001f0: 9073 303e 38c5 de3e 0ffd a2be 420e 443e

output.weight f4 [1, 128]
0.06507911 0.030994182 -0.0759345 0.047771342 0.050134555 0.10830422 0.025566034 0.20803691
-0.13366869 0.08737528 -0.1710325 0.05010935 0.07341859 0.03141229 -0.0025628211 -0.037636302
0.034265067 -0.021702887 0.13616998 0.05132929 -0.036963817 0.14322513 0.116547704 0.055741258
0.09251034 -0.045941923 -0.08414639 -0.07051308 -0.08989372 0.03824678 -0.1342012 -0.1301786
-0.03197273 -0.08525072 -0.1645272 -0.14363465 0.033261325 -0.0006312784 0.073293485 -0.07548415
0.0075606885 0.09938076 0.07603731 0.015440502 0.082430914 -0.05305965 -0.02033723 -0.110784404
-0.077200264 0.03718943 -0.09497901 0.18753056 -0.01866314 0.0462873 -0.026583202 -0.10657584
0.06750082 0.05424029 0.07314735 0.073342405 0.07051164 -0.06636008 0.06410685 -0.0062939473
-0.044221103 -0.030990407 -0.03188814 0.17124747 0.054947548 -0.04494136 -0.022210225 -0.1614366
-0.098636106 0.11520294 0.049399786 0.045939837 0.05832957 -0.06306897 0.040203094 -0.0709318
-0.06533242 0.055657953 0.06343496 0.00021275732 0.09388089 -0.06334193 0.14383952 0.07845143
-0.042280447 -0.19333632 -0.06001015 -0.107131615 -0.11773436 0.020319525 -0.02828955 0.063784055
0.035390697 -0.019661097 0.008226033 0.04726964 0.03078859 0.02078944 0.04065236 -0.09217067
0.027715588 -0.09718922 0.029405821 0.12728293 -0.16572309 -0.14738908 0.04692662 0.102776915
-0.11118413 -0.24309535 -0.1363429 -0.11208467 -0.062645525 -0.028347582 -0.04251268 0.03884847
0.036081485 0.08556493 0.048489735 -0.1186564 0.0313939 0.06126333 -0.06131384 0.027343225
00000000: 3248 853d 83e7 fd3c 8c83 9bbd e2ab 433d
00000010: e459 4d3d 9ace dd3d dc6f d13c a107 553e
00000020: 72e0 08be d0f1 b23d 2523 2fbe 763f 4d3d
00000030: 7c5c 963d 2caa 003d 01f5 27bb 8628 1abd
00000040: 8759 0c3d 41ca b1bc 2570 0b3e a93e 523d
00000050: 5f67 17bd 9ca9 123e 90b0 ee3d f250 643d
00000060: 1076 bd3d 992d 3cbd f154 acbd 2969 90bd
00000070: 331a b8bd a8a8 1c3d 0a6c 09be 8a4d 05be
00000080: d6f5 02bd ee97 aebd d179 28be f614 13be
00000090: 073d 083d 607c 25ba e51a 963d 6f97 9abd
000000a0: a7bf f73b 2488 cb3d 73b9 9b3d 29fa 7c3c
000000b0: 8ad1 a83d 1355 59bd 439a a6bc efe2 e2bd
000000c0: 2c1b 9ebd f253 183d 5b84 c2bd 0308 403e
000000d0: 71e3 98bc c097 3d3d 04c5 d9bc 6f44 dabd
000000e0: df3d 8a3d 112b 5e3d 47ce 953d 8b34 963d
000000f0: 6868 903d cbe7 87bd 744a 833d 753d cebb
00000100: 3021 35bd 98df fdbc 239d 02bd 7f5b 2f3e
00000110: ae10 613d 6e14 38bd 38f2 b5bc a34f 25be
00000120: ba01 cabd 85ef eb3d 6e57 4a3d 692b 3c3d
00000130: fdea 6e3d 4e2a 81bd 00ac 243d b144 91bd
00000140: 01cd 85bd 98f9 633d 30ea 813d 9c17 5f39
00000150: a044 c03d 6ab9 81bd ab4a 133e 25ab a03d
00000160: 432e 2dbd f5f9 45be 34cd 75bd d267 dbbd
00000170: b61e f1bd 2275 a63c 7dbf e7bc 37a1 823d
00000180: d6f5 103d 4f10 a1bc 7cc6 063c cf9d 413d
00000190: 5a38 fc3c 9e4e aa3c 1783 263d fac3 bcbd
000001a0: cd0b e33c 240b c7bd 7ae4 f03c 7556 023e
000001b0: 50b3 29be 2aed 16be 2136 403d b47c d23d
000001c0: 81b4 e3bd fded 78be 799d 0bbe a68c e5bd
000001d0: 4c4c 80bd 3039 e8bc c721 2ebd 931f 1f3d
000001e0: 2eca 133d ab3c af3d 2c9d 463d 2002 f3bd
000001f0: e496 003d 42ef 7a3d 3924 7bbd e6fe df3c

bn1.weight f4 [33]
-0.00010157919 0.09580672 0.13065012 0.0037280146 -0.18624635 0.0872371 0.15247737 0.036833968
0.04909179 0.024650635 0.0666384 0.0646677 0.06757286 0.5189672 0.15993793 0.5937149
0.20096736 0.21966313 0.20829175 0.25513166 0.03962068 0.02899787 0.03508214 0.2361069
0.14325492 0.21945384 0.6143984 0.097228885 0.6512163 0.35885364 0.43444908 0.37214512
0.49655157
00000000: ea06 d5b8 5036 c43d 25c9 053e b551 743b
00000010: 5db7 3ebe 5da9 b23d 0723 1c3e 37df 163d
00000020: 7914 493d 21f0 c93c b779 883d 8070 843d
00000030: a463 8a3d 09db 043f c5c6 233e b3fd 173f
00000040: 63ca 4d3e 5fef 603e 6f4a 553e 9ea0 823e
00000050: 4b49 223d f18c ed3c 4ab2 0f3d 02c6 713e
00000060: 6bb1 123e 82b8 603e 3749 1d3f f01f c73d
00000070: 1db6 263f aabb b73e 1c70 de3e ce89 be3e
00000080: 023c fe3e

bn1.bias f4 [33]
-0.0018068135 -0.051304888 -0.00047452035 -0.00088898424 -0.020782856 -0.0007079637 -0.00930341 0.0056486134
0.007345792 -0.0018070263 0.003873769 -0.027820142 -0.0066993264 0.0100895455 0.058125224 -0.06943595
0.0027907004 0.20436583 0.007434525 -0.09737415 -0.004467989 0.0076932097 0.0035401029 -0.028626649
0.066887766 0.004143822 0.055714015 0.3122981 -0.0043395464 0.37987438 -0.0038959323 -0.0028492676
0.1402478
00000000: 9ad2 ecba 1325 52bd 0bc9 f8b9 b90a 69ba
00000010: cf40 aabc a496 39ba 546d 18bc 0118 b93b
00000020: f8b4 f03b bed9 ecba 0fdf 7d3b 11e7 e3bc
00000030: 0686 dbbb 9f4e 253c b714 6e3d 6f34 8ebd
00000040: 2fe4 363b 4745 513e 519d f33b 196c c7bd
00000050: 3568 92bb 5217 fc3b 1201 683b 6f82 eabc
00000060: 74fc 883d e6c8 873b 6134 643d 89e5 9f3e
00000070: c132 8ebb e57e c23e e652 7fbb c7ba 3abb
00000080: 1f9d 0f3e

bn1.running_mean f4 [33]
-0.124065034 -2.7113755 -0.3444012 0.91294724 -0.01445671 0.008547214 -0.050826155 -0.030869681
-0.011228526 -0.0041624443 -0.010475825 -0.008581191 0.09521999 -0.30588892 -2.604644 -0.4406173
-0.0060839127 0.357863 0.006648248 -0.3042628 0.026075568 -0.0013884357 0.007583036 -0.042614203
0.1294789 0.07712271 -0.19569679 -0.99999976 -0.3374122 0.0 0.99999976 0.0
-0.08218308
00000000: cf15 febd 2d87 2dc0 5b55 b0be e9b6 693f
00000010: d6db 6cbc 9d09 0c3c 162f 50bd 6ae2 fcbc
00000020: daf7 37bc 1d65 88bb cba2 2bbc 2098 0cbc
00000030: b302 c33d 799d 9cbe 7db2 26c0 9798 e1be
00000040: 8f5b c7bb d239 b73e 8cd9 d93b 55c8 9bbe
00000050: 6e9c d53c 2cfc b5ba 1e7b f83b 3b8c 2ebd
00000060: 1e96 043e 83f2 9d3d bd64 48be fcff 7fbf
00000070: 4bc1 acbe 0000 0000 fcff 7f3f 0000 0000
00000080: 9a4f a8bd

bn1.running_var f4 [33]
3.339088 0.25695103 4.9866195 0.0013702499 0.053132113 0.004789821 0.10470142 0.26251704
0.05575988 0.098011054 2.0629175 0.7044047 2.646314 18.624556 1.4020598 23.274734
0.08232215 0.2004441 0.060424883 0.43460402 1.5387052 0.604243 0.42092216 7.8275394
4.3547945 9.663566 31.85896 6e-45 32.040512 6e-45 6e-45 6e-45
0.32932556
00000000: 9eb3 5540 168f 833e 6392 9f40 f599 b33a
00000010: 0fa1 593d eef3 9c3b b36d d63d a268 863e
00000020: 7964 643d 05ba c83d d706 0440 de53 343f
00000030: 355d 2940 17ff 9441 b276 b33f a832 ba41
00000040: 8498 a83d 3841 4d3e 1580 773d 6b84 de3e
00000050: 4bf4 c43f abaf 1a3f 1c83 d73e 347b fa40
00000060: 7a5a 8b40 f79d 1a41 26df fe41 0400 0000
00000070: 7c29 0042 0400 0000 0400 0000 0400 0000
00000080: 5c9d a83e
