p2_continuous-control/checkpoint_actor.pth (torch_old, 177520 bytes, 18 tensors)

fc1.weight f4 [256, 33]
0	0x3c5a9304	0.013340715
1	0xbe035812	-0.12826565
2	0xbc2628ec	-0.0101415925
3	0xbd5b9b70	-0.053615034
4	0xbbfddd5a	-0.0077473344
5	0x3d5c46a1	0.053778294
6	0x3e3b186f	0.1827104
7	0x3d9e291f	0.07722687
8	0xbde9d9ea	-0.11418517
9	0xbcefb0b5	-0.029259065
10	0xbdd1797b	-0.10228249
11	0xbdaa6769	-0.08320505
12	0xbdc393d9	-0.09549684
13	0x3d1f40df	0.038880225
14	0x3daf24a4	0.085519105
15	0xbd842aa0	-0.064534426
16	0xbd1a4270	-0.037661016
17	0x3de72262	0.11285855
18	0xbd63bcfa	-0.055600144
19	0x3d722b73	0.059123468
20	0x3d4815a0	0.04884875
21	0x3d1fe3b5	0.039035518
22	0xbcb76408	-0.022386566
23	0xbd3554b1	-0.04427022
24	0xbd948f2b	-0.072538696
25	0xbd7301ba	-0.05932782
26	0x3d803405	0.06259922
27	0xbebccd4a	-0.36875373
28	0x3daaa7ad	0.08332763
29	0x3eaa3ae9	0.3324807
30	0x3ccf576c	0.02531024
31	0xbe09d737	-0.13461004
32	0x3b0ab66c	0.002116586
33	0xbde09152	-0.10965218
34	0xbd946537	-0.07245868
35	0x3c76f17e	0.015072225
36	0x3d8e4897	0.06947439
37	0xbd48c59c	-0.04901658
38	0xbd32161a	-0.04347811
39	0x3dcc80f0	0.099855304
40	0xbdd26c22	-0.10274531
41	0xbd9053ef	-0.07047259
42	0xbcd422bf	-0.025895474
43	0x3dd94a5f	0.10609888
44	0x3c02cbdb	0.007983173
45	0x3e1884c9	0.14894404
46	0xbe3100f4	-0.1728552
47	0x3cac7d7d	0.021055931
48	0x3daf0749	0.085463114
49	0xbe4f4dc7	-0.20244513
50	0xbda82adb	-0.08211299
51	0x3dd239ff	0.10264968
52	0xbdbcb19a	-0.09213562
53	0x3d6179aa	0.05504767
54	0x3e13366e	0.14376232
55	0xbd2382f8	-0.039919823
56	0xbe1bcbd9	-0.1521448
57	0x3d7d09e9	0.06177703
58	0x3baf6977	0.0053531486
59	0xbe00e30e	-0.12586614
60	0x3d81f996	0.06346433
61	0xbba2b5bf	-0.0049655135
62	0x3d2af430	0.04173678
63	0xbd2d4b86	-0.042308353
64	0xbd2f9912	-0.04287059
65	0x3d206f67	0.03916874
66	0xbe1feb9d	-0.15617223
67	0x3d9d5c05	0.07683567
68	0x3de2f1a6	0.11081247
69	0xbe665bb2	-0.22495916
70	0xbbe786a2	-0.00706561
71	0xbdcce80d	-0.10005198
72	0xbd8405a8	-0.06446391
73	0xbdae97b0	-0.08525026
74	0xbd27dcaa	-0.040981926
75	0xbd89a040	-0.067200184
76	0x3d42804f	0.047485646
77	0x3cfafe55	0.030638853
78	0x3e56c542	0.20973685
79	0x3c2bbbd7	0.010481796
80	0x3dae0658	0.08497304
81	0x3e0c15e3	0.13680224
82	0xbdc318c3	-0.09526207
83	0xbd5127ac	-0.051063225
84	0x3df6a174	0.120425135
85	0x3d86e4c6	0.06586604
86	0xbe06341e	-0.13105819
87	0xbc597fde	-0.013275115
88	0x3c8a8c16	0.016912501
89	0x3df3cde8	0.11904508
90	0x3dc8e1b5	0.09808675
91	0x3e1818c5	0.14853199
92	0x3e274ac2	0.16337112
93	0xbb669eae	-0.0035189795
94	0x3e2c9ac7	0.16855918
95	0xbe4cb2a1	-0.19990017
96	0xbe5ba31a	-0.21448937
97	0x3ca6d12a	0.02036341
98	0x3dd2da55	0.1029555
99	0x3d5138a3	0.051079404
100	0xbd5611b0	-0.052262962
101	0xbd7633b7	-0.060107913
102	0xbdf41e1d	-0.11919806
103	0x3d8ca336	0.068670675
104	0x3d42e588	0.04758218
105	0x3d353a6f	0.04424518
106	0xbd0e9a08	-0.034814864
107	0xbd9ae34a	-0.07562883
108	0xbacc7ac7	-0.0015600555
109	0xbe2ce93a	-0.16885844
110	0xbd997ea3	-0.07494857
111	0x3d59ef52	0.05320675
112	0x3d843f17	0.06457346
113	0xbc7d886f	-0.015474423
114	0xbe4144c4	-0.18873888
115	0x3dbbbf11	0.091673024
116	0xbc76f5fd	-0.015073297
117	0xbdacf885	-0.08445839
118	0xbe1cfc15	-0.15330537
119	0x3dd73082	0.10507299
120	0x3d6f4beb	0.05842201
121	0x3bb6cd05	0.0055786395
122	0x3d8d819a	0.06909485
123	0x3c7859a8	0.0151580945
124	0xbdfb2a34	-0.12263909
125	0xbdad72bc	-0.084691495
126	0xbd57cf7a	-0.0526881
127	0x3e83060e	0.25590557
128	0x3dbe1629	0.092815705
129	0x3d41f65c	0.047354087
130	0xbba50075	-0.005035455
131	0xbdad0a97	-0.084492855
132	0x3e019c73	0.12657337
133	0xbb2862e5	-0.0025693711
134	0x3e28e5a5	0.16493852
135	0xbda18274	-0.0788621
136	0x3ccfa8bb	0.025349012
137	0xbc57dce1	-0.01317522
138	0x3cf95988	0.0304382
139	0x3bdbaefa	0.0067042084
140	0x3d0f2fd5	0.034957726
141	0x3d1f5473	0.038898896
142	0x3dd0c33a	0.101934865
143	0xbd5254d5	-0.051350433
144	0xbd4fa50e	-0.050694518
145	0xbdaa4c89	-0.08315379
146	0xbbb07a05	-0.0053856396
147	0xbd406c48	-0.046978265
148	0x3c455646	0.012044495
149	0xbce3f0cd	-0.027824784
150	0x3e23e616	0.1600574
151	0x3dd54d32	0.104151145
152	0x3ba17e1f	0.004928365
153	0x3c714e71	0.014728175
154	0x3c6e5f48	0.014549084
155	0x3c8378b9	0.016048776
156	0xbc600a0c	-0.01367427
157	0x3d6287a7	0.05530515
158	0xbd956640	-0.07294893
159	0x3e2fdce2	0.17174104
160	0x3e68616a	0.2269341
161	0x3d6f7af6	0.058466874
162	0xbd0cc42e	-0.03436678
163	0x3de13c57	0.10997837
164	0x3d0f482b	0.034980934
165	0xbdfbe46d	-0.12299428
166	0xbb965a30	-0.004588388
167	0x3d9e6fb7	0.07736152
168	0x3e221192	0.15827015
169	0xbddd75e8	-0.108135045
170	0x3d92e0a1	0.07171751
171	0x3d67780c	0.05651097
172	0xbd8ee4c5	-0.06977228
173	0x3da4b099	0.08041496
174	0xbd8b08b4	-0.06788769
175	0x3e450f14	0.19244033
176	0x3e0766c1	0.13222791
177	0x3e285965	0.16440351
178	0x3b152799	0.0022759198
179	0xbc366527	-0.011132515
180	0xbe04ffee	-0.12988254
181	0xbdb178be	-0.08665608
182	0xbdd2049c	-0.102547854
183	0xbd87c7a5	-0.06629876
184	0x3d885b4b	0.06658038
185	0xbdd09700	-0.10185051
186	0xbd000a39	-0.03125975
187	0x3daf9ed3	0.08575215
188	0x3d8f7ee7	0.070066266
189	0xbe395a83	-0.18100934
190	0xbe6cae02	-0.23113254
191	0xbd4bc960	-0.049752593
192	0xbad4ccd0	-0.0016235355
193	0x3d2f655b	0.04282127
194	0xbdd63377	-0.10459035
195	0xbe3797d3	-0.1792901
196	0x3e270a16	0.16312441
197	0xbe31816e	-0.1733453
198	0xbdee5260	-0.116368055
199	0xbd8308e9	-0.06398184
200	0x3e4d9c14	0.2007907
201	0x3b98362d	0.00464513
202	0x3bcb0376	0.006195481
203	0x3d979835	0.07402078
204	0x3b0b3ab7	0.0021244714
205	0x3d30d94e	0.043175988
206	0xbe2705a6	-0.16310748
207	0xbd554034	-0.052063182
208	0x3d5880a9	0.052857075
209	0xbda8f096	-0.08249013
210	0x3b7092fe	0.0036708708
211	0x3d1df5d3	0.038564514
212	0xbd3e9af0	-0.04653448
213	0x3df448b4	0.119279295
214	0xbd055e2d	-0.032560516
215	0x3dbaa0a1	0.09112669
216	0x3cdc9903	0.02692843
217	0x3caf29b4	0.02138219
218	0x39ebbfd6	0.00044965622
219	0x3c8becb0	0.017080635
220	0xbcfa71b4	-0.030571796
221	0xbe26e63b	-0.16298763
222	0xbdeb4019	-0.11486835
223	0x3e5fa75e	0.2184119
224	0xbe5b00d6	-0.21387038
225	0x3e45c437	0.19313131
226	0x3e137c53	0.14402895
227	0xbe21361c	-0.15743297
228	0x3a876e1c	0.0010332498
229	0x3c986756	0.018603962
230	0x3d0561ab	0.032563847
231	0xbe1d3acf	-0.15354465
232	0x3cf9ddf4	0.030501343
233	0xbc853b25	-0.016263554
234	0x3c32d127	0.010914124
235	0xbd477fad	-0.048705745
236	0xbd7cbfe0	-0.061706424
237	0x3cb3f4d8	0.021967337
238	0x3d4bcf6f	0.04975837
239	0x3d1a22d4	0.03763087
240	0x3d81a301	0.06329919
241	0x3d670ba5	0.05640759
242	0x3dd46c97	0.10372274
243	0xbe19ce74	-0.15020162
244	0x3c8a1624	0.01685626
245	0x3d675161	0.056474093
246	0x3da40797	0.0800926
247	0x3c4aa6f9	0.012368911
248	0x3d933d9f	0.07189488
249	0x3d957c12	0.07299055
250	0xbe068895	-0.1313804
251	0x3cdceb10	0.026967555
252	0x3cc500e2	0.024048273
253	0xbbae8fdf	-0.0053272094
254	0xbce8ecce	-0.02843323
255	0x3b844fe3	0.0040378436

fc1.bias f4 [256]
0	0x3e5adf24	0.21374184
1	0x3c9c275b	0.019061735
2	0xbd855f7f	-0.06512355
3	0x3cd3cf31	0.025855632
4	0xbce45fdb	-0.027877739
5	0xbd4075a9	-0.04698721
6	0xbd1866ab	-0.037207287
7	0x3d15678c	0.036475703
8	0x3c978531	0.018496128
9	0xbd0d8649	-0.034551892
10	0xbd821ac3	-0.06352761
11	0x3c05bc34	0.008162547
12	0xbd26b8a7	-0.040703442
13	0x3d7d8c22	0.06190122
14	0x3ca83fa2	0.020538155
15	0x3d179069	0.037002955
16	0xbd4d6af6	-0.050150834
17	0x3e565daf	0.20934175
18	0x3d37402e	0.04473894
19	0xbd4ea493	-0.05044992
20	0x3d590b46	0.052989267
21	0x3e018d5e	0.12651584
22	0x3c1fdc6b	0.009757142
23	0x3b0a44f4	0.0021098228
24	0x3dbdea7c	0.0927324
25	0x3deeb2d6	0.11655204
26	0x3d576936	0.05259057
27	0x3cc176db	0.023616245
28	0xbcc8c28d	-0.024506832
29	0x3d566322	0.052340634
30	0x3aec39d6	0.0018022608
31	0xbdba7487	-0.09104257
32	0xbdbf6e8e	-0.093472585
33	0xbd5fc028	-0.054626614
34	0xbd1afd63	-0.037839305
35	0x3bd7f25f	0.006590172
36	0xbd90fef3	-0.07079878
37	0xbd88b534	-0.06675187
38	0xbcbadbc0	-0.022809863
39	0xbdec9971	-0.11552704
40	0x3cf05c29	0.02934082
41	0x3d4080a0	0.046997666
42	0x3d11f139	0.03563044
43	0xbd8406dd	-0.064466216
44	0x3ce32f95	0.02773265
45	0x3d7ce099	0.06173763
46	0x3cfe9c33	0.031080341
47	0xbc90540d	-0.017618204
48	0xbdb93ee1	-0.09045196
49	0x3cb1bac7	0.021695508
50	0xbd646485	-0.055759925
51	0xbde71c61	-0.1128471
52	0xbcab1ad7	-0.020886822
53	0xbd8c28b2	-0.068436995
54	0x3e13d3d4	0.14436275
55	0x3d88d736	0.06681673
56	0x3b458cf6	0.0030143834
57	0xbcfde592	-0.030993257
58	0x3cce253e	0.025164243
59	0x3d2275fd	0.039663304
60	0x3bd2fa84	0.006438555
61	0xbbc710f6	-0.00607502
62	0xbc0a24e1	-0.008431644
63	0xbe1511f8	-0.14557636
64	0xbdad2956	-0.0845515
65	0xbcb16f20	-0.021659434
66	0xbc7cbdea	-0.015426138
67	0xbe6f80b9	-0.23388948
68	0xbce6d8d1	-0.028179558
69	0x3d777cc5	0.060421724
70	0xbc35b86a	-0.011091331
71	0x3d5f8cc3	0.0545776
72	0x3d164654	0.036688164
73	0xbcf2e631	-0.02965078
74	0xbe2f0484	-0.17091566
75	0x3c9737a9	0.018459158
76	0xbc87669b	-0.016528418
77	0x3d29bb33	0.041438293
78	0xbe24c56e	-0.16090938
79	0x3d1182c9	0.035525117
80	0xbd87a1fd	-0.06622694
81	0x3cc7a167	0.024368955
82	0x3d0cd4d7	0.034382667
83	0xbd5bf6d0	-0.053702176
84	0xbdb15b35	-0.086599745
85	0xbdd4ee62	-0.103970304
86	0xbc179b17	-0.009253285
87	0x3d6b60a8	0.057465225
88	0x3d762d0a	0.060101546
89	0x3cf6a4c2	0.03010786
90	0xbd98e126	-0.07464819
91	0xbd8ce38c	-0.068793386
92	0x3a7b4391	0.00095849583
93	0xbca7ae48	-0.020468846
94	0x3ca8010e	0.020508315
95	0x3c0b5394	0.008503813
96	0xbda8aced	-0.08236108
97	0xbc8784d9	-0.016542839
98	0xbd7cb8cc	-0.061699674
99	0xbd62a625	-0.05533423
100	0x3da1d0af	0.07901131
101	0x3c327b67	0.010893679
102	0xbd96c5b9	-0.07361931
103	0x3cf63437	0.030054195
104	0xbcf8de37	-0.030379398
105	0x3d0563f8	0.03256604
106	0x3cb1891b	0.021671822
107	0xbda37ef3	-0.07983198
108	0xbd521dfa	-0.05129812
109	0x3dd1ff02	0.10253717
110	0x3bc1045e	0.005890413
111	0xbdd787d1	-0.10523952
112	0x3d70b5d7	0.058767166
113	0x3cf9604d	0.030441428
114	0xbe01c1ce	-0.12671587
115	0xbced4133	-0.028961753
116	0x3d5b8165	0.053590197
117	0x3cab4db9	0.020911084
118	0x3d4c0e8d	0.049818564
119	0xbd2eb9d5	-0.042657692
120	0xbd8fbcf6	-0.07018463
121	0xbc05748e	-0.008145465
122	0xbb3c1532	-0.0028699157
123	0x3e52ef16	0.20599017
124	0x3d3bf2c5	0.04588582
125	0xbd33a413	-0.043857645
126	0xbe0b2335	-0.13587649
127	0x3ccca6f2	0.02498195
128	0x3c85c036	0.016327005
129	0x3e429b29	0.19004501
130	0xbd855c29	-0.06511719
131	0x3e1aae88	0.15105641
132	0x3cc4fc6e	0.02404615
133	0x3e1858a7	0.14877568
134	0x3d35e1fa	0.04440496
135	0xbe05d03f	-0.13067721
136	0x3dc887f9	0.0979156
137	0x3d8ddb33	0.069265746
138	0xbc97272e	-0.0184513
139	0x3d9f71fa	0.07785411
140	0xbdca29d7	-0.098712616
141	0x3d279581	0.040914062
142	0x3c8c668d	0.017138744
143	0x3dca5e94	0.098813206
144	0x3e1cd6ba	0.15316287
145	0x3d1661b2	0.036714263
146	0xbb16d151	-0.0023012946
147	0xbcee9073	-0.029121613
148	0xbdf45854	-0.1193091
149	0xbc263991	-0.010145561
150	0x3deb8d50	0.115015626
151	0x3d122a3f	0.03568482
152	0xbd64dfa3	-0.05587734
153	0x3c060fa2	0.008182438
154	0x3d106d36	0.0352604
155	0x3b6ed992	0.00364456
156	0xbe02331a	-0.12714806
157	0xbcba4496	-0.022737782
158	0x3d77e71d	0.06052314
159	0x3dc0b4cd	0.09409485
160	0x3dcfd8ab	0.10148748
161	0xbd8eb322	-0.069677606
162	0x3aa20c32	0.0012363254
163	0xbbd74244	-0.006569179
164	0x3d9faa1e	0.07796119
165	0x3d3a5958	0.04549536
166	0xbdc67c54	-0.096916825
167	0x3d110201	0.0354023
168	0xbd8de983	-0.069293045
169	0x3cca53b5	0.024698118
170	0x3cb81cb2	0.02247462
171	0xbdffca53	-0.12489762
172	0x3dd2136a	0.10257609
173	0xbd6b3d44	-0.057431474
174	0xbe10f06f	-0.14154218
175	0xbdfd800f	-0.12377941
176	0xbc2b9c59	-0.010474288
177	0x3ce4b16a	0.027916629
178	0x3c883342	0.016626004
179	0x3ddcff67	0.10790902
180	0xbbf05650	-0.007334508
181	0xbc93c728	-0.018039301
182	0xbd2ccf03	-0.04218961
183	0xbc6979c1	-0.01425022
184	0x3e3d0c61	0.18461753
185	0x3d1c4256	0.0381492
186	0xbb749068	-0.0037317518
187	0x3d3ec793	0.046577048
188	0x3da406aa	0.080090836
189	0xbe3e4a4e	-0.18583032
190	0xbd185f58	-0.037200302
191	0xbce89710	-0.028392345
192	0xbce2faa7	-0.027707411
193	0xbc8854c9	-0.016641991
194	0x3d83e70f	0.06440555
195	0xbcaf612c	-0.02140864
196	0x3e0d4125	0.13794382
197	0xbc895173	-0.01676247
198	0xbe245175	-0.16046698
199	0xbc9a841c	-0.018861823
200	0xbd9288e3	-0.07155015
201	0xbe0350ae	-0.12823746
202	0xbcc49e27	-0.024001194
203	0xbde5a291	-0.11212648
204	0x3c58c0c4	0.013229553
205	0xbdbee052	-0.093201295
206	0xbd87e94a	-0.06636293
207	0xbcdfdbf0	-0.027326554
208	0xbce84783	-0.028354412
209	0xbbcc90b4	-0.006242836
210	0x3c3b173e	0.011419116
211	0xbe0cb3c6	-0.13740453
212	0xbcf386f7	-0.029727442
213	0x3d1d4444	0.03839518
214	0x3a87eabc	0.0010369639
215	0xbd8dc8f4	-0.069230944
216	0xbba11d8b	-0.004916852
217	0x3cff54a4	0.03116829
218	0x3df607e7	0.12013226
219	0xbde3e70b	-0.11128052
220	0xbd5da59a	-0.054113008
221	0xbd9be3c1	-0.076118
222	0xbcd56a90	-0.02605179
223	0x3de1366c	0.10996708
224	0xbd1b2369	-0.037875567
225	0xbc676c32	-0.014124917
226	0xbe054d73	-0.13017826
227	0xbd8b4650	-0.068005204
228	0xbca38dc6	-0.019965064
229	0x3db7d4b7	0.08976119
230	0x3de61e65	0.11236266
231	0xbc80b8fc	-0.015713207
232	0xbca69370	-0.020333976
233	0x3c895a7e	0.016766783
234	0x3d03663b	0.032079916
235	0xbda61def	-0.08111178
236	0x3db4f599	0.088359065
237	0xbe2b47cc	-0.16726607
238	0x3e34100e	0.1758425
239	0xbd458f3c	-0.048232302
240	0x3d372753	0.044715237
241	0x3c56c3c6	0.013108199
242	0xbd8bf4b2	-0.06833781
243	0x3d4d2c48	0.050091058
244	0x3ba84a92	0.0051358426
245	0xbd689e80	-0.056791782
246	0x3d0dfffa	0.034667946
247	0x3ae84428	0.0017720507
248	0x3dbfa904	0.09358409
249	0x3c2c0d65	0.01050124
250	0xbdab4850	-0.08363402
251	0x3c8a7ef3	0.016906237
252	0x3d45ea5d	0.04831921
253	0x3d9b200e	0.07574473
254	0x3d8eb212	0.06967558
255	0x3d1e3fed	0.038635183

fc2.weight f4 [128, 256]
0	0xbd2a5a17	-0.041589823
1	0x3cd91386	0.026498567
2	0xbe3239ba	-0.17404833
3	0xbde976d4	-0.11399618
4	0xbd99ecaf	-0.07515847
5	0xbc7ba90a	-0.015360126
6	0x3cdd11ea	0.026986081
7	0xbd1fc766	-0.03900852
8	0x3c8522e9	0.016251998
9	0xbb5a75be	-0.003333434
10	0xbde868a9	-0.11348087
11	0x3de50c57	0.11183994
12	0x3e01a92d	0.12662192
13	0xbd471957	-0.04860815
14	0xbd007e69	-0.031370554
15	0x3dc65323	0.09683826
16	0xbe4b7159	-0.19867457
17	0x3c2bfe5a	0.010497654
18	0xbe089f00	-0.13341904
19	0x3cdc72e2	0.02691025
20	0x3d6747de	0.056465022
21	0x3ddb2d51	0.10702003
22	0x3e059bd7	0.1304773
23	0xbc1d16d3	-0.009587961
24	0xbcfbbcdd	-0.030729705
25	0xbda5a116	-0.08087365
26	0xbdaf31a5	-0.08554391
27	0x3e01d257	0.12677895
28	0xbcf552e6	-0.029946756
29	0xbd24af7a	-0.04020641
30	0xbd53cc42	-0.051708467
31	0xbdc4cb51	-0.09609092
32	0x3e1eea71	0.1551912
33	0xbc1695a4	-0.009190951
34	0xbae3aee3	-0.0017370846
35	0x3affa5e4	0.0019504395
36	0xbbcacb45	-0.0061887824
37	0xbdf64c27	-0.12026244
38	0x3d2a58b1	0.04158849
39	0xbdcd92a8	-0.10037738
40	0x3c507014	0.012722034
41	0x3d890884	0.06691077
42	0x3e046682	0.12929729
43	0x3d051d06	0.032498382
44	0x3dccb71c	0.09995863
45	0xbcaeb978	-0.021328673
46	0xbde90c9e	-0.1137936
47	0xbd687855	-0.056755383
48	0xbdf992d4	-0.12186208
49	0xbb653fda	-0.0034980685
50	0x3c53a4df	0.012917726
51	0xbd58d3cf	-0.05293637
52	0x3e11312c	0.14178914
53	0xbe0f733b	-0.140088
54	0x3e35b264	0.17743832
55	0xbd8b4684	-0.06800559
56	0x3d675599	0.056478117
57	0xbe1a5565	-0.15071638
58	0xbe2cfebf	-0.16894053
59	0x3e055474	0.13020498
60	0xbe0374fa	-0.12837592
61	0x3e534b33	0.20634155
62	0x3e1fd4b1	0.15608479
63	0xbe65517a	-0.22394362
64	0x3b5b19a6	0.0033432036
65	0xbe15c5fc	-0.14626306
66	0x3da93d42	0.08263637
67	0xbd80c2a8	-0.06287128
68	0xbd3d0cf7	-0.046154942
69	0xbc449a00	-0.011999607
70	0x3de01f9b	0.10943528
71	0x3c2c5d04	0.0105202235
72	0xbda897e0	-0.08232093
73	0xbd4aa438	-0.049473017
74	0x3e0719c1	0.13193418
75	0x3c47392f	0.01215963
76	0xbda57a99	-0.08080024
77	0xbe4740b4	-0.19458276
78	0xbdf15df6	-0.117855
79	0xbd399c64	-0.04531516
80	0x3d0d5da7	0.034513142
81	0xbcee4729	-0.029086666
82	0xbe36f5ca	-0.17867199
83	0x3e29e893	0.16592626
84	0x3b643b55	0.0034825404
85	0x3deb9a67	0.11504059
86	0xbd5eaaea	-0.054362215
87	0xbdedfa95	-0.1162006
88	0xbd8be26c	-0.06830296
89	0x3cf69dbd	0.030104512
90	0xbd6c83e1	-0.057742957
91	0xbdd66301	-0.10468102
92	0xbce1097c	-0.027470343
93	0x3d969247	0.07352119
94	0x3e206c2f	0.15666269
95	0x3db18971	0.08668793
96	0x3dcfb557	0.1014201
97	0xbded53f9	-0.11588282
98	0x3daddac7	0.08488994
99	0xbca0be4d	-0.019621992
100	0xbd3fc551	-0.046819035
101	0x3d4e126d	0.05031054
102	0x3de186a6	0.1101201
103	0xbe3c691f	-0.18399476
104	0xbd37df17	-0.04489049
105	0x3e2cdfe3	0.16882281
106	0xbd8205f2	-0.0634879
107	0x3d8692a9	0.06570942
108	0x3cff131e	0.031137045
109	0xbdfdaa42	-0.1238599
110	0xbc810b82	-0.015752558
111	0xbd57a216	-0.05264481
112	0xbdc4d0cb	-0.096101366
113	0xb89e5dc0	-7.5514894e-05
114	0x3d372cca	0.04472045
115	0x3d638b2e	0.055552654
116	0x3d99da09	0.0751229
117	0x3ce2d0c1	0.027687432
118	0x3d844de4	0.06460169
119	0x3e2a9929	0.16659988
120	0x3d2f3620	0.042776227
121	0x3c291f5a	0.010322416
122	0xbca14a2e	-0.019688692
123	0xbc9f38d4	-0.019436277
124	0xbdc37e82	-0.09545614
125	0xbd3d3941	-0.04619718
126	0x3dfde1f1	0.123966105
127	0xbcd68d68	-0.026190475
128	0xbcca3803	-0.024684912
129	0xbd92ec8c	-0.07174024
130	0xbd44456b	-0.047917765
131	0x3d1a9d4d	0.03774767
132	0x3dc6db72	0.097098246
133	0xbdce2abc	-0.10066745
134	0x3c7c1fe0	0.015388459
135	0x3d918bb1	0.07106722
136	0xbd75e531	-0.060033027
137	0xbd5c74b8	-0.05382225
138	0x3ddf66c2	0.10908271
139	0x3d8b08e4	0.06788805
140	0x3c759832	0.0149898995
141	0x3dc5bdd0	0.096553445
142	0xbd1e1ec8	-0.038603574
143	0xbd182665	-0.03714599
144	0xbd45b23d	-0.048265684
145	0xbd2e0931	-0.042489234
146	0x3cdea823	0.027179783
147	0x3e39d125	0.18146189
148	0xbbae7904	-0.005324485
149	0xbd8372f5	-0.06418411
150	0x3d6a13e3	0.05714787
151	0x3c8332f0	0.0160155
152	0x3d14fd52	0.036374398
153	0x3bf04bc7	0.007333252
154	0x3d062063	0.03274573
155	0x3d843cd8	0.064569175
156	0x3dcadadc	0.09905025
157	0xbe0c6c98	-0.137133
158	0x3d9b7e24	0.07592419
159	0x3d899ff1	0.067199595
160	0xbd07ca96	-0.033152185
161	0x3c145082	0.009052398
162	0x3d3d2c2f	0.046184715
163	0xbadb632c	-0.001673793
164	0xbd3b2fe2	-0.04569996
165	0xbd89b3b4	-0.06723729
166	0xbd77d2b7	-0.060503688
167	0xbd40941b	-0.047016244
168	0x3e02ee3d	0.12786193
169	0x3db67052	0.08908142
170	0x3d01721c	0.031602964
171	0xbda60b24	-0.08107594
172	0x3d406db2	0.046979614
173	0x3c8c23b8	0.017106876
174	0xbd726417	-0.059177484
175	0x3d78b10b	0.060715716
176	0xbdacbe74	-0.084347636
177	0x3dc3ec76	0.09566586
178	0x3d8b61f6	0.06805794
179	0xbddfdd3a	-0.109308675
180	0xbd96d902	-0.0736561
181	0xbd664d67	-0.05622616
182	0xbe111a2d	-0.14170142
183	0x3ce7bf1d	0.028289372
184	0x3c79341a	0.015210176
185	0x3c1dc912	0.009630458
186	0xbc027692	-0.00796284
187	0xbdd6902a	-0.10476716
188	0xbd6ac99d	-0.05732118
189	0x3d984175	0.0743436
190	0xbde49635	-0.11161462
191	0x3de8cc4e	0.11367093
192	0x3e13829b	0.14405291
193	0xbe522256	-0.2052091
194	0x3dce9ab9	0.10088105
195	0xbc5cc11c	-0.013473775
196	0x3d8bdd92	0.068293706
197	0xba8ba60b	-0.0010654343
198	0x3e2ead53	0.17058305
199	0x3b9235b8	0.00446197
200	0xbd307cc3	-0.043087732
201	0xbc7a5692	-0.015279429
202	0x3df07177	0.11740392
203	0xbc05ae9e	-0.008159308
204	0xbc4615cb	-0.012090157
205	0xbd3b3b38	-0.045710772
206	0xbd6f4220	-0.05841267
207	0xbdab97fd	-0.08378599
208	0x3d1fa56e	0.038976125
209	0x3dbc46e7	0.09193211
210	0x3de27d87	0.11059099
211	0x3c9fdd46	0.019514691
212	0xbe29a42a	-0.1656653
213	0x3d1c8b3a	0.038218714
214	0xbdc3b0b9	-0.095551915
215	0xbd1f68f1	-0.03891844
216	0xbe08bea8	-0.1335398
217	0xbd23f9a3	-0.040032994
218	0xbd99ccfb	-0.075098
219	0xbdbeb12a	-0.09311135
220	0xbdf9a944	-0.12190488
221	0xbcde6307	-0.02714683
222	0xbdea9ef4	-0.11456099
223	0x3ba82fc9	0.0051326496
224	0x3db789bf	0.0896182
225	0x3daa7ba3	0.08324363
226	0x3e1812e8	0.14850962
227	0xbdf06b35	-0.11739198
228	0xbc8b7433	-0.017023182
229	0xbc9ff1e9	-0.019524531
230	0x3d4851dd	0.048906196
231	0x3cbe8b82	0.023259882
232	0xbe2feedd	-0.17180963
233	0x3e05d37a	0.13068953
234	0xbcaa2791	-0.02077082
235	0x3d0a80f1	0.033814374
236	0x3d8c02d7	0.06836479
237	0xbd9fe4ea	-0.07807334
238	0x3d6f7cb0	0.05846852
239	0x3e10eccc	0.14152831
240	0x3de2fbd9	0.110831924
241	0x3d53a7aa	0.05167357
242	0x3c591636	0.013249924
243	0xbdb196d8	-0.08671349
244	0xbdd99ad9	-0.10625238
245	0x3db6bda6	0.08922891
246	0x3c8e0281	0.017335178
247	0xbdf9249b	-0.12165185
248	0x3c28a2f4	0.010292757
249	0xbe08d4e7	-0.13362466
250	0x3dcb86ce	0.09937821
251	0xbdbfb566	-0.09360771
252	0x3d7b6117	0.06137189
253	0xbb142a9d	-0.0022608407
254	0x3d3ac345	0.04559638
255	0x3dd9fe40	0.106441975

fc2.bias f4 [128]
0	0xbe0797fe	-0.13241574
1	0xbd1e5f2b	-0.038664978
2	0xbe082332	-0.13294676
3	0xbe376835	-0.17910846
4	0x3defe2af	0.11713158
5	0x3d6ce1bf	0.057832476
6	0xbded5253	-0.11587968
7	0xbd8e43d3	-0.0694653
8	0xbd85273d	-0.06501625
9	0xbdbdcd08	-0.09267622
10	0xbccc61d4	-0.024948992
11	0xbd849b0d	-0.06474886
12	0xbe2301f5	-0.15918715
13	0x3dd56b00	0.10420799
14	0xbd9804f2	-0.07422818
15	0xbda1de68	-0.07903749
16	0x3c9b324f	0.018944887
17	0xbcf98fc2	-0.030464057
18	0xbd8a2ff0	-0.067474246
19	0xbd536a9e	-0.05161535
20	0xbe27402d	-0.16333075
21	0xbd8e1bef	-0.06938922
22	0xbdd8c128	-0.10583717
23	0xbd8efb49	-0.069815226
24	0xbe0ad3a0	-0.13557291
25	0xbbc344cc	-0.005959129
26	0xbdff43c5	-0.12464098
27	0xbd5c19fa	-0.05373571
28	0xbe56ce37	-0.20977102
29	0xbd6e74e0	-0.05821693
30	0xbd8ba61b	-0.068187915
31	0xbd274ddf	-0.040845748
32	0xbd970b1b	-0.07375165
33	0xbd773bce	-0.06035977
34	0x3cfac086	0.03060938
35	0xbe0ae95d	-0.13565584
36	0xbe16c73d	-0.14724441
37	0xbe37f1d3	-0.17963342
38	0xbe0c4f8a	-0.13702217
39	0xbd71002f	-0.058838066
40	0xbdb56845	-0.088577785
41	0xbe2f9809	-0.1714784
42	0xbdbb8efa	-0.0915813
43	0xbe0fddf1	-0.14049508
44	0xbe521399	-0.20515288
45	0xbdac557d	-0.08414743
46	0xbc684969	-0.014177659
47	0x398177df	0.00024694108
48	0xbdd45593	-0.103678845
49	0xbd80419e	-0.062625155
50	0xbe17529a	-0.14777604
51	0xbd835960	-0.06413531
52	0xbd1922cb	-0.037386697
53	0xbde23d9f	-0.110469095
54	0xbe04e0fa	-0.12976447
55	0xbdf75af4	-0.12077895
56	0xbe2c7b07	-0.16843806
57	0xbd933f8e	-0.071898565
58	0xbd9258b2	-0.071458235
59	0xbe4259e3	-0.18979602
60	0xbd97a4f1	-0.07404507
61	0xbe4d7c41	-0.2006693
62	0xbdfca302	-0.12335779
63	0xbdc19e8f	-0.09454071
64	0x3d61e0a4	0.055145875
65	0x3d269482	0.04066897
66	0xbc5b404c	-0.013382029
67	0xbc120c1a	-0.008914018
68	0xbdbc3190	-0.09189141
69	0xbded9a2a	-0.1160167
70	0xbdc0b43e	-0.094093785
71	0xbc686132	-0.014183329
72	0xbd5230a7	-0.05131593
73	0xbd75f3d1	-0.060046975
74	0xbdbf1739	-0.09330601
75	0xbd8321e3	-0.06402948
76	0xbcca5dd9	-0.024702953
77	0xbd967891	-0.07347215
78	0xbdedc73e	-0.11610268
79	0xbe247c19	-0.16062964
80	0xbdfef532	-0.12449111
81	0xbe22b53d	-0.1588945
82	0xbe475d8d	-0.1946928
83	0xbe04c037	-0.12963949
84	0x3cd4aeed	0.025962317
85	0xbe3590c5	-0.17731006
86	0xbdc02d00	-0.09383583
87	0xbd95ad95	-0.07308499
88	0xbe52a07d	-0.20569034
89	0xbcef54ce	-0.029215243
90	0xbd82de8a	-0.06390102
91	0xbd6e143b	-0.058124762
92	0xbd4683e2	-0.048465617
93	0xbe0fc012	-0.14038113
94	0xbd5e2fa1	-0.05424464
95	0xbd8910fa	-0.06692691
96	0x3d95a4d3	0.07306828
97	0xbdec7e94	-0.1154758
98	0xbd432cf5	-0.047650296
99	0xb993ace2	-0.00028166833
100	0x3cc69f18	0.024245784
101	0xbe0c7f94	-0.13720542
102	0xbe5c14c6	-0.214923
103	0xbdc179a5	-0.0944703
104	0xbd48c94a	-0.04902009
105	0xbd4ed760	-0.050498366
106	0xbdebda50	-0.11516249
107	0xbe2041d8	-0.15650117
108	0xbd753f45	-0.05987479
109	0xbdf9a532	-0.12189712
110	0xbe4df714	-0.20113784
111	0xbc804224	-0.015656538
112	0xbde4ea21	-0.11177469
113	0xbe702726	-0.23452434
114	0xbe27c258	-0.1638273
115	0xbd430666	-0.047613524
116	0xbe88793d	-0.26654997
117	0xbdc49ba5	-0.09599999
118	0xbe0efe35	-0.1396416
119	0xbe58919d	-0.21149297
120	0xbe2028ef	-0.15640615
121	0xbe0ee34b	-0.13953893
122	0x3d142846	0.03617122
123	0xbd076241	-0.033052687
124	0x3d7344ab	0.05939166
125	0xbcca9d66	-0.024733257
126	0x3c700b77	0.014651171
127	0xbdef1630	-0.11674154

output.weight f4 [4, 128]
0	0x3eadd9bf	0.3395519
1	0x3e2728f7	0.1632422
2	0x3edbe830	0.42950583
3	0xbec0ee93	-0.37682018
4	0xbe90f9b5	-0.2831551
5	0x3ea6c68e	0.3257336
6	0x3ed3a01f	0.413331
7	0xbf200906	-0.6251377
8	0x3e71dc78	0.23619258
9	0xbd455622	-0.048177846
10	0x3e80e090	0.25171328
11	0xbec68fcb	-0.3878158
12	0xbc5f1356	-0.01361545
13	0x3e95bfab	0.29247794
14	0x3eb23410	0.34805346
15	0x3e9f083d	0.31060973
16	0xbeead30f	-0.4586415
17	0x3e8eccaa	0.2789052
18	0x3c5ad5b3	0.013356614
19	0x3ec9e41f	0.39431855
20	0xbd2a5f43	-0.041594755
21	0x3dae2c27	0.08504515
22	0xbd1660f9	-0.036713574
23	0x3e4d69b5	0.20059855
24	0xbf2ab1e4	-0.6667769
25	0xbf03ec39	-0.5153232
26	0xbec4a816	-0.3840949
27	0xbd96fb9d	-0.0737221
28	0xbe576a14	-0.2103656
29	0xbeed101b	-0.4630135
30	0xbef9ac23	-0.48764142
31	0xbd110aa4	-0.03541054
32	0xbdc8ee0a	-0.09811027
33	0x3e80a726	0.25127524
34	0xbea4a9ac	-0.321607
35	0x3ed1f693	0.41008434
36	0x3d29a47c	0.04141663
37	0xbe878455	-0.2646815
38	0x3c0d119b	0.0086101545
39	0xbd2da882	-0.04239703
40	0xbe8a2591	-0.26981786
41	0xbe0e76c6	-0.13912496
42	0xbe58e0a8	-0.2117945
43	0xbdaa44f5	-0.08313934
44	0xbde07e77	-0.10961621
45	0xbdc93e75	-0.09826366
46	0x3ed1ae00	0.40953064
47	0xbd55342e	-0.052051716
48	0x3db8cf98	0.0902397
49	0x3d879d93	0.06621852
50	0xbd9007b4	-0.07032719
51	0xbeafc139	-0.34327105
52	0x3f255d78	0.64595747
53	0xbe8a96e0	-0.27068233
54	0x3c9280bf	0.017883657
55	0xbec0756d	-0.3758959
56	0xbe76eac1	-0.24112989
57	0xbee44086	-0.44580477
58	0xbed979c3	-0.4247571
59	0x3cfeb6ef	0.031093089
60	0x3e165a2a	0.14682832
61	0x3e7373d8	0.2377466
62	0x3ebec1b8	0.3725717
63	0xbf586d05	-0.8454135
64	0xbb663d4b	-0.0035131748
65	0xbe8f80ad	-0.2802786
66	0x3dd623f8	0.10456079
67	0x3dc40aaa	0.095723465
68	0x3e120e0b	0.1426317
69	0xbe3b9db9	-0.18321885
70	0xbea50040	-0.32226753
71	0xbee7a25a	-0.45241052
72	0xbe2c3377	-0.16816507
73	0xbde6012f	-0.112306945
74	0x3ec6f9e0	0.38862514
75	0x3daf0ef7	0.08547776
76	0x3ee34b30	0.443933
77	0x3eee8a8a	0.46590072
78	0x3d1b03d0	0.037845433
79	0x3dc23447	0.09482627
80	0x3e048f2a	0.12945238
81	0xbe3b0b06	-0.18265924
82	0x3d0fbf47	0.035094526
83	0x3f2e253d	0.6802557
84	0xbe4c3026	-0.19940242
85	0xbea072fd	-0.3133773
86	0x3e30553d	0.17220016
87	0xbe42c250	-0.19019437
88	0xbe971114	-0.29505217
89	0xbe1e5dfa	-0.15465537
90	0x3e477cab	0.19481151
91	0xbdfc7ea4	-0.12328842
92	0x3e82d1fd	0.25550833
93	0xbeaf36cd	-0.34221497
94	0xbce68075	-0.028137425
95	0xbdb7f9b8	-0.08983177
96	0xbef6f302	-0.48232275
97	0x3e3b1ccd	0.18272705
98	0xbe1b5aac	-0.15171307
99	0xbea8351c	-0.3285302
100	0xbebc3bc3	-0.36764345
101	0x3dd9affd	0.1062927
102	0x3e1e65c2	0.15468505
103	0x3ec69d26	0.3879177
104	0xbe8bd32a	-0.27309543
105	0x3ed68bf3	0.41903648
106	0xbf110ac2	-0.5665704
107	0x3d886adf	0.06661009
108	0x3e5ef007	0.2177125
109	0x3e3f34b3	0.18672447
110	0xbf00f7ff	-0.5037841
111	0xbf002249	-0.50052315
112	0x3e2aeb50	0.16691327
113	0xbe802af7	-0.2503278
114	0x3c844f34	0.016151048
115	0xbf02b182	-0.51052105
116	0x3e88f850	0.26751947
117	0x3e6bdec3	0.23034196
118	0xbe5a6e4f	-0.21331142
119	0x3e455037	0.19268881
120	0xbe2f883c	-0.17141813
121	0xbeb57b5e	-0.35445684
122	0xbe1d0fbc	-0.15338033
123	0x3d79f2a7	0.061022427
124	0xbdf69a90	-0.12041199
125	0x3e1e8fe8	0.15484583
126	0x3f04ffcb	0.5195281
127	0x3e1e98e7	0.15488015
128	0xbcec8265	-0.02887077
129	0x3ea78be0	0.32723904
130	0x3cbc1535	0.022959331
131	0xbe828c90	-0.25497866
132	0xbdedb7c8	-0.11607319
133	0xbd9aa2e5	-0.07550601
134	0xbe3e83dc	-0.18604988
135	0xbe96ced8	-0.29454684
136	0x3eef2c33	0.4671341
137	0xbd84cdb8	-0.0648455
138	0xbd2b8281	-0.041872505
139	0x3d700fcd	0.05860882
140	0xbd7e34b1	-0.06206197
141	0xbe239c6e	-0.15977642
142	0xbe952dba	-0.2913645
143	0xbeefb040	-0.46814156
144	0x3e0e534c	0.13898963
145	0x3ed659c9	0.41865376
146	0x3e863022	0.26208597
147	0x3e68c60e	0.22731802
148	0xbd4ca4aa	-0.049961723
149	0x3e887a55	0.26655832
150	0x3dce2d1a	0.10067196
151	0x3c5b8c0f	0.013400092
152	0xbb6c65e4	-0.0036071474
153	0x3c0939cd	0.008375597
154	0x3d7fcf44	0.062453523
155	0xbe84e1d6	-0.2595355
156	0x3e048425	0.12941034
157	0x3d3a9577	0.045552697
158	0xbcf1b27d	-0.029504055
159	0x3e01f5a3	0.12691359
160	0x3ea07c54	0.31344855
161	0x3e92cff4	0.2867428
162	0xbeb46504	-0.3523332
163	0xbe177539	-0.1479081
164	0xbcbd0716	-0.023074668
165	0x3e743b7a	0.23850814
166	0xbdc371c4	-0.095431834
167	0x3eb23fda	0.3481434
168	0xbeb652e0	-0.35610104
169	0xbe5b3926	-0.21408519
170	0x3df2f2a0	0.11862683
171	0x3e2ae0db	0.16687338
172	0xbe1bb92e	-0.15207359
173	0x3e293360	0.16523504
174	0x3c4459b4	0.0119842775
175	0xbd557dee	-0.05212205
176	0xbf02169e	-0.5081576
177	0xbe95e00d	-0.292725
178	0xbd155da6	-0.036466263
179	0x3eaeb2ca	0.3412078
180	0x3e55996a	0.20859304
181	0xbe93e348	-0.2888434
182	0x3e01f052	0.12689331
183	0xbd831dda	-0.06402178
184	0xbdf179b4	-0.11790791
185	0x3bc8711e	0.0061170002
186	0xbea0cc51	-0.3140588
187	0x3e30d4c9	0.17268671
188	0x3e32d10f	0.17462562
189	0x3ed960eb	0.42456755
190	0x3e0625fe	0.1310043
191	0x3d6d3b9c	0.057918176
192	0x3e890254	0.2675959
193	0x3e82eed5	0.2557284
194	0xbe26c695	-0.1628669
195	0xbdba6af0	-0.09102428
196	0xbe58d27f	-0.21174048
197	0xbe287d74	-0.16454107
198	0xbeb7ee21	-0.35923865
199	0x3e1b5377	0.15168558
200	0xbef7d127	-0.48401758
201	0x3e8a0a04	0.26960766
202	0xbe47b033	-0.19500808
203	0xbe92d3d3	-0.28677234
204	0xbeb649ac	-0.35603082
205	0x3e2b5f1c	0.167355
206	0x3ec032b1	0.37538674
207	0x3c8f857e	0.017519709
208	0x3ed25b8d	0.41085473
209	0x3cc90c4e	0.024542
210	0x3cb681d3	0.022278702
211	0x3de02e8c	0.10946378
212	0xbdc5173b	-0.096235715
213	0xbdc4cef1	-0.096097834
214	0x3e9f7b1d	0.31148615
215	0xbed01adb	-0.4064549
216	0xbeb4148c	-0.35171926
217	0x3eefc065	0.46826473
218	0x3d499ebb	0.049223643
219	0x3f010539	0.50398594
220	0xbe83df80	-0.25756454
221	0x3d64ee1f	0.055891152
222	0xbe0e0433	-0.1386879
223	0xbc0b8586	-0.008515721
224	0x3dba25ee	0.09089266
225	0x3e7fdf89	0.24987616
226	0x3cf046bd	0.029330606
227	0xbeced709	-0.40398434
228	0xbecbf468	-0.39834905
229	0xbce149ab	-0.027500948
230	0xbe4bb174	-0.19891912
231	0x3e92ef7a	0.2869833
232	0x3ccf8de6	0.025336217
233	0xbe195be2	-0.14976457
234	0xbe469ec5	-0.19396503
235	0x3e0672b1	0.13129689
236	0x3e68f90b	0.22751252
237	0x3e865c95	0.2624251
238	0xbe9be2f9	-0.30446604
239	0xbdc94ac1	-0.09828711
240	0xbea612ed	-0.32436314
241	0xbef6f4f3	-0.48233756
242	0xbdfba15d	-0.12286637
243	0xbcd9926f	-0.026559083
244	0x3d952dfc	0.072841614
245	0x3eb55857	0.3541896
246	0x3ea6ca54	0.3257624
247	0x3e234870	0.15945601
248	0xbdd1ccb7	-0.102441244
249	0x3d1cb03f	0.03825402
250	0x3f0347ab	0.5128123
251	0x3cba5cc6	0.022749316
252	0x3d7b4d87	0.061353233
253	0x3eb9146e	0.361484
254	0x3e984a75	0.29744306
255	0xbe472854	-0.19448978

output.bias f4 [4]
0	0xbb3e83f7	-0.0029070356
1	0xbcc57468	-0.024103358
2	0x3c260f56	0.010135492
3	0x3c8e80af	0.017395345

bn1.weight f4 [33]
0	0x3f3fdd7d	0.7494734
1	0x3ef71640	0.48259163
2	0x3f05059c	0.51961684
3	0xbbfe3b10	-0.0077585056
4	0x3ed101b7	0.4082162
5	0x3e4bcbfc	0.19902033
6	0x3dfe59ca	0.1241947
7	0x3e74aa1d	0.23893018
8	0x3bf20109	0.0073853773
9	0x3e6dada7	0.23210774
10	0xbdef5363	-0.11685827
11	0x3e370b07	0.178753
12	0x3e047515	0.12935288
13	0x3f4e1889	0.8050619
14	0x3ea64212	0.32472283
15	0x3f196276	0.59915864
16	0x3f031017	0.51196426
17	0x3f37c792	0.71788895
18	0x3f3a94c5	0.72883254
19	0x3f433af3	0.76261824
20	0x3e9118d1	0.28339246
21	0x3e30b73a	0.17257395
22	0x3e66334f	0.2248051
23	0x3eaa1349	0.33217838
24	0x3e98ec35	0.29867712
25	0x3eab455c	0.33451355
26	0x3f17091f	0.5899829
27	0x3f1b9c24	0.60785127
28	0x3f3f8ba6	0.7482246
29	0x3f5eefe9	0.87084824
30	0x3ee9db80	0.45675278
31	0x3ea9ee6a	0.33189708
32	0x3f374709	0.71592766

bn1.bias f4 [33]
0	0xbc8d44ac	-0.01724466
1	0xbdf5ae9d	-0.119961955
2	0xbd903159	-0.07040662
3	0x3e33485b	0.1750807
4	0xbdffa0a9	-0.12481815
5	0x3ddc5417	0.10758226
6	0x3d42b403	0.047534954
7	0xbdad8976	-0.08473484
8	0xbddaddc4	-0.1068683
9	0xbe1eadd0	-0.15495992
10	0xbd367258	-0.04454264
11	0x3d8aee1a	0.067836955
12	0xbdaadc29	-0.083427735
13	0x3cadd6ed	0.021220649
14	0xbc86fd6a	-0.01647826
15	0xbbfcbdb4	-0.007713044
16	0xbd0eeba6	-0.0348927
17	0x3dc3654e	0.09540807
18	0x3c3867ea	0.011255244
19	0xbd7b5c69	-0.061367426
20	0x3db2381c	0.08702108
21	0x3d03af66	0.032149695
22	0x3cad91b2	0.021187637
23	0xbdce794f	-0.100817315
24	0xbd580c4c	-0.052746102
25	0x3ccaf13b	0.02477323
26	0x3d3b0a2a	0.04566399
27	0xbe5627a6	-0.20913562
28	0x3db2b16c	0.08725247
29	0x3e5bc721	0.2146268
30	0x3e303d09	0.17210783
31	0xbe195f2e	-0.14977714
32	0x3c81e2ad	0.015855158

bn1.running_mean f4 [33]
0	0xbe1ecaca	-0.15507045
1	0xc02d51de	-2.7081218
2	0xbeb6a1cf	-0.35670325
3	0x3f69a43e	0.9126624
4	0xbc95c487	-0.018282188
5	0x3bfd1890	0.0077238753
6	0xbd58d963	-0.05294169
7	0xbc93979c	-0.018016629
8	0xbc62dd39	-0.013846689
9	0xbbd92d33	-0.0066277026
10	0xbcca17fc	-0.02466964
11	0xbb954114	-0.004554877
12	0x3d5217f3	0.05129237
13	0xbec16f62	-0.3778029
14	0xc0272b69	-2.6120245
15	0xbeea5aac	-0.45772302
16	0xbb9fcad0	-0.004876472
17	0x3eb6c09e	0.3569383
18	0x3b4d11e1	0.0031291174
19	0xbe9f79a3	-0.3114749
20	0x3d43e0a1	0.047821645
21	0xbb5cdc62	-0.0033700694
22	0x3b68b34e	0.0035507265
23	0xbd8d8624	-0.06910351
24	0x3e17d88c	0.148287
25	0x3d36c0a7	0.04461732
26	0xbe84aba9	-0.25912216
27	0xbf7ffffc	-0.99999976
28	0xbeb01ddc	-0.3439778
29	0x00000000	0.0
30	0x3f7ffffc	0.99999976
31	0x00000000	0.0
32	0xbd966d86	-0.07345109

bn1.running_var f4 [33]
0	0x4055eb27	3.3424776
1	0x3e87ec1e	0.2654733
2	0x409ee320	4.965225
3	0x3aba9537	0.0014235143
4	0x3d59f6fc	0.05321406
5	0x3b9f631c	0.0048641097
6	0x3dd60278	0.104496896
7	0x3e892d0e	0.26792186
8	0x3d5f8f15	0.054579813
9	0x3dccfe45	0.100094356
10	0x40048f79	2.0712569
11	0x3f393438	0.72345304
12	0x402cfe3a	2.7030168
13	0x41955ab1	18.669283
14	0x3fb9846e	1.4493539
15	0x41b851a6	23.039867
16	0x3dab830e	0.08374606
17	0x3e4ceb10	0.20011544
18	0x3d7a6da3	0.061139714
19	0x3edbc5da	0.42924386
20	0x3fcf13b5	1.6177889
21	0x3f25bc6e	0.64740646
22	0x3edd69f8	0.4324491
23	0x40f934aa	7.7876787
24	0x408e02e3	4.4378524
25	0x41194b33	9.580859
26	0x420071ca	32.111122
27	0x00000004	6e-45
28	0x41fdb28b	31.71218
29	0x00000004	6e-45
30	0x00000004	6e-45
31	0x00000004	6e-45
32	0x3ea97d09	0.33103207

bn2.weight f4 [256]
0	0x3f3d3420	0.7390766
1	0x3f11d1a9	0.5696054
2	0x3e86789a	0.26263887
3	0x3f6481f0	0.8926077
4	0x3ed58555	0.41703287
5	0x3eb435e7	0.35197374
6	0x3f052ee7	0.5202469
7	0x3f40905e	0.75220287
8	0x3f4c3601	0.79769903
9	0x3e8238a9	0.25433853
10	0x3ed03c51	0.40671018
11	0x3ed7b3a3	0.4212924
12	0x3f06205f	0.52393144
13	0x3f3dde7b	0.74167603
14	0x3f1cc1a2	0.6123296
15	0x3f38e5ef	0.7222585
16	0x3eeaa528	0.4582913
17	0x3f51235e	0.8169459
18	0x3f1dd941	0.6165963
19	0x3ec5a372	0.3860126
20	0x3ec2e8f9	0.3806837
21	0x3f35dee4	0.7104323
22	0x3eb136d3	0.3461214
23	0x3e9935e4	0.29923928
24	0x3f591a58	0.8480582
25	0x3f3286b2	0.6973678
26	0x3f46223e	0.77396
27	0x3e64b7b9	0.2233571
28	0x3ea3fdd2	0.32029587
29	0x3f46c6a7	0.7764687
30	0x3f46c440	0.77643204
31	0x3ea7b431	0.32754663
32	0x3e94d8db	0.29071698
33	0x3e90ee4f	0.28306815
34	0x3ed7c083	0.42139062
35	0x3f5460ee	0.829604
36	0x3f108f91	0.56469065
37	0x3ec135c5	0.37736335
38	0x3f3f3363	0.74687785
39	0x3e32e16c	0.17468804
40	0x3ed46404	0.41482556
41	0x3e5aefc2	0.21380523
42	0x3f199c7c	0.600044
43	0x3f2e5cf0	0.6811056
44	0x3e58a431	0.21156384
45	0x3f1f5678	0.62241316
46	0x3f50f086	0.8161701
47	0x3e981a94	0.29707778
48	0x3f08fd6c	0.5351169
49	0x3e552135	0.20813449
50	0x3e5a3a21	0.21311237
51	0x3e9c4c32	0.30526882
52	0x3ee21978	0.44160056
53	0x3ec65af9	0.38741282
54	0x3f28454f	0.65730757
55	0x3f4577d9	0.77136
56	0x3f390da2	0.7228643
57	0x3f006eda	0.50169146
58	0x3f214285	0.62992126
59	0x3f2bbdea	0.6708666
60	0x3e8da428	0.27664304
61	0x3ec858b1	0.39130166
62	0x3edde4ab	0.43338522
63	0x3ee8ef22	0.45494944
64	0x3e55a1cb	0.208625
65	0x3f0fe51e	0.5620898
66	0x3eaae231	0.33375695
67	0x3d965675	0.07340709
68	0x3f0304b9	0.5117908
69	0x3f655119	0.8957687
70	0x3f1e83df	0.6191997
71	0x3e95903e	0.2921161
72	0x3edbf109	0.42957333
73	0x3ed8f67b	0.4237555
74	0x3e69a091	0.22815157
75	0x3ec8a34f	0.39187095
76	0x3e8c396a	0.27387553
77	0x3e7b6df6	0.24553666
78	0x3e6e9de6	0.23302421
79	0x3f16aa08	0.588532
80	0x3f04c901	0.5186921
81	0x3f0d1214	0.5510571
82	0x3f18b51d	0.59651357
83	0x3f5080fa	0.814468
84	0x3edaec7c	0.42758548
85	0x3ec39b82	0.3820458
86	0x3f12204c	0.5708053
87	0x3e8e65d5	0.27812067
88	0x3f48c34f	0.7842302
89	0x3f0d7d31	0.5526915
90	0x3ea54e49	0.3228629
91	0x3e6cab24	0.2311216
92	0x3e756d2e	0.2396743
93	0x3f41f840	0.75769424
94	0x3f26803d	0.65039426
95	0x3f038c87	0.513863
96	0x3e88039a	0.26565248
97	0x3f338b34	0.7013428
98	0x3ed32268	0.41237187
99	0x3ec3372c	0.3812803
100	0x3f44fbc5	0.7694667
101	0x3f0e4521	0.5557423
102	0x3f06d86d	0.5267399
103	0x3f5a8a1f	0.85367006
104	0x3f131d6e	0.5746678
105	0x3e176aed	0.14786883
106	0x3f2e4c57	0.68085235
107	0x3ead5c4a	0.33859473
108	0x3ee6c52e	0.4507231
109	0x3ee9d3a1	0.45669273
110	0x3f25ec7b	0.64813966
111	0x3e9610f0	0.29309797
112	0x3f62cdef	0.8859548
113	0x3f06b3c8	0.52618074
114	0x3eba11c4	0.3634168
115	0x3eadeab7	0.33968136
116	0x3f2f6b35	0.6852296
117	0x3e8cb33b	0.27480492
118	0x3f193758	0.5985007
119	0x3e75bf61	0.23998787
120	0x3f3be194	0.7339108
121	0x3eb81511	0.35953572
122	0x3ed97144	0.42469227
123	0x3e9b83c1	0.30373958
124	0x3f4b47f1	0.7940665
125	0x3f082d97	0.53194565
126	0x3e62eee3	0.2216144
127	0x3f4aa893	0.79163474
128	0x3f47af2b	0.7800166
129	0x3f3a8c9d	0.7287081
130	0x3f05f9f6	0.52334535
131	0x3efd0274	0.49415934
132	0x3f6d6c78	0.92743635
133	0x3f16e609	0.58944756
134	0x3f471c82	0.77777874
135	0x3ec6fb6b	0.38863692
136	0x3f1eb76a	0.6199862
137	0x3f46ca70	0.77652645
138	0x3ea1050b	0.3144916
139	0x3eca9985	0.3957025
140	0x3eb85fe6	0.36010665
141	0x3f015fbf	0.5053672
142	0x3f1436a7	0.5789589
143	0x3f6266ef	0.88438314
144	0x3f4ef585	0.80843383
145	0x3f237d53	0.63863105
146	0x3ee4b5a4	0.4466983
147	0x3f164afc	0.5870817
148	0x3e1aa5ca	0.15102306
149	0x3f178474	0.5918648
150	0x3f234c19	0.6378799
151	0x3e403d1c	0.18773311
152	0x3f47cddc	0.7804849
153	0x3ec90f28	0.39269376
154	0x3ebe98ec	0.37226045
155	0x3e5dcab1	0.21659352
156	0x3ed39df0	0.41331434
157	0x3ec9942b	0.39370856
158	0x3f2e2bec	0.6803577
159	0x3f214be9	0.63006455
160	0x3f4174b9	0.7556873
161	0x3f218186	0.6308826
162	0x3f230d17	0.6369185
163	0x3f49b944	0.7879832
164	0x3f4b269e	0.793558
165	0x3f4647b0	0.77453136
166	0x3f00f229	0.5036951
167	0x3e4573c4	0.19282442
168	0x3f0696b9	0.52573735
169	0x3ef3c621	0.47612098
170	0x3ec223d6	0.37917966
171	0x3e58ce8d	0.21172543
172	0x3f6f6cc7	0.93525356
173	0x3f35f87b	0.71082276
174	0x3dc6a427	0.09699278
175	0x3e77d481	0.24202158
176	0x3e927ad4	0.28609335
177	0x3ea75c10	0.32687426
178	0x3f02d5bf	0.511074
179	0x3f4b63d2	0.7944919
180	0x3f30101a	0.6877457
181	0x3f0c5a87	0.54825634
182	0x3f02c795	0.5108579
183	0x3e79fda1	0.24413158
184	0x3ef23ed0	0.47313547
185	0x3f243d07	0.6415562
186	0x3f2350f5	0.63795406
187	0xbd46e89b	-0.048561674
188	0x3f0b339d	0.5437563
189	0x3e38063d	0.1797113
190	0x3ecb95fc	0.39762866
191	0x3f3ffb69	0.74992996
192	0x3f43b4dd	0.7644785
193	0x3f3414e3	0.7034437
194	0x3f4fa43d	0.8110998
195	0x3f398d20	0.72480965
196	0x3f19e903	0.6012117
197	0x3ef26015	0.4733893
198	0x3edf0cf3	0.43564567
199	0x3f5c7478	0.8611522
200	0x3e8aed31	0.27134088
201	0x3ec3a8c7	0.38214704
202	0x3f08d4d1	0.5344973
203	0x3ea2bd68	0.3178513
204	0x3ebdf723	0.37102613
205	0x3e9b52da	0.30336648
206	0x3e63de3b	0.22252743
207	0x3f2111c0	0.6291771
208	0x3f161c95	0.5863736
209	0x3eb0b5c1	0.34513667
210	0x3f2fea88	0.6871724
211	0x3e36c77c	0.17849535
212	0x3e95ec89	0.29282025
213	0x3f32296e	0.69594467
214	0x3e5be663	0.21474604
215	0x3eca6cd1	0.39536145
216	0x3e9ce3d5	0.30642572
217	0x3f0b5df0	0.5444021
218	0x3eeefce5	0.46677318
219	0x3e969fec	0.29418886
220	0x3e692b9e	0.22770545
221	0x3f2e555c	0.68099
222	0x3f2780b3	0.65430754
223	0x3e4be21e	0.19910476
224	0x3ee2d316	0.4430167
225	0x3f01d17f	0.5071029
226	0x3efdac86	0.49545687
227	0x3eb2b91e	0.34906858
228	0x3ea87a99	0.32906035
229	0x3f4bc253	0.7959339
230	0x3f2c0f7a	0.67211115
231	0x3f583b3f	0.844654
232	0x3ee28dde	0.4424886
233	0x3f3ea575	0.7447122
234	0x3f2e6b99	0.6813293
235	0x3ebc3e1b	0.36766133
236	0x3f1b6790	0.607049
237	0x3e5392e5	0.20661505
238	0x3f34d971	0.7064429
239	0x3ec39d96	0.38206166
240	0x3f45dd7d	0.7729109
241	0x3f2c687e	0.6734694
242	0x3ee3ac8d	0.44467583
243	0x3efccbfc	0.49374378
244	0x3f06eb88	0.5270314
245	0x3eafb3c7	0.34316847
246	0x3f0980e1	0.5371228
247	0x3ef5d42b	0.48013434
248	0x3ef5ae65	0.47984615
249	0x3f309eec	0.68992496
250	0x3e99434f	0.29934165
251	0x3ec3f31a	0.3827141
252	0x3e6df91c	0.23239559
253	0x3ee9ff1f	0.45702454
254	0x3ddb7e83	0.107174896
255	0x3ed87594	0.42277205

bn2.bias f4 [256]
0	0xbcee7bd4	-0.02911178
1	0x3e22f05d	0.15912004
2	0x3e0bfeb2	0.13671377
3	0x3ddadf4f	0.10687124
4	0x3e652521	0.22377445
5	0x3dc045ba	0.09388299
6	0xbdd51c4d	-0.104057886
7	0xbd6da321	-0.0580169
8	0x3d6bd616	0.057577215
9	0xbe38faea	-0.18064466
10	0x3c90b66d	0.017665112
11	0xbe5e4d00	-0.2170906
12	0xbd4a9b6a	-0.04946462
13	0xbe615b58	-0.22007501
14	0x3e4be72d	0.19912405
15	0x3c8506b8	0.016238555
16	0x3e87a589	0.2649348
17	0x3c2f0d72	0.010684358
18	0x3ea16245	0.31520286
19	0xbdd644db	-0.10462352
20	0xbd26bb8a	-0.040706195
21	0xbddd0271	-0.10791481
22	0xbe6900e1	-0.22754242
23	0x3e06790b	0.13132112
24	0xbe69b1f1	-0.22821786
25	0x3dc5db94	0.09661022
26	0x3d9004a4	0.07032135
27	0xbe871eb1	-0.26390603
28	0xbe5a3814	-0.21310455
29	0xbd8e94c9	-0.06961972
30	0xbe92033c	-0.28518093
31	0x3d21ea42	0.039530046
32	0x3ecf21ee	0.40455574
33	0x3e30749b	0.17231981
34	0xbbbc97af	-0.005755387
35	0x3de1e83a	0.11030622
36	0xbc7c4971	-0.015398369
37	0x3dfe31a7	0.12411814
38	0x3d414a52	0.047190018
39	0x3b6eb554	0.0036423998
40	0x3d009668	0.03139344
41	0xbe8ba6f2	-0.27275807
42	0xbe2399d0	-0.15976644
43	0x3d94bbfa	0.07262416
44	0x3eae0149	0.33985355
45	0xbb96d940	-0.004603535
46	0x3e02c51a	0.12770501
47	0xbe3998ab	-0.18124644
48	0x3e4316c7	0.19051658
49	0xbae17903	-0.0017202202
50	0xbe57a505	-0.21059044
51	0xbe6cc241	-0.23120977
52	0x3e34d7e7	0.17660485
53	0x3d648a0a	0.055795707
54	0xbe141662	-0.14461663
55	0x3d568fc2	0.052383192
56	0x3d391058	0.045181602
57	0xbe562aed	-0.20914812
58	0x3e28faa6	0.16501865
59	0xbd6cc4b2	-0.05780477
60	0x3e66aaca	0.22526088
61	0xbe6e9ba1	-0.23301555
62	0xbde5affe	-0.112152085
63	0xbd57c8bf	-0.05268168
64	0x3e158077	0.14599787
65	0x3d376816	0.044777
66	0x3dabf8bf	0.08397054
67	0xbf011903	-0.5042879
68	0x3d3ca614	0.046056822
69	0x3b7159f9	0.003682731
70	0x3cb03f69	0.021514611
71	0x3c994a3e	0.01871216
72	0x3df03c9e	0.11730312
73	0xbe484c38	-0.19560325
74	0xbe1a8b08	-0.15092099
75	0xbe230e19	-0.15923347
76	0x3e12eed3	0.14348917
77	0x3e7aad96	0.2448028
78	0x3c8f7b92	0.017514978
79	0x3e536054	0.20642215
80	0xbcf12d6f	-0.02944061
81	0xbd6bcc96	-0.057568155
82	0xbe39fcf6	-0.18162903
83	0x3dd99d6d	0.1062573
84	0x3e5587ec	0.20852631
85	0x3dcb537e	0.09928034
86	0x3ddb62e0	0.10712218
87	0x3e6fae11	0.23406245
88	0xbd2c5f08	-0.042082816
89	0x3dc9342c	0.09824404
90	0xbddfbebd	-0.10925052
91	0xbe25b20d	-0.16181202
92	0xbebb7654	-0.36613715
93	0x3d9f1354	0.077673584
94	0xbe8744f5	-0.26419798
95	0x3d8f4fb0	0.06997621
96	0x3e015ca3	0.12632994
97	0x3dd2b3e7	0.1028822
98	0x3ea2f41b	0.31826863
99	0x3e8fa9b3	0.28059158
100	0xbc921ff0	-0.017837495
101	0x3df9e445	0.12201742
102	0xbd7a44db	-0.061100822
103	0x3e814ea7	0.2525532
104	0x3bc3f178	0.005979713
105	0x3e3c9d2f	0.18419336
106	0x3d8e5240	0.06949282
107	0xbce368a6	-0.027759861
108	0xbcbc79ad	-0.023007238
109	0xbde7b03e	-0.113129124
110	0xbb38eef5	-0.0028218601
111	0x3d98e6f4	0.07465926
112	0x3d112551	0.03543598
113	0xbd902ae4	-0.07039431
114	0x3de868a6	0.11348085
115	0xbd930c06	-0.07180028
116	0x3cf52883	0.029926544
117	0x3d62ba0d	0.055353213
118	0xbd9f819f	-0.07788395
119	0xbe3aa36c	-0.18226403
120	0xbd476ce3	-0.048687827
121	0x3e462643	0.19350533
122	0xbeac1a91	-0.3361402
123	0x3e259de1	0.16173507
124	0xbe5fd5f4	-0.2185896
125	0x3ceee57c	0.029162161
126	0xbec45493	-0.38345775
127	0x3dbeaa46	0.09309821
128	0x3e411883	0.18857007
129	0x3e4a8d1e	0.19780394
130	0x3ea7c120	0.3276453
131	0xbe91c841	-0.28473094
132	0x3eab2af4	0.33431208
133	0xbe1005e6	-0.1406475
134	0x3d1a646b	0.037693422
135	0xbdb77fe1	-0.08959938
136	0x3df6e794	0.12055889
137	0x3df46b06	0.119344756
138	0x3e1b337b	0.15156357
139	0x3e5d4899	0.21609725
140	0x3dacab6f	0.08431136
141	0xbd87a33e	-0.06622933
142	0x3d2647e9	0.040595923
143	0xbdd656d0	-0.10465777
144	0xbd871818	-0.065963924
145	0x3e290004	0.16503912
146	0x3dbef626	0.09324293
147	0xbdadb1ed	-0.08481202
148	0xbec7db77	-0.39034626
149	0xbdf002b4	-0.117192656
150	0x3e1cd4c0	0.15315533
151	0xbdbd59e0	-0.09245658
152	0x3de56abd	0.11201999
153	0xbe2d191c	-0.1690411
154	0x3e36e4bd	0.17860694
155	0x3ecd8a25	0.40144458
156	0xbdd5a257	-0.104313545
157	0x3e925db6	0.2858712
158	0xbe4b9e8c	-0.198847
159	0x3d879819	0.06620807
160	0x3e5647f2	0.20925882
161	0xbe85ccad	-0.26132718
162	0x3d0ccd8e	0.03437572
163	0x3e143441	0.14473058
164	0x3d9a4ee5	0.07534579
165	0x3d8c55c0	0.06852293
166	0xbdf43dd7	-0.119258575
167	0xbe310f7d	-0.17291065
168	0xbe910bbd	-0.28329268
169	0xbe160997	-0.14652096
170	0xbd962524	-0.07331303
171	0x3e8c3cea	0.27390224
172	0xbdf790b3	-0.12088146
173	0x3ea700bb	0.32617745
174	0x3ee70bc4	0.45126164
175	0x3e095158	0.13409936
176	0x3d8861d4	0.06659284
177	0xbe52aa8e	-0.20572874
178	0x3c8e25db	0.017352035
179	0x3d09bba4	0.033626214
180	0xbcfa4d7c	-0.030554526
181	0x3d97d35b	0.0741336
182	0x3db2bdff	0.08727645
183	0x3e551863	0.20810084
184	0xbe6f2e02	-0.23357394
185	0xbeb07291	-0.34462407
186	0x3dcec862	0.10096814
187	0x3f172e8f	0.5905542
188	0x3de1a2d7	0.11017387
189	0x3dcfa57a	0.10138984
190	0x3e2b74b2	0.16743734
191	0x3bbd833c	0.0057834666
192	0x3e7521ad	0.23938628
193	0x3e023671	0.1271608
194	0xbd57f35e	-0.052722327
195	0xbdced003	-0.10098269
196	0x3c08c917	0.008348725
197	0x3c9414cc	0.018076323
198	0x3e6aeff0	0.22943091
199	0x3d9108c1	0.07081748
200	0x3da3ce57	0.079983406
201	0x3d8cb866	0.06871109
202	0xbe165cf4	-0.14683896
203	0xbe36cc32	-0.17851332
204	0x3e1ec218	0.15503728
205	0x3db243c6	0.08704333
206	0xbc08f51d	-0.008359221
207	0xbda2a6db	-0.079419814
208	0xbdcf70ab	-0.101289116
209	0xbe9a6edf	-0.30162713
210	0x3e63b434	0.22236711
211	0x3ef81fd2	0.48461777
212	0x3e93160c	0.28727758
213	0x3c5f5b95	0.013632675
214	0x3eb448ea	0.3521188
215	0xbdd5ce89	-0.10439784
216	0x3e675528	0.22591078
217	0x3e5094e5	0.20369299
218	0xbe4d18e1	-0.20029022
219	0x3db85eb9	0.09002442
220	0x3a6e06dd	0.0009080002
221	0x3d96f06c	0.073700756
222	0xbca242f9	-0.019807326
223	0xbdd519b6	-0.104052946
224	0x3d71aa66	0.059000395
225	0x3d641bba	0.055690505
226	0x3e284fcc	0.1643669
227	0x3e54700f	0.20745872
228	0xbdeb61d4	-0.114932686
229	0x3e49a639	0.19692315
230	0x3da33537	0.07969134
231	0xbcd0b58c	-0.025477193
232	0x3e89d2de	0.2691869
233	0x3bff3eab	0.007789453
234	0xbd9193d6	-0.071082756
235	0x3dda3adf	0.1065576
236	0xbd15f319	-0.03660879
237	0x3ef88b45	0.48543754
238	0x3d5ad086	0.05342152
239	0x3d2a061e	0.04150974
240	0x3d6e73f9	0.05821607
241	0xbe68a74c	-0.22720069
242	0xbe3c7291	-0.18403079
243	0x3dd20974	0.10255709
244	0xbe3dd176	-0.18536934
245	0x3dc8d911	0.09807027
246	0x3d365ea1	0.04452384
247	0x3e96a90b	0.29425845
248	0xbbf3eff3	-0.0074443757
249	0x3d9bef7d	0.07614038
250	0xbea35647	-0.31901762
251	0x3e44113c	0.191472
252	0xbe9bb94b	-0.30414805
253	0xbd506438	-0.050876826
254	0xbf1419af	-0.5785169
255	0xbe6c6c93	-0.23088293
