dqn/exercise/checkpoint.pth (torch_old, 143987 bytes, 6 tensors)

hidden_layers.0.weight f4 [256, 8]
000000 bd ec 3a be d3 c2 f7 bf e7 ab 81 bf 03 58 bd 3e
       -0.18254371 -1.9356331 -1.0130585 0.3698121
000010 8c c7 66 3d 14 4b 31 38 e8 f9 81 3e e7 c6 99 3e
       0.056342646 4.227001e-05 0.25385976 0.30034563
000020 b8 66 86 3e fa e7 1d 3c f6 ef 1e be 4a 8b ab be
       0.26250243 0.009637827 -0.15521225 -0.33504707
000030 5e 2b 5c be 92 11 0f bf d6 92 27 bf 82 ff 92 bc
       -0.21500918 -0.55886185 -0.6545843 -0.017944101
000040 47 80 14 bc 36 7f 4e be 7e ac 7a bf ce f1 24 3f
       -0.009063787 -0.20165715 -0.9791945 0.64431465
000050 ed c0 84 3e 9a 30 29 3f 4e f3 68 bc 9e d1 d0 3e
       0.2592844 0.66089785 -0.014218165 0.40784925
000060 c9 66 96 bc 80 09 2b bf ba 40 4b 3e 04 8f 6d bf
       -0.018359559 -0.6681137 0.1984891 -0.9279635
000070 9d 2d 53 bf 94 9c c6 be 59 19 60 3d 67 57 22 3e
       -0.82491475 -0.38791335 0.054711673 0.15853654
000080 eb 48 6a be 3a 19 98 be 51 0a 00 bf da c7 6c bf
       -0.22879378 -0.29706746 -0.5001574 -0.9249245
000090 01 7f cd be 54 d9 ab bc 25 18 1e 3e 8d 50 87 3d
       -0.4013596 -0.020977654 0.15438898 0.06607161
0000a0 e1 a2 27 be 7a 0d da bf ff 71 bf 3e 31 3e 3d bf
       -0.16370727 -1.7035363 0.3739166 -0.7392302
0000b0 b0 cf fd be 71 a4 d0 bd be 9c 8d 3e c1 73 5f 3e
       -0.49572515 -0.10187615 0.27658647 0.218215
0000c0 e7 8c 2b 3c 20 3f cb bc 65 fc 9c 3f 45 21 32 3f
       0.010470605 -0.024810374 1.2264525 0.69582015
0000d0 6c 58 13 bf 5e 62 9d 3d 3b 1e f4 3e 88 df dd 3d
       -0.57556796 0.07684778 0.47679314 0.10833651
0000e0 59 76 28 3f b2 61 33 bf 3b 97 d2 ba 61 33 58 be
       0.65805584 -0.70070946 -0.0016066799 -0.2111335
0000f0 1e f0 3c 3e 4e 74 13 3f 68 7e 27 be e4 2f 8e be
       0.18450972 0.5759934 -0.16356814 -0.27770913
000100 b2 4c 85 be 09 31 1c bf ee bc 02 3e b5 db e2 be
       -0.26035076 -0.6101232 0.12767383 -0.44308248
000110 59 83 cf 3d cc 83 f4 3e 38 e0 de be da 8e 91 3e
       0.101324745 0.47756803 -0.4353044 0.284293
000120 0a 49 fd bd 28 62 9b 3e 23 6f 8b 3e 76 ef 8f 3e
       -0.12367447 0.30348325 0.27233228 0.28112382
000130 af 6b 88 3d f5 b3 3d bf d1 05 dd bd 2f 1b 26 bf
       0.06661164 -0.7410272 -0.10792125 -0.6488523
000140 cc e3 d0 be b5 b8 d0 3e 57 71 4a 3e e5 2d 46 bf
       -0.40798795 0.4076592 0.19769798 -0.7741378
000150 ac 36 cd 3d 80 ff 49 bd 9d e6 b8 3c 72 90 25 be
       0.100201935 -0.04931593 0.022570902 -0.16168383
000160 fb a2 25 be e8 6c 6e be 39 76 9f 3f 31 34 c0 3c
       -0.16175453 -0.23283732 1.2457954 0.023462387
000170 ba 2d 25 bf 19 c2 b0 3e 98 cd 8a be cd 4b dd bc
       -0.645229 0.34523085 -0.2710998 -0.027013684
000180 17 3f 95 bd 94 3c 6a be 13 71 06 3e 29 b6 4a bf
       -0.07287424 -0.22874671 0.13129072 -0.79184204
000190 a8 55 9e 3f 97 dd 1b 3f 88 89 0e bf 95 f0 1e be
       1.236989 0.60884994 -0.55678606 -0.15521462
0001a0 2e e3 ab bf ee 92 f7 be 72 e5 0f bf 59 8a 15 bf
       -1.3428705 -0.48354286 -0.5620948 -0.58414227
0001b0 19 5c 7c 3e dd bd 63 3c a2 e2 0f be 1c b0 eb 3d
       0.24644507 0.013900247 -0.14051297 0.115081996
0001c0 65 c5 bb be f1 52 71 3d d1 c8 77 3e 8a 7d 25 bf
       -0.36674038 0.05891699 0.24197699 -0.6464468
0001d0 3d 0e cf 3d 1e 0b bb 3d 02 0a 15 be 01 37 d8 3d
       0.101101376 0.0913298 -0.14554599 0.10557366
0001e0 d1 47 19 3f 4b aa 06 3e e4 66 82 3d d1 76 3e 3d
       0.5987521 0.13150899 0.06367281 0.04650003
0001f0 ad 24 94 bf 5e 55 21 be 64 0f c6 bd da 8c 04 3c
       -1.1573693 -0.15755221 -0.09670904 0.008090222
000200 fe a0 1d 3f ba 2c ab bf 05 fd a1 3e a2 c4 1d bf
       0.6157378 -1.3373024 0.3163835 -0.6162816
000210 ec 2c ba bf 68 5a 95 bc 1e 2f 94 be 1f 8b 1f be
       -1.4544959 -0.018231586 -0.28942198 -0.15580414
000220 fa 96 f2 bb 33 10 b3 be 07 4f 34 3d e6 31 af 3e
       -0.0074032517 -0.34973297 0.04402068 0.34217757
000230 78 ed f4 3e c5 25 10 3f 4b 72 8f 3e c5 86 af be
       0.47837424 0.5630763 0.28016886 -0.34282508
000240 f5 26 8f be 52 6d 1c bf 4f 81 ad 3d d8 d9 03 3e
       -0.2795941 -0.6110431 0.08471929 0.1287607
000250 1a 61 46 3f ad 55 58 bf 43 bc 7b bd 7b 16 49 bc
       0.77491915 -0.8450573 -0.061458837 -0.012273426
000260 8e 7c 25 bc 8a a9 bc bd 38 d3 a3 3f df 37 68 bf
       -0.010100497 -0.092120245 1.2798834 -0.9071025
000270 c2 f6 8a 3e 7a 03 9a 3d 7e 39 4c bc c0 0e ef 39
       0.27141386 0.07520194 -0.012464879 0.00045596622
000280 6a 52 4f bc e5 42 f6 bf 9d 4a 97 bd ff 19 7f bf
       -0.012653926 -1.9239165 -0.07387278 -0.9964904
000290 04 f6 e0 3c ac a7 77 3d 27 48 18 bd 40 4b e8 bc
       0.02746106 0.06046264 -0.037178185 -0.028356194
0002a0 c6 07 32 bf 8d 37 46 bf 4b 80 b1 3f 93 02 09 40
       -0.6954311 -0.77428514 1.3867277 2.140782
0002b0 c2 94 54 3c e4 4b 12 bf 4d 75 9d bc b2 12 f2 3d
       0.01297492 -0.5714705 -0.019220972 0.11819972
0002c0 09 10 48 3e 76 9e c6 bf 0e 94 dc 3f a9 aa a2 3f
       0.19537367 -1.5517108 1.7232683 1.2708331
0002d0 cb b8 7b bf c7 4a 93 3e 3a da e8 3e 7b c8 1a 3d
       -0.98328847 0.28767988 0.45478994 0.03778885
0002e0 8a 2b 9f 3e 04 2d c8 be 0d 8e a7 be 12 9c 02 3f
       0.31087905 -0.39096844 -0.32725564 0.51019394
0002f0 63 19 99 bf 8a e6 04 3f 42 c4 b8 3d 15 8f 8f bd
       -1.1960872 0.51914275 0.09021808 -0.070097126
000300 a5 bc 6d 3b 9e 4f a3 3e 8b 58 32 bf ed de cc be
       0.003627577 0.3189668 -0.69666356 -0.4001383
000310 2d 97 3f be 33 c0 7b 3e f3 e1 d1 3c 50 d6 be 3e
       -0.18710013 0.24585037 0.025620436 0.37272882
000320 28 82 95 3d ed c5 05 bf 69 33 cd be 64 c0 19 be
       0.07300216 -0.52255136 -0.40078285 -0.15014797
000330 76 fa 8e bf f6 e7 14 3f ba bc f1 bd f9 13 84 3d
       -1.1170185 0.58166444 -0.11803575 0.06449122
000340 d2 e1 5b 3c b6 4b 01 bf d2 18 b7 3d a5 41 06 be
       0.013420539 -0.5050615 0.08940281 -0.13110979
000350 30 62 da 3b bc 7d 4e be 8d 9e 9f bc 88 dc de bc
       0.006664537 -0.20165151 -0.019484783 -0.027204767
000360 80 65 03 3e e0 d6 b4 bf 65 ee 02 3f 59 af 30 bf
       0.12831688 -1.4128075 0.5114501 -0.6901756
000370 f4 7f f0 be ce cf c9 3e ff 46 41 3e 94 94 88 be
       -0.4697262 0.39416355 0.18874739 -0.26675856
000380 f9 20 66 bf 62 e4 b8 be 60 0e 0a bf b7 6a 93 bd
       -0.8989406 -0.36111742 -0.53928185 -0.071980886
000390 7f 26 89 3e 10 72 40 3c 30 c6 fb 3c b1 5b e6 3e
       0.26787183 0.011745945 0.030734152 0.4499183
0003a0 be 12 35 3e 0a 01 b2 bd 63 3c b5 3e ea 71 89 be
       0.17682931 -0.086916044 0.35397634 -0.26844722
0003b0 b4 c9 6b 3f 61 1f a7 be 25 eb 11 bf 08 ff 2b 3e
       0.9210465 -0.32641128 -0.5699943 0.16796505
0003c0 57 f3 e9 3d e3 ca 2c bc ba 54 32 bd 65 06 63 bd
       0.114233665 -0.010546419 -0.043537833 -0.05542602
0003d0 6d 4d b7 3f c8 8d 99 bd 0e b8 f4 38 b5 eb 12 be
       1.4320503 -0.07497746 0.000116691095 -0.14347728
0003e0 be bd ce 3e 00 52 61 bd 25 88 eb be 42 bd 83 3e
       0.40379137 -0.055009842 -0.46002308 0.2573033
0003f0 ab 90 69 3f 21 e6 6e be d9 e2 b8 be 2a 72 18 bd
       0.9123637 -0.23329975 -0.3611057 -0.03721825

hidden_layers.0.bias f4 [256]
000000 fd ba f9 be 75 a3 fc 3d 07 de d0 be b0 6b a1 bd
       -0.48775473 0.123358645 -0.40794393 -0.07881868
000010 e5 de e7 bd 5b cf 19 be cb 47 08 bd 52 bc 0e 3d
       -0.11321811 -0.15020506 -0.033271592 0.034847565
000020 4a 79 36 3e 13 53 00 3f af ad f4 be 4f 5a 5b 3d
       0.17819706 0.5012676 -0.4778876 0.05355292
000030 b7 ff 50 be 73 19 00 bc e8 1f 55 3b ac 53 ab 3e
       -0.20410047 -0.007818568 0.0032520238 0.33462274
000040 53 52 92 be 5e 88 31 3e 25 af 9c bd ae 63 15 3c
       -0.28578433 0.17337176 -0.07650594 0.009118004
000050 7c df a0 be 43 71 ce be c8 c9 42 be 54 ae 39 3e
       -0.31420505 -0.40320787 -0.19022286 0.18132907
000060 72 8d ca be 25 d0 d0 3d 52 bf 8c 3e 87 8f bb be
       -0.3956104 0.101959504 0.27489716 -0.3663294
000070 50 d2 80 3d 93 68 72 be d6 e7 99 bc 5f 1e fc be
       0.06290114 -0.23672704 -0.018787306 -0.4924192
000080 7f 31 a3 be 18 22 3c 3e c5 03 06 bf 3b 14 ab 3e
       -0.318737 0.1837238 -0.523495 0.33413872
000090 d7 94 77 bd c0 03 79 3d 43 81 27 3e d9 39 86 3e
       -0.06044468 0.060794592 0.16357903 0.2621601
0000a0 71 47 ec be 84 e3 e6 bc cd 90 21 be 0b 63 0b bd
       -0.46148255 -0.02818466 -0.15777893 -0.03403
0000b0 a3 1a 1c 3f 35 1d 70 3d bc a2 c8 3d 71 d5 e6 bd
       0.60978144 0.058621604 0.09796664 -0.112711795
0000c0 05 dd b1 3e f4 39 bd 3c bb e4 b0 be 16 8f 9f 3e
       0.34738937 0.023098923 -0.34549507 0.31163853
0000d0 7e 0c 59 be 28 f1 2b 3d 5e 46 0c be 35 9d 85 bd
       -0.21196172 0.04197803 -0.13698718 -0.065241255
0000e0 af 9d c3 3e 5c 38 e8 3e e2 6b 8a bd 14 e9 ff bd
       0.3820624 0.453555 -0.06758858 -0.12495628
0000f0 28 22 8c bd 1e ab 89 be 73 56 10 3e 12 76 d1 3e
       -0.06842452 -0.26888365 0.14095478 0.40910393
000100 d4 11 03 be 83 ff 54 3e 4e 89 c0 3e 10 fa cc 3d
       -0.1279977 0.20800595 0.37604755 0.10008633
000110 89 29 5f be 0c 9f 8d bd 51 25 3e 3e 26 37 e5 bc
       -0.21793188 -0.069151014 0.18568923 -0.027980398
000120 1d a6 00 3e b7 4c 75 3e b6 12 57 be 45 e8 35 3e
       0.12563367 0.23955046 -0.21003231 0.17764385
000130 50 87 1d bf 35 4b 25 3e 2d 00 9a 3e db fc 79 3e
       -0.61534595 0.1614197 0.3007826 0.24412863
000140 78 0b 3e 3e d6 f7 ea bd 36 1b 83 3e 48 5f b0 3d
       0.18559062 -0.11473052 0.25606698 0.086119235
000150 d4 c3 82 bc 1c 6f a5 3e 93 11 ea be 46 0a 3f 3e
       -0.015962519 0.32311332 -0.45716533 0.18656263
000160 6a e0 22 3f 5b 40 53 be d9 4c 75 3e cf 1d 9d 3e
       0.6362368 -0.20630018 0.23955096 0.30686805
000170 c2 cb 79 be 90 07 10 3f a9 fe b9 be 7a 1c 79 be
       -0.24394134 0.5626154 -0.36327103 -0.24327269
000180 cc 0b 52 be 54 01 10 3d 2e c4 83 be 91 c2 94 be
       -0.20512313 0.035157517 -0.2573561 -0.29054692
000190 46 76 ee be a4 42 48 be 6a 25 00 3f 8f 19 b3 3e
       -0.4657461 -0.19556671 0.5005709 0.34980437
0001a0 58 c3 32 be e4 9e 9b 3e b8 f5 a8 3e f1 99 9c be
       -0.1745733 0.3039466 0.3299997 -0.30586198
0001b0 d6 1c bf 3e 14 12 d0 be 7b f5 95 bd 0f 9b 34 3e
       0.37326688 -0.40638793 -0.07322212 0.17637275
0001c0 ca b7 a0 3e 77 fb 8a bd a1 1d 94 be 28 db 83 3e
       0.3139022 -0.06786244 -0.28928855 0.2575314
0001d0 d1 c6 60 be f5 c8 b2 be ef db 8c 3e 2e 0f 31 3e
       -0.21950842 -0.34918943 0.27511546 0.17290947
0001e0 b0 52 7d bb 45 a0 a6 3e 8f ae e6 bd 41 ad cb 3d
       -0.0038654022 0.3254415 -0.11263763 0.09945155
0001f0 4b 7d 50 3e 57 9f a8 3e e2 da 7e 3e 7d b7 00 3d
       0.20360295 0.32934067 0.24888185 0.031424988
000200 98 37 04 3f b5 76 05 be f7 15 0e bf c6 22 aa be
       0.5164733 -0.13033564 -0.55502266 -0.33229655
000210 29 8e 12 be 41 a0 9d be 29 89 3d 3e c5 17 03 bf
       -0.14312042 -0.30786327 0.18509354 -0.51208144
000220 0f ff 63 be ad 3d 8d be c1 12 38 bd 7d 79 c8 3e
       -0.22265266 -0.27586117 -0.04493976 0.39155188
000230 c5 7d 6c 3c d3 f7 9e 3d 71 ff 1a 3c 4d 63 57 be
       0.014434283 0.077621125 0.009460316 -0.21033974
000240 4b a3 1f 3e 62 6c fa bd 42 29 30 3e 94 33 37 3e
       0.15589635 -0.12227704 0.17203239 0.17890769
000250 60 e4 b8 bd f3 23 9a bd 6e 91 fc bd 58 b9 49 bd
       -0.09027934 -0.07526388 -0.12332426 -0.049249023
000260 2c f6 50 3e 35 4a 26 bf 30 df 05 3f 86 9f a0 3e
       0.20406407 -0.6495698 0.5229368 0.31371707
000270 db 61 a0 be 0a 9e 39 3e 9f 17 68 be 46 e4 c6 bd
       -0.31324658 0.18126693 -0.2266526 -0.097115085
000280 00 d3 1f be 08 30 23 bf 0b 36 0e bd 6b c4 91 be
       -0.15607834 -0.63745165 -0.03471951 -0.28470168
000290 55 34 c5 3e 4a 0c 3a bd 25 d6 9c 3e 36 92 fb 3c
       0.3851649 -0.045421876 0.3063213 0.030709367
0002a0 76 28 8f 3e db dc 9e be d1 20 cc bd 62 56 23 3e
       0.27960557 -0.31027874 -0.09967197 0.15950921
0002b0 e7 eb cb 3e b2 35 ce be 9e 15 a3 bd 45 2f 6f bd
       0.39828417 -0.4027534 -0.079631075 -0.05839469
0002c0 f1 7e 3c bd a2 ba bb be e2 12 c4 3e a0 51 db be
       -0.0460195 -0.36665827 0.38295656 -0.42835712
0002d0 0e f3 d9 3e 78 ec e2 3d 66 09 57 be 11 99 29 3e
       0.4256825 0.11080259 -0.20999679 0.16562296
0002e0 d7 0e 39 be 20 16 71 be 1c 38 28 be dd b5 e6 3e
       -0.18072067 -0.23543596 -0.16427654 0.45060626
0002f0 4e 4f 6b 3e 15 84 3e be 13 8f 8b 3e c5 25 d6 3e
       0.22979471 -0.18605073 0.27257594 0.4182569
000300 90 a1 54 bd f7 b5 1f bf 4d a1 05 be 03 f6 10 bc
       -0.05191189 -0.6238703 -0.13049813 -0.008847716
000310 f1 62 8b be ba 62 e2 3e a6 25 95 be 06 f9 20 be
       -0.27223924 0.44215947 -0.29130286 -0.15719995
000320 c8 11 3e 3e 69 ba 38 be 2e a8 b6 3d 80 4d e7 3e
       0.1856147 -0.1803986 0.089187965 0.45176315
000330 2c ea d5 3d 1a 7c bf 3e 7c 07 f4 bd a1 13 41 be
       0.10445055 0.3739937 -0.1191549 -0.18855144
000340 7d d1 13 3e f1 9e 7f 3d c6 7a 0b 3c 4a 14 af 3e
       0.14435382 0.062407438 0.008513158 0.34195167
000350 ae c8 96 bd 2c 4a 19 bd 4c dd 2a 3e 81 e3 4b be
       -0.07362495 -0.03742425 0.1668598 -0.19911005
000360 41 a2 9a 3e c8 d7 be be 69 97 0b bd bf 4a 50 bd
       0.30201915 -0.37274003 -0.034079943 -0.050852533
000370 9c 68 95 be 3c 29 76 be 88 eb 97 3e d7 aa 9b bd
       -0.29181373 -0.24039167 0.29671884 -0.076009445
000380 15 f9 0f 3b a6 ad 05 3e 3c 83 4b bd bc 01 b5 3e
       0.0021968533 0.13054523 -0.0496857 0.35352886
000390 a0 72 0d bf 40 4d dc be 34 b0 1c 3d 98 14 60 bd
       -0.5525303 -0.43027687 0.038253978 -0.05470714
0003a0 aa 80 e4 3d 10 e1 a2 3d 6e 9c 8d 3b 45 78 8f be
       0.11157353 0.079530835 0.0043216264 -0.28021446
0003b0 18 df e9 3b 57 96 f5 be 7a a2 3b bd c1 38 84 3c
       0.0071371906 -0.47966263 -0.045809247 0.016140344
0003c0 6c a7 c5 be 87 13 ac be cc 32 4d bc 50 02 91 bd
       -0.38604295 -0.33608648 -0.012524318 -0.07080519
0003d0 72 1a 6b 3e 76 45 a2 3e b5 67 9c 3e fc e5 5b be
       0.22959307 0.3169362 0.30547872 -0.21474451
0003e0 77 98 7b 3e 40 94 70 3d 49 91 18 3c 4f d5 72 bd
       0.2456988 0.058735132 0.009311982 -0.05928546
0003f0 9c e6 b1 bc 22 08 0b bf 03 07 d5 3c 92 05 c5 3b
       -0.021716408 -0.54309285 0.02600432 0.006012627

hidden_layers.1.weight f4 [128, 256]
000000 14 e6 40 3d 7b c4 88 3e 42 30 e0 3e 15 f3 2f be
       0.04709442 0.26712403 0.43786818 -0.17182572
000010 5f 86 10 3e 63 ca 1c 3d d9 be d6 be 36 4e ca be
       0.14113759 0.03827895 -0.4194248 -0.39512795
000020 22 09 3e 3e f7 ad b6 be 39 8f ec be ad 3f 24 be
       0.18558171 -0.356796 -0.4620302 -0.16039915
000030 8a b5 c0 3e 28 2a ab 3e 1c 6f 25 3e ea 35 be be
       0.37638503 0.334306 0.16155666 -0.37150508
000040 22 97 80 be c1 8b a2 3e a4 d6 9c 3e 0f a5 33 bf
       -0.25115305 0.3174725 0.30632508 -0.70173734
000050 30 91 87 3e 6c 90 af 3e 36 8b 18 3f 76 56 c7 3e
       0.26477957 0.34289873 0.5958742 0.38933152
000060 1f 50 54 bd 03 09 d9 3e 29 5d c3 bd 4b fc 91 be
       -0.051834222 0.42389688 -0.09539253 -0.28512797
000070 63 48 18 3e 8c e6 d2 be 40 d8 cf be 2e ea 6d 3f
       0.14871363 -0.41191518 -0.40594673 0.92935455
000080 8b 3b 31 be 73 95 b1 3b a6 da e2 3e 17 07 27 3e
       -0.1730787 0.005419427 0.4430744 0.16311298
000090 18 ea 1e bf 64 06 93 bd ce c6 70 bc ef 8b 21 bc
       -0.6207595 -0.07178953 -0.014695836 -0.009860023
0000a0 f7 27 bf 3e fd 84 cf 3e ba 1d cf bd d6 c0 84 bd
       0.37335178 0.4053115 -0.10113092 -0.06482093
0000b0 8d 46 d2 3c 27 45 31 bd 26 e6 76 be 75 a2 0e 3d
       0.025668407 -0.04327884 -0.24111232 0.0348229
0000c0 21 9a 75 3c fc a2 67 3e 84 b7 9e be 69 c2 16 3e
       0.0149903605 0.22620767 -0.30999386 0.14722599
0000d0 31 86 c9 3e 35 85 89 3c c4 ed 84 3d 2e ba 0b bf
       0.39360192 0.01678715 0.06490663 -0.5458096
0000e0 75 c9 17 bf d8 68 a1 bc ff a9 da 3c 78 21 dc be
       -0.59291774 -0.019703314 0.026692389 -0.42994285
0000f0 8c 00 08 3e 30 75 20 3e e9 ad e2 3d c1 11 a0 be
       0.13281459 0.15669703 0.11068327 -0.31263545
000100 a1 e8 e7 3c 69 ed 26 be b4 27 dd be 20 84 87 bf
       0.028309168 -0.16301502 -0.43194354 -1.0587196
000110 93 f3 80 3e 7a ef 8c 3e 1d 40 86 3e 92 97 c9 3e
       0.25185832 0.27526456 0.2622079 0.3937345
000120 5c 61 8c 3d e8 18 6f 3e 2b 39 d1 3e d4 c0 15 be
       0.06854507 0.23349345 0.40863928 -0.1462434
000130 36 b2 d6 3d 16 7e e2 3d 1e 4a 8a bd 38 f5 56 bc
       0.1048321 0.11059205 -0.06752418 -0.013119988
000140 26 c4 c3 3d 65 82 68 b9 35 b1 d0 3d 08 0d 7f 3e
       0.09558897 -0.0002217382 0.101900496 0.24907315
000150 34 0f 08 be db db f7 bd e3 d3 16 3f 96 c5 78 bf
       -0.1328705 -0.12102481 0.58917063 -0.9717649
000160 bc 36 1a 3c 7b b0 0e 3e b4 33 99 3d 92 4b 11 be
       0.009412464 0.1393451 0.07480565 -0.14188984
000170 4f e5 d5 3d 64 f4 89 bb 89 8f f2 bd 1b 68 cf bd
       0.10444128 -0.004210042 -0.118437834 -0.101272784
000180 be cb b2 3e d7 d0 c3 3e c7 ca 93 3e 0e 40 07 3f
       0.34921068 0.3824527 0.28865644 0.52832115
000190 70 8b dd 3e f6 ce 21 bf bf 0d 35 3d 6b 9f 2d bd
       0.43270445 -0.6320642 0.044202562 -0.04238836
0001a0 46 7c 52 be 88 49 28 be 96 14 4e be 94 77 1e 3f
       -0.20555219 -0.164343 -0.2012504 0.6190121
0001b0 88 48 48 bf ab b5 ed 3e f9 02 f7 3e 4b 7f 16 3f
       -0.78235674 0.46427664 0.48244455 0.58787984
0001c0 63 8b 33 3e 95 80 3d 3e 1c be 4b be 04 76 83 be
       0.1753364 0.18506081 -0.1989674 -0.25675976
0001d0 b5 25 6d 3e a1 4f 76 3e 41 cf 83 3e 75 b2 aa be
       0.23158915 0.24053814 0.2574406 -0.33339277
0001e0 1e 33 84 bd 19 6f d4 3d b9 52 1d bf 1a ea 77 be
       -0.06455062 0.10372753 -0.6145435 -0.24210396
0001f0 28 22 2b be b8 3c 27 bf 13 68 5a 3e 1b 38 c2 be
       -0.16712248 -0.65327024 0.21328764 -0.3793343
000200 8e 73 08 bf 1c 12 17 bd 17 f7 c1 3e 3b c5 09 3e
       -0.5330132 -0.036882505 0.37883827 0.13454144
000210 cb b7 e3 3d f7 2d cd 3e 30 99 8c bd 8e a4 9d 3e
       0.1111904 0.4007413 -0.06865156 0.30789608
000220 1f e4 3d bf 62 7e 4b 3e 62 83 9d be 8a 08 71 3e
       -0.7417621 0.1987243 -0.307643 0.23538414
000230 07 44 77 bf 31 82 53 be 08 23 f6 be f7 74 a2 bd
       -0.96588176 -0.20655133 -0.48073602 -0.079324655
000240 f0 87 a2 be cc 26 87 3c fc a1 cb 3e 73 e4 fe bd
       -0.31744337 0.016497992 0.39772022 -0.12445917
000250 d5 4b ee 3c d3 e8 da be 28 d1 2e 3f 51 e7 96 be
       0.029088894 -0.42755756 0.682879 -0.29473355
000260 4e 01 de 3d 59 e6 a3 3e 36 f3 05 3e 45 a1 b1 bd
       0.108400926 0.3201168 0.13081059 -0.08673338
000270 41 69 27 be b0 1d 12 bd 1b eb db bd c3 d7 57 bd
       -0.16348745 -0.035672843 -0.10738202 -0.052696
000280 10 5c 39 3f fc 87 95 be 77 9a df bb fc 7a 9a 3e
       0.724061 -0.2920531 -0.0068238336 0.30171955
000290 22 ef 72 bd a6 5b de be bb d8 58 3e bd 87 fa 3d
       -0.059310086 -0.43429297 0.21176426 0.12232921
0002a0 47 5d a0 3c e8 47 d4 bd ee cf 09 3f 79 6b c5 3b
       0.019575728 -0.103652775 0.538329 0.0060247746
0002b0 db 01 9d bd 58 4f 43 3f 80 aa d2 be 6e a4 9f 3e
       -0.076663695 0.76292944 -0.41145706 0.31180137
0002c0 9c c7 6e 3b fb 31 ec be f8 6d b2 be bf b8 f0 3e
       0.0036434894 -0.46131882 -0.34849524 0.4701595
0002d0 19 9d 95 3c 77 cb 07 bf 16 58 49 3d b8 00 a3 be
       0.018263387 -0.5304484 0.04915627 -0.31836486
0002e0 18 4f dd bd 03 00 68 3e e2 1c c4 be 07 1a 85 bf
       -0.108061016 0.22656254 -0.38303286 -1.0398568
0002f0 0e bc da 3e 07 4d e3 3e b7 7e 9e 3d 3b db 18 bf
       0.427216 0.44394705 0.07739013 -0.5970952
000300 35 59 94 3d 1d dc 64 bf 1c cd 07 bf 35 17 0b bf
       0.072435774 -0.89398366 -0.5304735 -0.54332286
000310 70 a8 f0 3e 7a 22 65 bf 90 fc 67 3f 68 1c e1 bc
       0.47003508 -0.8950573 0.90619755 -0.027479365
000320 fa 82 14 be 68 29 0e 3f f6 84 aa 3e e3 7a d7 3b
       -0.14503089 0.5553193 0.33304566 0.0065759285
000330 6c 42 7c 3e 85 41 eb 3c 33 32 bf 3d 63 c3 86 bc
       0.24634713 0.028717766 0.093357466 -0.01645059
000340 15 bb 1a 3f 1a 76 cc 3e 2b ab bc 3e 5a 37 ce bd
       0.60441715 0.39933854 0.3684934 -0.10069151
000350 2e 18 b9 3e 6e cb 90 bd 24 4c e5 3e 62 fd d4 bd
       0.3615126 -0.07070051 0.44784653 -0.103998914
000360 bc 93 d5 3e d6 5d db 3e 1a cd ed bc cc 8c f4 3c
       0.41714275 0.4284503 -0.029028464 0.029852293
000370 e6 5f ab 3e 85 ee d5 3d 6e 83 a2 3e f8 77 32 be
       0.33471602 0.104458846 0.31740898 -0.17428577
000380 49 43 81 3e 98 f4 98 be af 7a 92 3e 25 9e 77 bd
       0.25246647 -0.2987411 0.28609225 -0.060453553
000390 e0 a8 eb 3e ea 47 aa 3e f9 7a 8e 3e 11 a8 99 be
       0.4602728 0.3325799 0.27828196 -0.30011037
0003a0 6d ff 24 3f 60 99 4c 3e ed 5f 4c bf cb 5d e0 3d
       0.6445225 0.19980383 -0.7983387 0.109553896
0003b0 3a a8 f4 be 07 95 26 3f fe c5 1b bf 18 81 b0 be
       -0.47784597 0.6507115 -0.6084899 -0.3447349
0003c0 05 88 7e be 0e 59 ff 3d 86 7c c2 bd c2 11 56 bf
       -0.24856575 0.12468158 -0.09496407 -0.83620846
0003d0 b4 10 23 3d 9f e8 3e bf ac f1 3a 3a 8a fe 68 bd
       0.03981085 -0.745737 0.0007131349 -0.056883372
0003e0 7a 0a 71 3c 75 f7 3a be 74 95 15 be 34 19 44 3f
       0.01471197 -0.1825846 -0.14607793 0.76600957
0003f0 dd 89 17 bd be 29 40 3d 1a 79 32 3c ea 04 4a 3e
       -0.03699671 0.04691481 0.010893131 0.19728437

hidden_layers.1.bias f4 [128]
000000 68 de 3b 3d 88 a3 b3 3e 9a 1b 13 3d 93 17 40 bc
       0.0458664 0.35085702 0.035914995 -0.0117243705
000010 ba 77 54 3e 7b 28 58 3d b6 27 50 bd f4 c0 cc bb
       0.20748797 0.05277298 -0.05081912 -0.0062485877
000020 2f 44 4e 3d 06 1d 8e bc 5b 3c 82 be 75 5d a0 3e
       0.050357994 -0.017347824 -0.25436673 0.31321302
000030 42 f4 16 be 94 8f 54 3d 23 4b a5 3d fb ed 80 bc
       -0.14741614 0.05189474 0.08070972 -0.015738478
000040 b4 35 18 3e 99 e1 39 3e 71 4c 0d bd 2c 76 7f 3d
       0.14864236 0.18152465 -0.03449673 0.062368557
000050 d8 e2 01 bd 46 fc 86 be ad 33 c7 bc 90 43 a3 bc
       -0.031710476 -0.26364344 -0.024316633 -0.019929677
000060 7d 81 df bc c4 2d 01 3e ce 6a bb bd 66 12 26 3e
       -0.027283425 0.12615114 -0.09151231 0.16217956
000070 7b 52 21 3e 05 5d 54 bd 5d c0 1f 3e 38 aa db 3e
       0.1575412 -0.051846523 0.15600725 0.42903304
000080 89 49 2a 3e 9c 2e 8b bd 6d 0e 04 3c 01 c5 a4 be
       0.16629614 -0.067959994 0.00806008 -0.32181552
000090 11 5f 8d bd 4f c5 a4 3e ff 32 0f 3e 41 dd a5 be
       -0.06902898 0.32181785 0.13984297 -0.32395366
0000a0 f4 f3 76 3d 26 22 81 3e b6 3f 0b be c4 f9 5b be
       0.060291246 0.25221366 -0.13598523 -0.21481997
0000b0 27 37 c8 3e af 99 29 bb 65 60 a0 3e 7a 20 da 3d
       0.39104578 -0.0025878956 0.31323543 0.10650726
0000c0 b6 82 c9 3d 76 76 50 3e 63 a6 60 3c c4 55 00 3e
       0.09839384 0.2035769 0.013711545 0.12532717
0000d0 11 3e 65 3d 2a 2c e2 3d 46 63 3a bb 2c fd c0 bd
       0.055967394 0.1104358 -0.002844052 -0.09423289
0000e0 ee 86 82 3d 03 80 28 bd 9a 42 33 3d 11 4a 41 3d
       0.06373392 -0.041137706 0.043764688 0.047189776
0000f0 b7 fc f5 3d 23 49 40 3d 0f 39 39 be ba b5 92 3c
       0.12011092 0.04694475 -0.18088172 0.01790892
000100 b3 b3 e1 3e f7 e4 22 3e 4e e6 06 3e 39 a1 3e bd
       0.44082412 0.15907656 0.13173792 -0.046540473
000110 0b 27 21 3c c7 e7 90 3c d5 52 81 3e ff d5 44 bd
       0.009835969 0.017688645 0.25258508 -0.048055645
000120 e0 cb 9c bd ea 89 b2 3d cb c3 22 3c 77 97 0c bc
       -0.076560736 0.08717711 0.009934376 -0.008581034
000130 3e 7b b7 bd 49 da b3 be 03 5b e0 3c eb 35 11 bd
       -0.089590535 -0.35127476 0.027387148 -0.03545181
000140 6f 64 b7 3d bf 56 06 3d 62 02 4d 3d a6 c9 b4 3d
       0.08954703 0.03279757 0.0500511 0.08827524
000150 3f ab 5f 3e 0e ef df 3e 16 c0 3f 3d fc 87 83 bd
       0.21842669 0.43737072 0.046814047 -0.06422421
000160 d2 69 7f 3e 79 9e 39 bd e6 a9 13 bd 4a ca af 3d
       0.24942711 -0.045317147 -0.0360507 0.085835055
000170 c1 31 40 bd 62 8b a6 3d 45 ac 02 3e df 13 19 bd
       -0.04692245 0.08132054 0.12761028 -0.037372466
000180 85 fd 5e be f9 74 dc be fe af 77 bc 70 de 30 3d
       -0.21776398 -0.43057993 -0.015117643 0.043180883
000190 c7 4f da 3e 49 bf b7 bc 4b 4f f7 bc 54 66 76 3e
       0.4263899 -0.022430079 -0.030189177 0.24062473
0001a0 8a 09 d7 3e b6 fc 07 3e 39 93 13 3d 68 27 58 3c
       0.41999465 0.13279995 0.036029074 0.013192989
0001b0 74 9b 1a 3e 7b 3d 88 bd 99 f8 51 be cc e5 1b bc
       0.15098363 -0.066523515 -0.20504989 -0.009515237
0001c0 d5 5d 48 3e f4 2e b7 3d a4 c1 1e 3e 0b cf c0 bd
       0.19567044 0.089445025 0.15503556 -0.0941449
0001d0 da 5a ff 3d 8a 5d 24 3d da d3 e1 3e 3b d1 82 3c
       0.124685004 0.04012827 0.44106942 0.01596891
0001e0 fd fb 13 bd b4 e2 42 be 84 55 cb 3d ee 58 3d 3c
       -0.036128987 -0.19031793 0.0992842 0.011556847
0001f0 67 2a db bd 69 af 9a 3c d3 11 0b 3e 10 09 7a bd
       -0.10701447 0.01888247 0.13581018 -0.0610438

output.weight f4 [4, 128]
000000 ee 94 87 be 54 17 72 3f ba 71 39 be 9d 7d 50 bc
       -0.26480812 0.94566846 -0.1810979 -0.012725261
000010 33 6e 0b 3f 00 fd 60 be a6 f5 1a bf cb 98 e1 3c
       0.54465026 -0.21971512 -0.6053108 0.027538678
000020 8f bc 42 be b7 35 2f bf ff 13 0e 3f 79 ff 45 3f
       -0.19017242 -0.6844134 0.5549926 0.77342945
000030 fe ef 4a 3e fb b2 69 be 1b e4 31 bf 4b f2 4a 3f
       0.19818112 -0.22822182 -0.69488686 0.7927596
000040 42 09 5a be 73 a4 0a bf 31 3a ab bd e9 e2 26 bf
       -0.21292594 -0.5415718 -0.083607085 -0.6518999
000050 92 57 18 bd 67 4e 25 3e 2d 33 93 bd 88 9a 99 3f
       -0.03719289 0.1614319 -0.071874954 1.2000284
000060 ad 5b d0 be fc 9f bd 3f ec 73 5a 3d 82 10 0c 3f
       -0.40694943 1.4814448 0.053333208 0.5471269
000070 99 5a 77 bf a7 2f 46 3c 47 8f ec be 58 76 67 3f
       -0.96622616 0.012096322 -0.46203062 0.90414953
000080 38 be 07 bf 8a 7f 94 bd 02 9d b1 be 04 1b bb be
       -0.53024626 -0.07250889 -0.346901 -0.3654405
000090 ca 24 36 3d 20 3b 0e bf da 4b 0f bf 4d 25 ae 3f
       0.04446868 -0.5555897 -0.55975115 1.3605133
0000a0 87 86 1e bf b9 89 c5 3f 60 f8 c6 be d0 f6 0f 3f
       -0.6192402 1.5432655 -0.3886137 0.5623598
0000b0 60 21 9b bf ce c7 a9 be e9 55 c9 3e 97 8b e2 bd
       -1.211956 -0.3316025 0.39323357 -0.11061781
0000c0 d6 84 ee be 75 96 91 be 5f 6f 82 3f 37 16 5e bf
       -0.4658572 -0.28435102 1.0190238 -0.8675265
0000d0 43 fe 3e be d6 80 02 bf 74 ba fe be 25 62 52 bf
       -0.1865168 -0.5097784 -0.49751627 -0.82181007
0000e0 78 2d dd be 70 53 33 bd 0d 2e 5d be 29 a2 a7 be
       -0.43198752 -0.043780744 -0.21599598 -0.32740906
0000f0 7c 8a 1c 3f 1e 26 ab be 88 bf 2b be 49 d1 95 3d
       0.6114881 -0.3342752 -0.16772282 0.073153086
000100 c8 42 85 3f d7 b3 fd be 73 43 8d 3f fc 38 07 bb
       1.0411005 -0.4955127 1.1036209 -0.002063333
000110 63 00 aa 3d 8b 67 51 be d2 8d 1e 3f 20 d7 8a bd
       0.08300855 -0.20449655 0.6193515 -0.06779313
000120 51 67 3b 3d f0 ff 2e be 0d ee 42 bd e7 8b 43 3d
       0.045752827 -0.1708982 -0.047590304 0.047740843
000130 92 e9 9d 3d 42 9c 95 3f 8c a7 84 3d 43 71 3c bb
       0.077105656 1.1688311 0.064772695 -0.0028754033
000140 a0 92 ed bd f9 cd 2e bf 4f 50 00 bf 58 20 7e be
       -0.11600232 -0.6828304 -0.5012254 -0.24817026
000150 50 23 af bf e7 b0 94 bf 44 00 9e be 1d ad 87 3f
       -1.3682652 -1.1616486 -0.30859578 1.0599705
000160 5b 8c e8 be 81 8e 18 bf f9 75 06 bf 1b 99 61 bf
       -0.45419583 -0.59592444 -0.5252376 -0.88124245
000170 4c a4 7d 3f 81 f6 83 3f 68 08 0e bf cf 16 51 be
       0.9907882 1.0309602 -0.55481577 -0.20418857
000180 87 48 e8 be a8 d0 18 3f 89 18 05 bf 45 1b 8d 3f
       -0.45367834 0.59693384 -0.5199056 1.1023947
000190 11 cf 44 3f 8a 59 59 3d 44 42 2f 3d 0c bb e1 3f
       0.7687846 0.053063907 0.042787805 1.7635207
0001a0 1f 6a 85 3f 05 5e b0 be 24 7e 26 bf 35 20 d5 bc
       1.042301 -0.3444673 -0.65036225 -0.026016334
0001b0 be 94 ac be 95 8b 2e bf 1e 27 80 be 68 bc 07 bf
       -0.3370723 -0.68181735 -0.25029844 -0.5302186
0001c0 42 69 b1 3f c2 b8 8a be 00 dd aa 3a 72 17 52 be
       1.3860247 -0.27094084 0.0013035834 -0.20516756
0001d0 40 99 db be 76 29 b8 be 18 05 83 3f f0 b5 ec be
       -0.42890358 -0.35969132 1.023593 -0.46232557
0001e0 0e 32 43 bd 53 4f 04 3d 1d da 59 be 0c ae d5 be
       -0.047655158 0.032302212 -0.2127461 -0.4173435
0001f0 96 6d 1e 3c 45 14 2c 3d dd c4 55 bd a0 f5 73 3c
       0.009669682 0.042011518 -0.052189697 0.0148901045
000200 7c 49 14 bf ff db 44 3f ed cd 97 be e1 db 14 bd
       -0.5792463 0.7689819 -0.29649296 -0.036342505
000210 25 7a da 3e 15 11 84 be 5d 38 f7 be 9a b6 98 bd
       0.42671314 -0.25794283 -0.4828519 -0.074567035
000220 d1 a0 8b be 6e 5c 34 bf 85 f1 37 3f 0f f2 7e 3f
       -0.2727113 -0.70453537 0.71852905 0.995881
000230 68 1e fc 3e 28 2d d9 be 10 4e 3d bf cc 07 22 3f
       0.49241948 -0.42417264 -0.7394724 0.6329315
000240 f4 a7 e7 be d5 4a 73 bf 59 ce 1c 3d 61 c2 05 bf
       -0.45245326 -0.9503606 0.038282726 -0.52249724
000250 a7 48 9e 3d 86 fe 3a 3f 1b 29 6f bd d0 ab 8e 3f
       0.07728701 0.7304462 -0.05838881 1.1146183
000260 e8 9d 35 be 0f 30 ec 3f 69 05 88 be ea cc 8d 3e
       -0.17736018 1.8452166 -0.26566628 0.276954
000270 5c 9c 54 bf c0 55 23 bb 8a 1f 62 be d0 e4 50 3f
       -0.83051085 -0.0024922937 -0.22082344 0.8159914
000280 54 58 2d bf 00 de 2b ba 18 50 9e be 99 b2 21 3f
       -0.67712903 -0.0006556213 -0.30920482 0.63163143
000290 b3 fd 89 bb e7 38 9e be f8 1e 24 bf f9 75 91 3f
       -0.0042111515 -0.30902788 -0.64109755 1.1364127
0002a0 96 f3 bf be 62 c1 ae 3f 71 d1 a1 3d e1 63 14 3f
       -0.3749053 1.3652766 0.07901276 0.57964903
0002b0 3c 51 a4 bf 8d 51 b4 be b1 94 34 3f 4d 4b 74 be
       -1.2837291 -0.35218468 0.70539385 -0.2385685
0002c0 d4 82 e6 be 65 33 43 be d0 94 45 3f 2b eb 22 bf
       -0.4502169 -0.19062574 0.77180195 -0.6364009
0002d0 1d a0 88 be c2 3a ab be 4a 56 68 bf f5 32 f5 be
       -0.26684657 -0.33443266 -0.90756667 -0.4789044
0002e0 15 fc a4 be 9a 70 bb 3c 1c 9c 8d be b3 9e ce be
       -0.32223573 0.022880841 -0.27658165 -0.40355453
0002f0 7c e8 1a 3e 53 e7 97 be 52 e9 cd be 66 61 75 bd
       0.15127748 -0.29668674 -0.40217072 -0.05990734
000300 08 cf 7b 3f c9 89 b6 be 26 f8 b9 3f 03 ef 8c 3d
       0.9836278 -0.35651997 1.4528854 0.06881525
000310 86 2a 2a 3d 3a 3b e0 be 78 01 8e 3f dd bd 81 3c
       0.04154446 -0.43795186 1.1094198 0.015837604
000320 23 ed 9a bd 73 e5 91 be 68 5f 34 3c 7c 2b 43 bd
       -0.075647615 -0.28495368 0.011009075 -0.04764889
000330 43 ca a6 be 6a 7d 46 3f 3d 49 df bb de 00 98 bd
       -0.32576188 0.77535117 -0.0068141506 -0.074220404
000340 a1 06 b2 be 19 aa 39 bf da 89 1b bf 3e 2a 8a be
       -0.34770682 -0.72525173 -0.6075722 -0.26985353
000350 6b b8 6c bf df 30 8a bf 7d 83 a1 be 3e 17 90 3f
       -0.924689 -1.0796164 -0.3154563 1.1257093
000360 c8 3f 12 be cd a0 c9 be 88 a2 8c be 65 7f 4f bf
       -0.14282143 -0.39380494 -0.27467752 -0.81053764
000370 86 25 70 3f f1 74 78 3f 5a 71 2a bf dd 18 ca be
       0.93807256 0.9705344 -0.6657921 -0.39472094
000380 90 61 0d bf e8 6e 19 3f 6f e2 1d bf a2 78 96 3f
       -0.55226994 0.59934855 -0.61673635 1.1755564
000390 a4 ae 8c 3f bd 31 2f 3c 01 09 9a 3d 77 30 e2 3f
       1.0990796 0.010693011 0.075212486 1.767104
0003a0 5c 25 56 3f 97 7e 5e be cb a7 d3 bd ad fa 71 bc
       0.83650756 -0.21727978 -0.10334738 -0.014769238
0003b0 e7 0b b2 be 98 98 0d be e5 55 9d 3d 7b e2 91 be
       -0.34774706 -0.13827741 0.07682399 -0.28493103
0003c0 e9 59 78 3f 2c c5 63 be 2b 1b d5 be b2 d2 48 bd
       0.9701219 -0.22243184 -0.4162229 -0.04902906
0003d0 f8 44 32 be b9 40 ae be 8e 28 4e 3f 12 73 34 bf
       -0.17409122 -0.34033754 0.8053063 -0.70488083
0003e0 cc 78 7c bb 8f f0 89 3e 9d b1 ad be d5 45 75 be
       -0.003852415 0.26941344 -0.3392457 -0.2395242
0003f0 67 55 bd 3c 12 2e 3b bd ef 21 a3 be cb f6 45 3d
       0.023112012 -0.045698233 -0.31861827 0.048331063

output.bias f4 [4]
000000 bd b7 c6 bd c3 54 0b be ab 70 e1 3d 1b 70 d6 bd
       -0.09703014 -0.13606553 0.11007818 -0.10470601
